DeepSDFStruct/trained_models/round_cross/LatentCodes/latest.pth (torch, 1367 bytes, 1 tensors)

weight f4 [20, 1]
0.21151966 -0.1901877 0.3248956 0.36868268 0.41117775 -0.3785577 -0.42356437 0.5390337
-0.51412994 0.62435484 0.6678013 0.71024346 0.7518746 0.79380786 -0.7815491 -0.82666224
0.92042655 -0.91512823 1.0000677 -1.0000334
00000000: 9c98 583e 90c0 42be b758 a63e fac3 bc3e
00000010: e485 d23e 51d2 c1be 6edd d8be 1dfe 093f
00000020: 059e 03bf b8d5 1f3f 07f5 2a3f 84d2 353f
00000030: db7a 403f fe36 4b3f 9a13 48bf 23a0 53bf
00000040: 13a1 6b3f d845 6abf 3802 803f 1801 80bf
