DeepSDFStruct/trained_models/round_cross/ModelParameters/latest.pth (torch, 341630 bytes, 19 tensors)

module.lin0.bias f4 [128]
-0.24313234 0.06574095 -0.06336333 -0.43267095 -0.2038614 -0.023508014 0.33978128 -0.43558687
-0.17855872 0.12144495 -0.3117306 -0.009821412 0.032298565 -0.4341032 -0.45807463 0.0128368
0.10067697 -0.1717148 -0.2801673 -0.08482319 0.0325905 -0.2876292 -0.39829096 -0.1467122
-0.15622939 0.043656122 0.0085496735 0.29354888 0.08830362 0.17848752 -0.1832044 0.065185025
-0.17737365 0.16885751 0.023375243 -0.42758635 0.2632453 0.21096565 0.16682719 -0.18842399
-0.032617856 0.0990725 -0.41966054 0.057902053 -0.17317246 0.0963203 -0.031679276 0.015027877
0.09484093 0.033785883 0.08478102 0.061174344 0.27750012 0.096738964 -0.39163163 0.18566151
-0.08446318 -0.39396405 0.18939032 0.21914142 -0.5098869 0.1452084 -0.27264178 -0.22201563
-0.19123603 -0.26494804 -0.4633863 -0.45332143 0.11435497 -0.40999827 0.3397993 0.033693124
-0.21829198 -0.13335097 0.11663901 -0.24066336 -0.44899198 0.11588836 -0.036199205 -0.08035535
0.028919255 -0.01750536 -0.1819713 -0.26181972 0.018004596 0.24379231 0.2609253 0.010472508
-0.28214195 0.061919015 0.23972817 0.07213186 0.034314297 0.1665564 -0.28205425 0.14713953
-0.3149717 -0.4403287 -0.2059889 -0.43047178 -0.26568353 -0.4178027 -0.44253287 0.12050807
-0.16069204 -0.38400608 -0.060125183 -0.086613275 0.2725022 -0.48528886 -0.15305068 -0.122609615
-0.077338934 -0.10140973 -0.064309455 0.0069025634 0.11572681 0.17286424 -0.3724586 0.08909396
0.21925719 -0.23075165 -0.21253629 -0.43725637 -0.1665729 0.34595594 0.2811708 -0.29663697
00000000: aff7 78be 31a3 863d a2c4 81bd 0c87 ddbe
00000010: 0bc1 50be e193 c0bc d0f7 ad3e 3e05 dfbe
00000020: 19d8 36be 21b8 f83d 279b 9fbe fde9 20bc
00000030: 804b 043d c642 debe c288 eabe 7151 523c
00000040: ba2f ce3d 01d6 2fbe 1772 8fbe c8b7 adbd
00000050: 9e7d 053d 2244 93be cbec cbbe b93b 16be
00000060: 99fa 1fbe c3d0 323d ee13 0c3c 0a4c 963e
00000070: 87d8 b43d 6fc5 363e ef99 3bbe ba7f 853d
00000080: 70a1 35be fce8 2c3e 707d bf3c 99ec dabe
00000090: 17c8 863e 6107 583e bfd4 2a3e 38f2 40be
000000a0: 4d9a 05bd 86e6 ca3d bfdd d6be b42a 6d3d
000000b0: 1f54 31be 9443 c53d 21c2 01bd 7c37 763c
000000c0: f63b c23d 1163 0a3d aca1 ad3d f391 7a3d
000000d0: 7f14 8e3e 141f c63d f183 c8be 0d1e 3e3e
000000e0: 08fb acbd a8b5 c9be 89ef 413e 9c66 603e
000000f0: f387 02bf 83b1 143e b497 8bbe 1158 63be
00000100: 61d3 43be 45a7 87be f840 edbe bf19 e8be
00000110: f032 ea3d 4beb d1be 2dfa ad3e cd01 0a3d
00000120: ef87 5fbe 288d 08be 6fe0 ee3d 7570 76be
00000130: 47e2 e5be e056 ed3d 9e45 14bd 5991 a4bd
00000140: 13e8 ec3c 6767 8fbc af56 3abe 3c0d 86be
00000150: 607e 933c b1a4 793e 0098 853e e294 2b3c
00000160: e974 90be cb9e 7d3d 4d7b 753e deb9 933d
00000170: 268d 0c3d c38d 2a3e 6a69 90be bfab 163e
00000180: f843 a1be c372 e1be c1ee 52be cc66 dcbe
00000190: ac07 88be 3cea d5be ab93 e2be efcc f63d
000001a0: 748c 24be 729c c4be d345 76bd 4d62 b1bd
000001b0: 6985 8b3e c877 f8be 51b9 1cbe c01a fbbd
000001c0: e063 9ebd e8af cfbd adb4 83bd e62e e23b
000001d0: 2e02 ed3d 5303 313e e5b2 bebe e576 b63d
000001e0: f584 603e 294a 6cbe 1da3 59be 11e0 dfbe
000001f0: 1692 2abe 2321 b13e 9ef5 8f3e cde0 97be

module.lin0.parametrizations.weight.original0 f4 [128, 1]
0.32619694 0.6105343 0.6792971 0.69638515 0.6290234 0.61155224 0.35900587 0.25651935
0.5439085 0.6990876 0.59668475 0.7189979 0.6610195 0.6491352 0.27789634 0.49126187
0.72080886 0.6524276 0.79777664 0.71304375 0.5775325 0.42844495 0.770908 0.7991497
0.698979 0.69475937 0.57152665 0.5907566 0.6587606 0.3887698 0.6660059 0.45889524
0.7839407 0.59704626 0.6176654 0.6961955 0.6987289 0.4803113 0.73321307 0.7479753
0.6269301 0.4867418 0.7429188 0.4807615 0.6586484 0.58356714 0.44840568 0.6617302
0.5405324 0.4677193 0.7841629 0.4079088 0.43921578 0.64764845 0.5900977 0.52350867
0.5163764 0.4803817 0.5879484 0.52944666 0.5113824 0.48143855 0.6720199 0.55970037
0.6156744 0.7541477 0.64170414 0.67754984 0.5453936 0.8035338 0.40987813 0.5242274
0.7514559 0.35061646 0.1781714 0.73711824 0.4342405 0.6535703 0.5715346 0.5228808
0.6966082 0.66127574 0.6586601 0.8215432 0.5863219 0.706057 0.57815033 0.6325953
0.50449765 0.7021448 0.38479155 0.6932316 0.4660676 0.5568675 0.3500741 0.44105336
0.6830106 0.6957015 0.6777902 0.59597075 0.70468336 0.6285532 0.6917848 0.7447712
0.6880921 0.48957324 0.68649894 0.52625054 0.6904375 0.34167033 0.61928016 0.6778192
0.41670442 0.673008 0.680392 0.44231233 0.46840924 0.55581486 0.62189615 0.69766283
0.39547586 0.71158373 0.75884986 0.58783466 0.73587036 0.62396353 0.4430093 0.6132689
00000000: 4903 a73e fa4b 1c3f 6ae6 2d3f 4c46 323f
00000010: ad07 213f b08e 1c3f 9ecf b73e 8156 833e
00000020: 963d 0b3f 68f7 323f 55c0 183f 3f10 383f
00000030: 9338 293f b92d 263f 6e48 8e3e ad86 fb3e
00000040: ee86 383f 7f05 273f 173b 4c3f 098a 363f
00000050: 2bd9 133f 235d db3e 3a5a 453f 1395 4c3f
00000060: 4af0 323f c0db 313f 924f 123f d33b 173f
00000070: 89a4 283f d60c c73e 5d7f 2a3f 51f4 ea3e
00000080: 56b0 483f 06d8 183f 521f 1e3f de39 323f
00000090: e6df 323f 5deb f53e dab3 3b3f 4f7b 3f3f
000000a0: 7e7e 203f 3936 f93e ed2f 3e3f 5f26 f63e
000000b0: 2e9d 283f a864 153f 6e95 e53e 2667 293f
000000c0: 5560 0a3f e778 ef3e e6be 483f 6cd9 d03e
000000d0: e4e0 e03e 4acc 253f a510 173f aa04 063f
000000e0: 3e31 043f 97f4 f53e c983 163f d189 073f
000000f0: f5e9 023f 1d7f f63e 7f09 2c3f 8648 0f3f
00000100: d69c 1d3f d30f 413f b946 243f e873 2d3f
00000110: ea9e 0b3f 64b4 4d3f 8cdb d13e c433 063f
00000120: 6a5f 403f 0084 b33e 9072 363e c8b3 3c3f
00000130: c554 de3e 6250 273f 1750 123f 84db 053f
00000140: ea54 323f 5e49 293f f39d 283f a850 523f
00000150: 3119 163f 27c0 343f a901 143f c4f1 213f
00000160: c226 013f c3bf 333f 6603 c53e a077 313f
00000170: 6aa0 ee3e de8e 0e3f ea3c b33e bfd1 e13e
00000180: c8d9 2e3f 7e19 323f a983 2d3f 8a91 183f
00000190: 2166 343f dde8 203f cf18 313f 53a9 3e3f
000001a0: ce26 303f 58a9 fa3e 65be 2f3f 5bb8 063f
000001b0: 83c0 303f 6aef ae3e 2589 1e3f 8f85 2d3f
000001c0: 485a d53e 414a 2c3f 2c2e 2e3f c376 e23e
000001d0: 56d3 ef3e e249 0e3f 9634 1f3f 089a 323f
000001e0: d07b ca3e 5a2a 363f fc43 423f 557c 163f
000001f0: 0062 3c3f 13bc 1f3f 1dd2 e23e 31ff 1c3f

module.lin0.parametrizations.weight.original1 f4 [128, 4]
0.01093407 0.18771286 0.21749645 -0.21516058 -0.44757453 -0.19159521 0.1964779 0.30422467
-0.42748392 -6.8941285e-05 0.42743436 -0.0054539624 -0.66372025 -0.15246408 0.048123058 0.009814341
0.20706801 0.21207011 -0.22436675 0.21854849 0.35919127 -0.020822017 -0.007047418 0.45679778
-0.118268035 -0.07738803 -0.09563 -0.07623413 0.23615563 -0.010299265 -0.095507264 0.028372228
0.2110017 -0.22919905 0.22118165 -0.22581182 0.011025337 0.33833385 -0.50532836 -0.3831869
0.37919602 0.20235409 0.18827882 -0.2017386 0.0070413593 0.47187042 -0.27020466 -0.42356452
0.30827057 -0.0414489 0.08497411 -0.56754804 0.580441 -0.052031305 -0.004486066 0.016371975
-0.028347492 0.0210976 0.06221521 -0.2685274 0.08189333 0.06607134 -0.18777439 -0.45240673
0.1661589 -0.41998982 -0.656447 -0.43271023 -0.23248267 0.36608475 -0.20808531 -0.42269075
0.29370183 -0.30870572 -0.35009933 -0.31842875 -0.12036874 -0.4332934 -0.3867126 0.40012679
-0.024690036 0.46223015 -0.17860271 0.27267075 0.031167824 0.31657803 0.27538913 -0.3046043
-0.48719215 0.38500673 0.38435236 -0.15915507 -0.41693223 -0.53474575 0.31577224 -0.33752015
-0.51972574 -0.015705703 0.3976104 0.0037883078 0.024519723 0.28434005 0.23481256 0.4618349
0.14956287 -0.14934385 -0.49068025 0.17288022 -0.49625716 0.27329943 0.0093306545 -0.009742567
-0.25680766 -5.9759535e-05 0.43688476 -0.023064151 -0.01644921 0.35021886 0.08950048 -0.026029607
-0.28121895 -0.26350495 -0.31600997 -0.3019053 0.12809753 -0.06916882 -0.3940303 -0.105144
0.3893473 -0.28850532 -0.51403123 -0.27060688 -0.23946075 0.08276324 0.07543424 -0.39849025
0.01303216 -0.18132807 0.4568755 0.31610194 0.4507835 -0.044249196 -0.2914225 0.2881291
0.45412695 0.4494395 0.27348438 -0.4988833 0.026635692 -0.007983394 -0.023818115 0.4308713
-0.29409528 -0.05947333 -0.53542525 0.056554683 -0.3756953 0.40037498 0.3688157 0.35467213
-0.43338346 0.17341183 -0.43126008 0.0045851273 0.01075188 -0.31876987 -0.34102777 0.22004403
-0.40117893 -0.31424746 -0.081284314 0.3219722 -0.113571264 0.0020744936 -0.20042673 0.005142449
0.10486686 -0.04919345 -0.43756166 -0.47752064 -0.20415151 0.4124217 0.045363743 -0.039562058
0.0041031074 0.002957188 0.44990915 0.0041856207 0.15900926 0.20063555 -0.56116486 -0.10926213
-0.099814944 -0.1905717 0.05486252 -0.49220496 -0.011477413 -0.2867341 -0.09119294 -0.16689262
-0.43457565 -0.5425335 0.430992 -0.027462916 -0.21105202 -0.11642731 0.14522685 0.07883304
0.37027454 -0.28649637 -0.27685997 -0.09525383 0.35519233 -0.4505108 -0.24300556 0.025679775
0.018068168 0.35471833 0.33386618 0.3506338 0.39089108 0.009087459 -0.32016826 0.09239399
-0.40237904 -0.0007396345 -0.27868962 -0.017673977 0.006209802 0.24699941 -0.27505937 0.23982432
0.4143552 -0.4370586 0.05573119 -0.3352641 -0.4370034 -0.080148295 -0.28113955 0.01421745
-0.09741599 -0.37328365 0.32637075 0.3208264 0.03532824 0.11823455 0.2238585 -0.4432058
-0.4216919 0.24970014 -0.31205988 0.24855743 -0.22953789 -0.35250628 -0.36079866 -0.025116563
00000000: d024 333c cd37 403e 64b7 5e3e 0e53 5cbe
00000010: 7d28 e5be 8931 44be 8131 493e 56c3 9b3e
00000020: 2cdf dabe 9294 90b8 add8 da3e 27b7 b2bb
00000030: 92e9 29bf 8b1f 1cbe af1c 453d 54cc 203c
00000040: a309 543e e828 593e 66c0 65be 2dcb 5f3e
00000050: ebe7 b73e ef92 aabc 07ee e6bb 66e1 e93e
00000060: 8336 f2bd 9e7d 9ebd a9d9 c3bd a420 9cbd
00000070: c8d2 713e 40be 28bc 5099 c3bd e06c e83c
00000080: d410 583e 28b3 6abe 717d 623e 373b 67be
00000090: 9da3 343c 183a ad3e 335d 01bf 1331 c4be
000000a0: fb25 c23e e935 4f3e 2acc 403e 9094 4ebe
000000b0: 34bb e63b 0099 f13e 4458 8abe 73dd d8be
000000c0: a4d5 9d3e 52c6 29bd e806 ae3d d44a 11bf
000000d0: c897 143f c71e 55bd d9ff 92bb 851e 863c
000000e0: 0039 e8bc e0d4 ac3c 60d5 7e3d 6c7c 89be
000000f0: b1b7 a73d 6950 873d ee47 40be dba1 e7be
00000100: 8f25 2a3e e808 d7be e90c 28bf 328c ddbe
00000110: f00f 6ebe 766f bb3e 5114 55be ec6a d8be
00000120: 1660 963e ad0e 9ebe 3840 b3be 1809 a3be
00000130: e383 f6bd a2d8 ddbe 32ff c5be 6bdd cc3e
00000140: c242 cabc 6ea9 ec3e a1e3 36be 809b 8b3e
00000150: aa53 ff3c 8416 a23e ceff 8c3e 18f5 9bbe
00000160: 4071 f9be 9a1f c53e d5c9 c43e 8cf9 22be
00000170: 2478 d5be 19e5 08bf e6ac a13e 71cf acbe
00000180: bf0c 05bf 3fa9 80bc 9793 cb3e 4245 783b
00000190: 96dd c83c 0595 913e b472 703e a075 ec3e
000001a0: 0227 193e 98ed 18be 713a fbbe 8307 313e
000001b0: 6b15 febe e7ed 8b3e 9adf 183c 4a9f 1fbc
000001c0: 4b7c 83be 50a6 7ab8 5caf df3e 08f1 bcbc
000001d0: 7ec0 86bc e34f b33e 074c b73d 0b3c d5bc
000001e0: eefb 8fbe 1fea 86be 0fcc a1be 5593 9abe
000001f0: 002c 033e 62a8 8dbd 57be c9be bd55 d7bd
00000200: 8858 c73e f8b6 93be 8d97 03bf fc8c 8abe
00000210: 3335 75be c67f a93d 447d 9a3d ea06 ccbe
00000220: d784 553c 11ae 39be 96eb e93e 1dd8 a13e
00000230: 18cd e63e a53e 35bd 5435 95be a885 933e
00000240: 5483 e83e ef1c e63e 2506 8c3e a26d ffbe
00000250: 1833 da3c c8cc 02bc 351e c3bc 2a9b dc3e
00000260: a893 96be 4e9a 73bd a111 09bf e2a5 673d
00000270: 225b c0be f3fd cc3e 69d5 bc3e 9697 b53e
00000280: 70e4 ddbe df92 313e 1fce dcbe d63e 963b
00000290: a728 303c ce35 a3be 319b aebe 3953 613e
000002a0: 5367 cdbe 0be5 a0be 6478 a6bd 8ad9 a43e
000002b0: 0d98 e8bd 3af4 073b aa3c 4dbe fd81 a83b
000002c0: 70c4 d63d 127f 49bd 1508 e0be 967d f4be
000002d0: 180d 51be f028 d33e 55cf 393d d30b 22bd
000002e0: 5c73 863b 62cd 413b 7e5a e63e 8827 893b
000002f0: 53d3 223e 6873 4d3e 80a8 0fbf d3c4 dfbd
00000300: c76b ccbd 3a25 43be 86b7 603d 4a02 fcbe
00000310: c20b 3cbc d0ce 92be 5dc3 babd e6e5 2abe
00000320: b380 debe 7ae3 0abf fcaa dc3e e9f9 e0bc
00000330: 051e 58be 7171 eebd 59b6 143e 3873 a13d
00000340: a094 bd3e a7af 92be 97c0 8dbe 7114 c3bd
00000350: c5db b53e 5aa9 e6be 73d6 78be 645e d23c
00000360: b203 943c a49d b53e 82f0 aa3e 4686 b33e
00000370: e022 c83e 91e3 143c 18ed a3be 0f39 bd3d
00000380: a004 cebe 08e4 41ba 68b0 8ebe 04c9 90bc
00000390: 987b cb3b 6aed 7c3e 95d4 8cbe 8294 753e
000003a0: 5d26 d43e 25c6 dfbe 6346 643d bca7 abbe
000003b0: e9be dfbe ca24 a4bd 86f1 8fbe 4ff0 683c
000003c0: 0982 c7bd 091f bfbe 111a a73e 5c43 a43e
000003d0: 58b4 103d f524 f23d 2a3b 653e dfeb e2be
000003e0: 00e8 d7be 65b1 7f3e 50c6 9fbe d785 7e3e
000003f0: fb0b 6bbe b47b b4be 9aba b8be 40c1 cdbc

module.lin1.bias f4 [124]
-0.00024857602 0.05831717 -0.04603752 -0.09969331 -0.0059055383 0.0440648 0.07099402 0.049228393
0.022243124 0.005349897 -0.06873363 -0.05184788 -0.04205538 -0.07506335 0.028119065 -0.041441936
-0.042935416 0.048321147 0.03570533 -0.013172649 0.0348691 0.0025573638 -0.018287063 -0.0367534
0.038065653 0.0032488927 0.017358612 0.07767497 0.015496128 0.013752324 -0.007004734 0.014234689
0.009188414 0.087988384 0.06736298 0.03473334 -0.06015373 0.050368514 0.010060898 0.028041208
0.0013545792 -0.005975161 0.0680346 0.05347816 0.009388877 -0.058506664 -0.06060942 0.114381306
0.017219717 -0.02065556 0.021928942 0.0063671456 -0.024048457 0.03282164 0.01979682 -0.0038406616
0.06509882 0.058819592 -0.045475096 -0.059978943 -0.028812857 -0.07489531 -0.046832006 -0.023763856
0.036437698 0.022015352 0.0078044417 -0.03833154 0.032071892 0.08225621 -0.069339186 0.020857606
-0.0037557245 0.07145865 0.013985727 -0.023119126 0.025077187 -0.0671386 0.022879487 -0.04098463
0.07063323 -0.041948497 -0.007567375 0.03658884 0.07134177 -0.04120439 0.05188576 0.045472823
-0.007551136 -0.079270326 -0.029497145 -0.009130909 -0.027014988 0.063869074 0.028936045 0.06533882
-0.045920156 0.02893782 0.057625268 -0.007093138 -0.084753424 -0.0054461723 -0.03618358 0.019316675
-0.035729904 -0.008849702 -0.068009034 -0.028850796 0.03563512 -0.017338907 -0.015000228 -0.0047218255
-0.043662455 -0.015875265 -0.015282838 0.01592629 -0.030630631 -0.014457741 -0.050304975 0.014400829
-0.046796367 0.008100007 -0.03634589 -0.0054331813
00000000: 4f53 82b9 fcdd 6e3d d791 3cbd 022c ccbd
00000010: 3f83 c1bb 4b7d 343d 5065 913d b6a3 493d
00000020: 3637 b63c 304e af3b 38c4 8cbd 715e 54bd
00000030: 4342 2cbd d0ba 99bd f459 e63c 05bf 29bd
00000040: 0cdd 2fbd 65ec 453d c13f 123d 18d2 57bc
00000050: e7d2 0e3d 7299 273b c0ce 95bc bc8a 16bd
00000060: bbea 1b3d 60eb 543b a633 8e3c 0e14 9f3d
00000070: 79e3 7d3c 6d51 613c f887 e5bb 9d38 693c
00000080: 008b 163c 4133 b43d 9af5 893d 8c44 0e3d
00000090: c263 76bd 374f 4e3d 77d6 243c adb6 e53c
000000a0: 238c b13a 49cb c3bb b955 8b3d ea0b 5b3d
000000b0: ced3 193c afa4 6fbd 9541 78bd bf40 ea3d
000000c0: 5d10 8d3c d935 a9bc 53a4 b33c 7da3 d03b
000000d0: 4501 c5bc fc6f 063d f12c a23c 9cb3 7bbb
000000e0: 8852 853d d0ec 703d 1844 3abd 7bac 75bd
000000f0: f108 ecbc b662 99bd ebd2 3fbd 6bac c2bc
00000100: b23f 153d 8a59 b43c 67bc ff3b 8801 1dbd
00000110: d15d 033d f275 a83d b401 8ebd 92dd aa3c
00000120: 9a22 76bb ea58 923d 6424 653c 5264 bdbc
00000130: ac6e cd3c f67f 89bd c36d bb3c 80df 27bd
00000140: 28a8 903d 30d2 2bbd bef7 f7bb 2ede 153d
00000150: a21b 923d efc5 28bd 2a86 543d b641 3a3d
00000160: 856f f7bb 7b58 a2bd ffa3 f1bc cf99 15bc
00000170: 894e ddbc cacd 823d 490b ed3c 5cd0 853d
00000180: c616 3cbd 020f ed3c 7908 6c3d 8e6d e8bb
00000190: 3493 adbd ce75 b2bb 3c35 14bd 013e 9e3c
000001a0: 8559 12bd 57fe 10bc 5248 8bbd 8158 ecbc
000001b0: 22f6 113d 530a 8ebc 84c3 75bc 8bb9 9abb
000001c0: 67d7 32bd d80c 82bc de64 7abc da77 823c
000001d0: 17ed fabc 29e0 6cbc 970c 4ebd 74f1 6b3c
000001e0: 8cad 3fbd e4b5 043c 6edf 14bd d408 b2bb

module.lin1.parametrizations.weight.original0 f4 [124, 1]
0.5302696 0.5158155 0.5515074 0.5306896 0.5137752 0.50567603 0.60313946 0.52758557
0.58501935 0.6160829 0.5436 0.56601125 0.67909616 0.5702515 0.5645131 0.5789375
0.6296546 0.5195075 0.5469824 0.6140539 0.6361311 0.5541587 0.5222082 0.49792615
0.55297875 0.5554769 0.592465 0.5731342 0.54359806 0.54351515 0.5583121 0.62649524
0.6311553 0.54424274 0.5437139 0.6821197 0.56024665 0.5592993 0.5344685 0.4911212
0.5352294 0.52704346 0.46618173 0.51254433 0.68763673 0.5667335 0.6272193 0.51320446
0.585342 0.6247463 0.5359843 0.60206956 0.55434436 0.5259804 0.5111511 0.6003722
0.50267833 0.5347838 0.58475626 0.5591705 0.53330666 0.58257544 0.58829015 0.56683236
0.4822554 0.603925 0.58178174 0.5866846 0.49710882 0.7507358 0.60240614 0.4411677
0.6224927 0.5224893 0.6188373 0.6969596 0.56686866 0.5475791 0.59069604 0.53952485
0.48866153 0.5863583 0.58803266 0.55606467 0.49346957 0.6205627 0.60694087 0.6852593
0.57596904 0.5709075 0.5338554 0.6314337 0.57533747 0.5205241 0.5333988 0.5871847
0.5680744 0.52019703 0.5611226 0.55651814 0.5501157 0.6406321 0.66742486 0.48571312
0.5594178 0.6052897 0.5591402 0.52744687 0.57939124 0.55303913 0.6532098 0.5369851
0.5484309 0.55546105 0.45518038 0.51211447 0.5420443 0.59494466 0.5955585 0.59940535
0.5825839 0.50315475 0.5521223 0.58020693
00000000: c0bf 073f 7c0c 043f 972f 0d3f 46db 073f
00000010: c686 033f fc73 013f 5967 1a3f d90f 073f
00000020: d4c3 153f 9cb7 1d3f 5f29 0b3f 1de6 103f
00000030: 3fd9 2d3f 01fc 113f ee83 103f 3f35 143f
00000040: 0b31 213f 72fe 043f 0a07 0c3f a332 1d3f
00000050: 7dd9 223f 58dd 0d3f 70af 053f 2df0 fe3e
00000060: 0490 0d3f bc33 0e3f c9ab 173f ecb8 123f
00000070: 3e29 0b3f cf23 0b3f 8bed 0e3f fe61 203f
00000080: 6593 213f 7e53 0b3f d630 0b3f 669f 2e3f
00000090: 536c 0f3f 3d2e 0f3f edd2 083f 3d74 fb3e
000000a0: cb04 093f 52ec 063f 5faf ee3e 1b36 033f
000000b0: f608 303f 7215 113f 7291 203f 5e61 033f
000000c0: f9d8 153f 60ef 1f3f 4436 093f 3b21 1a3f
000000d0: 83e9 0d3f a7a6 063f ccda 023f feb1 193f
000000e0: 87af 003f 97e7 083f 96b2 153f cc25 0f3f
000000f0: c986 083f aa23 153f 2f9a 163f ed1b 113f
00000100: 2eea f63e d49a 1a3f a6ef 143f f630 163f
00000110: 0c85 fe3e 3930 403f 4a37 1a3f bce0 e13e
00000120: ae5b 1f3f dcc1 053f 1f6c 1e3f f26b 323f
00000130: 4e1e 113f 252e 0c3f db37 173f 4d1e 0a3f
00000140: d831 fa3e 941b 163f 4f89 163f 415a 0e3f
00000150: 0ba8 fc3e 32dd 1e3f 7a60 1b3f 276d 2f3f
00000160: b572 133f fe26 123f bfaa 083f a4a5 213f
00000170: 5149 133f 1141 053f d38c 083f bd51 163f
00000180: 536d 113f a22b 053f bba5 0f3f f977 0e3f
00000190: 62d4 0c3f 7700 243f 5bdc 2a3f 64af f83e
000001a0: 0136 0f3f 44f4 1a3f d023 0f3f c206 073f
000001b0: fc52 143f f993 0d3f c238 273f db77 093f
000001c0: f865 0c3f b232 0e3f 670d e93e ef19 033f
000001d0: 6ac3 0a3f 4b4e 183f 8676 183f a172 193f
000001e0: 3824 153f c0ce 003f e357 0d3f 7188 143f

module.lin1.parametrizations.weight.original1 f4 [124, 128]
0.07762222 0.05297408 0.0095233 0.0859086 -0.029224247 0.03893469 0.028957477 0.23742098
-0.04711557 -0.012580429 0.10543808 0.024872174 -0.008123447 -0.02267463 -0.24270627 -0.020317564
-0.002761616 -0.11213974 -0.039439388 -0.0461746 -0.08818382 0.11562077 0.04216396 -0.22836614
0.1035092 0.06493591 -0.017058838 -0.025068527 -0.038960226 -0.06746331 -0.09975983 -0.06287584
0.07287071 0.03250041 -0.007645174 -0.05560426 -0.043800063 0.035278104 -0.042739015 0.09330983
0.031743027 -0.06604758 -0.09592801 -0.14510027 0.108821824 -0.009102376 -0.029721376 -0.010265019
0.019232929 -0.058914673 -0.052054457 -0.06578451 0.043850135 0.022097232 0.06931223 0.04583334
-0.10488113 -0.04343716 0.029942786 -0.108458556 -0.094852775 0.04329327 -0.17738576 -0.11921172
-0.11569414 -0.0033807545 0.068024896 -0.0005865974 -0.045519758 0.113600664 -0.043902412 -0.048032455
-0.083838075 -0.0144910505 -0.16506378 0.015532039 -0.15086007 -0.121583275 -0.016809339 0.006697346
-0.07981864 0.09851845 -0.20561688 0.23079127 0.003169721 -0.059852105 -0.029869037 -0.02300179
-0.015678464 -0.15662919 -0.046882443 -0.0675159 0.04877977 0.039001215 0.08960775 -0.009397683
-0.11511821 0.0139665725 0.024030311 -0.101699606 0.05895186 0.0994532 0.22431031 0.05881736
-0.1758071 0.07331526 0.018035216 -0.021679562 0.016130751 0.10968865 0.12578546 -0.055198893
-0.19008036 -0.05784837 -0.093405135 0.061836366 0.011708614 -0.010404487 0.06864008 0.024118451
-0.0024089601 -0.010029754 -0.04748301 0.07509298 0.064942256 0.035339553 -0.056825053 -0.14795452
-0.2558627 0.05243523 0.047292978 0.091342196 -0.14611079 -0.1503933 -0.031554256 0.09386699
-0.19359069 -0.031719297 0.07796372 -0.032430697 -0.029640311 -0.11749067 0.10039059 -0.050659813
-0.030221624 0.021371642 -0.1376345 0.069046915 0.03623828 -0.15046412 -0.043166272 0.0645774
0.08923732 0.020313999 -0.08576505 0.03826983 -0.004245833 -0.043058377 0.094856985 -0.06870171
-0.22415054 0.04409887 -0.08112645 -0.14134763 -0.006458512 0.008679859 -0.012112563 -0.027517078
-0.048546217 0.017757144 0.013606252 0.052527923 -0.033463873 -0.024937209 -0.066907614 0.03900763
-0.04958607 -0.02946761 0.024993096 0.043229826 -0.025488019 -0.05588629 -0.077185854 -0.15198596
0.04219565 -0.21198773 -0.073469326 -0.015965782 -0.12006512 -0.0730131 0.11075243 0.11191268
0.020731607 -0.22158687 -0.19054842 -0.10187773 -0.015793242 0.026650291 0.0042911535 -0.087430775
0.04709482 -0.042425357 0.08384217 -0.02545525 -0.089532614 -0.058003772 -0.02411824 -0.10937822
-0.030363126 0.015024 -0.013302861 -0.098100826 -0.12535398 -0.0068546426 0.014770559 0.03544583
0.09852644 -0.02597783 0.06532757 0.0013901211 -0.031531222 -0.056002162 -0.15588474 -0.0868083
0.078125805 0.08863155 -0.13804643 0.04677263 -0.032509517 -0.04724658 -0.036587417 -0.08324648
0.08118434 0.109300025 -0.04354662 -0.08620435 0.036927186 0.10320379 0.09176678 0.0785594
-0.005445952 -0.022933643 0.081523284 -0.1710932 0.026011446 -0.09704022 -0.043190874 -0.047950093
-0.0017851355 -0.16227712 0.028671117 -0.015127698 -0.021601398 -0.036296427 0.030868487 0.013804247
00000000: 66f8 9e3d 59fb 583d 9e07 1c3c d9f0 af3d
00000010: b067 efbc fb79 1f3d 3b38 ed3c 7c1e 733e
00000020: 42fc 40bd 251e 4ebc ecef d73d bbc0 cb3c
00000030: 3518 05bc 25c0 b9bc fe87 78be 0571 a6bc
00000040: 3afc 34bb 85a9 e5bd 328b 21bd 9421 3dbd
00000050: b899 b4bd 95ca ec3d 1eb4 2c3d d0d8 69be
00000060: a2fc d33d 1efd 843d fabe 8bbc 835c cdbc
00000070: c294 1fbd 342a 8abd e24e ccbd 0cc5 80bd
00000080: 3d3d 953d 261f 053d 5e84 fabb 4bc1 63bd
00000090: b267 33bd c67f 103d 1b0f 2fbd 3919 bf3d
000000a0: fa04 023d f443 87bd e875 c4bd 2a95 14be
000000b0: fadd de3d 2222 15bc 3e7a f3bc 9c2e 28bc
000000c0: 608e 9d3c 8350 71bd 0e37 55bd 07ba 86bd
000000d0: 339c 333d 4105 b53c 92f3 8d3d bebb 3b3d
000000e0: ebcb d6bd 2aeb 31bd 934a f53c 851f debd
000000f0: 2c42 c2bd 4954 313d 9da4 35be 4625 f4bd
00000100: 0df1 ecbd a68f 5dbb a350 8b3d e3c5 19ba
00000110: ed72 3abd 77a7 e83d 04d3 33bd aebd 44bd
00000120: 4cb3 abbd df6b 6dbc 7b06 29be 187a 7e3c
00000130: 107b 1abe a700 f9bd bdb3 89bc 6975 db3b
00000140: f577 a3bd 0bc4 c93d 3b8d 52be 8c54 6c3e
00000150: 18bb 4f3b 7b27 75bd e9af f4bc 406e bcbc
00000160: 1f70 80bc 6763 20be ce07 40bd c745 8abd
00000170: 4ccd 473d bdbf 1f3d 4584 b73d bdf8 19bc
00000180: 19c3 ebbd 0dd4 643c 37db c43c e247 d0bd
00000190: 8177 713d 1fae cb3d 9ab1 653e 79ea 703d
000001a0: c706 34be 5026 963d 97be 933c 5699 b1bc
000001b0: a324 843c 71a4 e03d e7cd 003e 3c18 62bd
000001c0: 6da4 42be 6af2 6cbd 314b bfbd 2148 7d3d
000001d0: 7dd5 3f3c 9577 2abc 2c93 8c3d 0f94 c53c
000001e0: a5df 1dbb d653 24bc 8b7d 42bd 59ca 993d
000001f0: 7200 853d 35c0 103d 63c1 68bd 6481 17be
00000200: 7000 83be 53c6 563d 48b6 413d 9e11 bb3d
00000210: 119e 15be b400 1abe 093f 01bd 563d c03d
00000220: a33c 46be 18ec 01bd 71ab 9f3d 0dd6 04bd
00000230: 3dd0 f2bc f39e f0bd 9599 cd3d aa80 4fbd
00000240: 5793 f7bc 9513 af3c 0ff0 0cbe 7868 8d3d
00000250: 976e 143d 4413 1abe 1ecf 30bd 2841 843d
00000260: 0ec2 b63d 8b69 a63c 96a5 afbd d3c0 1c3d
00000270: a120 8bbb fb5d 30bd 6144 c23d 7bb3 8cbd
00000280: b887 65be 04a1 343d a025 a6bd 6fbd 10be
00000290: eda1 d3bb f835 0e3c c573 46bc 7f6b e1bc
000002a0: 66d8 46bd 6e77 913c c2ec 5e3c 8527 573d
000002b0: 6a11 09bd 1e49 ccbc dc06 89bd 77c6 1f3d
000002c0: c31a 4bbd 0f66 f1bc 52be cc3c c211 313d
000002d0: 40cc d0bc 06e9 64bd 9e13 9ebd 35a2 1bbe
000002e0: 59d5 2c3d 5013 59be 1677 96bd acca 82bc
000002f0: b4e4 f5bd e487 95bd 2cd2 e23d 7a32 e53d
00000300: 55d5 a93c abe7 62be 201f 43be 45a5 d0bd
00000310: d460 81bc b651 da3c ce9c 8c3b e80e b3bd
00000320: 7fe6 403d 36c6 2dbd 72b5 ab3d 8787 d0bc
00000330: e05c b7bd 5d95 6dbd 9e93 c5bc b001 e0bd
00000340: 17bc f8bc 3927 763c 3ef4 59bc 16e9 c8bd
00000350: cb5c 00be e99c e0bb 3700 723c a62f 113d
00000360: 3bc8 c93d 75cf d4bc 76ca 853d b934 b63a
00000370: e226 01bd 8662 65bd 40a0 1fbe 8dc8 b1bd
00000380: 6c00 a03d 7584 b53d 0b5c 0dbe a894 3f3d
00000390: b328 05bd a185 41bd b0dc 15bd 217d aabd
000003a0: fa43 a63d b1d8 df3d f15d 32bd e88b b0bd
000003b0: f640 173d 825c d33d 39f0 bb3d c0e3 a03d
000003c0: f573 b2bb 56df bbbc aef5 a63d 0e33 2fbe
000003d0: f515 d53c 06bd c6bd eae8 30bd 5167 44bd
000003e0: 35fb e9ba f92b 26be b1df ea3c 2ada 77bc
000003f0: 6af5 b0bc 90ab 14bd e9df fc3c 352b 623c

module.lin2.bias f4 [128]
0.005313727 -0.014016986 0.036729835 -0.019860726 -0.022465622 -0.017452251 -0.041558724 -0.06771188
-0.018940184 -0.07148035 -0.09441953 -0.08471438 -0.03667927 -0.039468247 0.021467727 -0.025170118
-0.072318844 0.019650435 0.012445638 -0.035735197 -0.053017788 -0.045471672 -0.04961885 -0.019617554
-0.036940455 0.045281917 -0.05458879 -0.017884925 -0.0037420357 0.0007573995 -0.012515075 -0.059649184
-0.027356448 -0.06716761 -0.021092167 -0.07227375 0.001136321 -0.08781638 -0.04680007 0.018514654
-0.033463214 -0.064177535 -0.051418904 -0.03113286 -0.06892876 -0.0034938622 0.014116423 -0.034420416
-0.001326687 0.023868138 0.02236343 0.011247372 0.0076523023 -0.030230384 0.0026754532 -0.007900862
-0.017765507 0.012393779 -0.043628942 -0.033389162 0.008386511 -0.03229534 -0.036524095 -0.060489364
-0.082833976 -0.021583367 0.007450853 -0.030656662 -0.0024119553 -0.031048983 -0.011268458 0.034933057
0.03604729 0.006727199 -0.006945958 0.0029240088 0.0010168854 0.016146516 -0.0050842916 -0.084439784
-0.0015719781 -0.009241812 0.004366591 -0.013638986 0.011596881 -0.039116096 0.0027899675 -0.064763725
-0.04906845 -0.046545587 0.018163653 -0.0023742607 -0.006046554 -0.01629705 -0.004337784 0.018693112
-0.02149897 -0.017170127 0.014443328 -0.025798852 -0.018012343 -0.05297981 -0.07712151 0.060037192
0.04151101 -0.027624905 -0.005536719 -0.09345672 0.015994558 -0.04728044 0.018012485 -0.06881062
0.053028893 -0.069125205 -0.08739242 -0.08511185 0.0055036647 0.012099234 -0.0040923962 -0.07095282
0.0016456839 -0.005421743 0.015846958 -0.080021545 -0.023017162 0.0088549955 0.0021922486 -0.06796838
00000000: c61e ae3b 80a7 65bc 0672 163d f6b2 a2bc
00000010: d309 b8bc 06f8 8ebc 7b39 2abd 87ac 8abd
00000020: 7228 9bbc 4a64 92bd 075f c1bd bc7e adbd
00000030: 013d 16bd 75a9 21bd 16dd af3c 9031 cebc
00000040: e71b 94bd f3f9 a03c cae8 4b3c 125f 12bd
00000050: 2e29 59bd 8140 3abd 233d 4bbd feb4 a0bc
00000060: e04e 17bd 8879 393d 7f98 5fbd 6883 92bc
00000070: f13c 75bb 388c 463a 070c 4dbc b452 74bd
00000080: a11a e0bc 2c8f 89bd 7bc9 acbc 4304 94bd
00000090: 9bf0 943a 13d9 b3bd 6eb1 3fbd 0bac 973c
000000a0: b910 09bd 836f 83bd a19c 52bd 570a ffbc
000000b0: 862a 8dbd 48f9 64bb 9248 673c 6cfc 0cbd
000000c0: 3be4 adba 1d87 c33c 8333 b73c e646 383c
000000d0: 2ac0 fa3b b6a5 f7bc a856 2f3b 9e72 01bc
000000e0: f888 91bc 470f 4b3c 43b4 32bd 13c3 08bd
000000f0: 9467 093c 1e48 04bd 4a9a 15bd b2c3 77bd
00000100: dca4 a9bd 9acf b0bc 4926 f43b ae23 fbbc
00000110: e511 1ebb 705a febc 579f 38bc f715 0f3d
00000120: 53a6 133d d66f dc3b eb9a e3bb baa0 3f3b
00000130: 0349 853a b345 843c 219a a6bb c4ee acbd
00000140: d50a ceba f86a 17bc 9f15 8f3b 0e76 5fbc
00000150: d800 3e3c 3338 20bd e3d7 363b d8a2 84bd
00000160: 00fc 48bd 96a6 3ebd f1cb 943c 7c99 1bbb
00000170: 2c22 c6bb 6481 85bc f823 8ebb 4c22 993c
00000180: 9c1e b0bc 5ea8 8cbc b5a3 6c3c 1d58 d3bc
00000190: 9f8e 93bc 5b01 59bd e2f1 9dbd 8fe9 753d
000001a0: 7307 2a3d a04d e2bc 5e6d b5bb 3d66 bfbd
000001b0: 0507 833c 22a9 41bd eb8e 933c 95ec 8cbd
000001c0: d334 593d 8491 8dbd ccfa b2bd 1f4f aebd
000001d0: 1658 b43b de3b 463c 8219 86bb b64f 91bd
000001e0: fdb3 d73a e0a8 b1bb 7bd1 813c 56e2 a3bd
000001f0: 7d8e bcbc 8b14 113c d4ab 0f3b 0233 8bbd

module.lin2.parametrizations.weight.original0 f4 [128, 1]
0.58362436 0.5934348 0.84839803 0.6506915 0.6338804 0.6049422 0.60248625 0.65422285
0.6131028 0.60887843 0.6196816 0.6146952 0.6031531 0.61675584 0.6177703 0.62446105
0.59503484 0.67348015 0.5897407 0.61216027 0.62893313 0.5911743 0.60572255 0.64057463
0.65483934 0.50792336 0.63351625 0.6717523 0.7140435 0.6124891 0.6472851 0.6600954
0.7334673 0.6027963 0.7334475 0.5750487 0.5733865 0.6216996 0.5877534 0.7120321
0.6478078 0.70498633 0.57744765 0.66086084 0.645592 0.84770787 0.71309984 0.6470364
0.600638 0.58884376 0.6255454 0.7015263 0.67494905 0.65696967 0.61544526 0.59658414
0.5891966 0.6764858 0.6067678 0.6258589 0.6085932 0.5905645 0.64216256 0.58116406
0.6690056 0.7323077 0.6088683 0.61136234 0.7107036 0.6507638 0.5906143 0.7235354
0.5867209 0.62922525 0.59418243 0.7316357 0.62043554 0.8610752 0.62406427 0.5950422
0.5958982 0.64750063 0.7253646 0.7942494 0.65413725 0.5916455 0.60598576 0.6258577
0.588273 0.70114845 0.7384209 0.6299047 0.6405073 0.6148489 0.5926341 0.5852573
0.6434134 0.6362385 0.6597843 0.61553854 0.6302483 0.6307291 0.60728747 0.56621456
0.6344527 0.6193245 0.60760814 0.616548 0.7271137 0.63894373 0.74809825 0.610966
0.54570085 0.6807845 0.6173663 0.5635996 0.7139253 0.65927434 0.6232196 0.6334284
0.6256637 0.6422649 0.8501453 0.6346518 0.5747502 0.62129116 0.6654932 0.6378216
00000000: 6868 153f 58eb 173f 9d30 593f b893 263f
00000010: fc45 223f 7edd 1a3f 8a3c 1a3f 267b 273f
00000020: 4ef4 1c3f 75df 1b3f 74a3 1e3f aa5c 1d3f
00000030: 3e68 1a3f b6e3 1d3f 3226 1e3f aedc 1f3f
00000040: 3454 183f 3269 2c3f 3ff9 163f 89b6 1c3f
00000050: c301 213f 3357 173f a210 1b3f b3fc 233f
00000060: 8da3 273f 4407 023f 1f2e 223f f5f7 2b3f
00000070: 8ecb 363f 16cc 1c3f 7ab4 253f 03fc 283f
00000080: 83c4 3b3f dc50 1a3f 37c3 3b3f 6436 133f
00000090: 75c9 123f b427 1f3f 0277 163f bc47 363f
000000a0: bbd6 253f fc79 343f 9cd3 133f 2d2e 293f
000000b0: 8445 253f 6203 593f b68d 363f 2da4 253f
000000c0: 69c3 193f 77be 163f be23 203f 3a97 333f
000000d0: 76c9 2c3f 2a2f 283f d28d 1d3f bdb9 183f
000000e0: 97d5 163f 2c2e 2d3f 2255 1b3f 4a38 203f
000000f0: c4cc 1b3f 3c2f 173f c464 243f 2bc7 143f
00000100: f343 2b3f 8478 3b3f cbde 1b3f 3e82 1c3f
00000110: acf0 353f 7598 263f 8032 173f 9e39 393f
00000120: 5733 163f e814 213f 571c 183f 7a4c 3b3f
00000130: ddd4 1e3f 6d6f 5c3f adc2 1f3f b054 183f
00000140: c98c 183f 9ac2 253f 7fb1 393f ee53 4b3f
00000150: 8a75 273f 1476 173f e221 1b3f 3638 203f
00000160: 0f99 163f 777e 333f 2709 3d3f 6f41 213f
00000170: 49f8 233f bd66 1d3f deb6 173f 6cd3 153f
00000180: beb6 243f 87e0 223f a0e7 283f ef93 1d3f
00000190: f457 213f 7677 213f 3177 1b3f 70f3 103f
000001a0: 7e6b 223f 0d8c 1e3f 358c 1b3f 17d6 1d3f
000001b0: 2024 3a3f d191 233f 5e83 3f3f 4568 1c3f
000001c0: 0db3 0b3f e547 2e3f b80b 1e3f 1048 103f
000001d0: cfc3 363f 34c6 283f 528b 1f3f 5d28 223f
000001e0: 7f2b 203f 796b 243f 1fa3 593f 8a78 223f
000001f0: d422 133f f00c 1f3f c35d 2a3f 4748 233f

module.lin2.parametrizations.weight.original1 f4 [128, 128]
-0.06176045 -0.051163048 0.037448935 0.026222201 -0.024959449 -0.04203275 -0.039165888 -0.064917296
-0.028540172 -0.0021094223 -0.010534975 -0.008261731 -0.061719593 -0.024704576 -0.07331166 0.004353567
-0.0012225505 -0.0137639055 0.025428133 -0.026263151 -0.04682724 -0.05554962 -0.030897744 -0.049997505
-0.015157074 0.0005504553 0.034766052 -0.030004924 -0.010043258 -0.02041512 0.024665145 0.019978993
-0.00093190407 -0.0047822315 -0.004774843 0.0283603 0.0046711825 -0.00085695856 -0.004636904 0.00731913
0.0023837502 0.024751443 0.006980316 -0.064619824 -0.0067532808 0.05661163 -0.0176959 -0.050195996
-0.03221253 -0.013822896 -0.016996358 0.011251536 0.009313425 -0.059208024 -0.0054030344 -0.00062837184
-0.005875657 -0.003504506 -0.033894718 -0.019778943 -0.009614939 -0.035796106 -0.03530019 -9.722945e-06
-0.019411659 -0.024176376 -0.02942203 -0.015658714 0.03539918 0.0109089445 0.022087514 -0.029585678
-0.06276087 -0.050630357 -0.009702715 -0.16833015 -0.018437546 -0.03464174 0.002873129 0.0076740226
0.020608837 0.022900756 -0.0016747478 -0.021289852 0.0015677969 -0.005041663 -0.00965209 -0.029267734
-0.050514955 -0.030561842 -0.016778301 0.028936986 -0.020236071 -0.007895868 0.028218787 -0.015058998
-0.02795515 -0.031186093 -0.019066632 0.038882487 -0.036569726 -0.048615586 0.0062808064 0.037508313
-0.0046805055 -0.049087763 -0.030787606 -0.007361965 -0.037531734 -0.058085095 -0.015584512 0.011734177
-0.018367168 -0.029455198 -0.059554677 0.008264028 -0.0065587424 -0.011201316 -0.032966603 -0.006622128
-0.018701136 -0.04064021 -0.005857726 -0.006374549 -0.0034842403 -0.22017118 0.0054780417 -0.01060569
0.024893226 0.0630794 0.08313297 -0.013415966 0.01924669 -0.061764542 -0.013235677 0.043260496
-0.0123927705 -0.08968715 0.023307292 -0.04348736 -0.05300699 0.0169585 0.05986857 -0.029242018
-0.034295127 -0.031191455 0.024395294 -0.02321686 0.040346302 -0.03649143 -0.070730604 -0.024448933
-0.01923819 0.054488905 -0.06695186 0.004820522 0.009463781 0.0131121855 -0.044871572 0.016141076
-0.028559789 -0.040042948 -0.005395755 0.07572236 0.011368072 -0.06623608 0.010422649 0.042937934
0.024832604 0.008302998 0.059884958 0.029406302 0.0658786 -0.019094009 0.009353818 0.0011556556
-0.074403584 -0.058907423 -0.061022844 -0.03093155 -0.056161616 0.041858587 -0.032374192 -0.05080429
-0.013527562 -0.02591893 0.072947495 -0.0030992562 -0.03446195 -0.031059504 -0.039334994 -0.03227265
-0.046245452 -0.02333183 -0.029267112 -0.02808973 0.08597394 -0.02412388 0.00015389036 0.0039392835
-0.018809758 -0.021643924 -0.05432163 0.038909305 0.0110914875 0.016277574 0.005567625 -0.0194775
-0.009626086 -0.023813998 -0.061954204 -0.008790874 0.060302887 0.015870381 -0.028138325 -0.036324203
-0.037829075 -0.0075649754 -0.02349598 -0.0305822 0.009890051 0.023307933 -0.03773469 -0.01948825
-0.064949155 -0.043147378 -0.06315405 0.0023925202 -0.02523713 -0.033568904 -0.040334754 -0.079221964
-0.0038507923 -0.06361897 -0.047977 0.055529222 0.06903937 -0.053317375 -0.039878532 0.047984168
-0.002464306 0.017809717 -0.042981695 0.080772996 0.0014287367 -0.019422937 0.025513794 -0.0110238725
0.039317027 -0.045946732 0.02145055 -0.03410189 -0.104897104 -0.018223125 0.004447168 -0.0120452605
00000000: 87f8 7cbd 5890 51bd 0e64 193d f1cf d63c
00000010: c277 ccbc 882a 2cbd 696c 20bd 5cf3 84bd
00000020: 14cd e9bc 3c3e 0abb e39a 2cbc 365c 07bc
00000030: afcd 7cbd 4061 cabc 6c24 96bd 5ea8 8e3b
00000040: fd3d a0ba 0182 61bc a94e d03c d225 d7bc
00000050: eccd 3fbd 0088 63bd 441d fdbc 2fca 4cbd
00000060: 6055 78bc 6e4c 103a d966 0e3d e3cc f5bc
00000070: 7a8c 24bc 9c3d a7bc 8f0e ca3c fcaa a33c
00000080: 064b 74ba 44b4 9cbb 4976 9cbb dc53 e83c
00000090: b810 993b 84a5 60ba 2cf1 97bb 50d5 ef3b
000000a0: b138 1c3b 8ac3 ca3c 22bb e43b 6657 84bd
000000b0: a04a ddbb 99e1 673d fef6 90bc 519a 4dbd
000000c0: 49f1 03bd 6e79 62bc f23b 8bbc 5d58 383c
000000d0: 5697 183c 1d84 72bd f00b b1bb 52b9 24ba
000000e0: 9588 c0bb dbab 65bb 30d5 0abd 7307 a2bc
000000f0: fa87 1dbc f09e 12bd ef96 10bd bb1f 23b7
00000100: 3305 9fbc 890d c6bc 7806 f1bc b446 80bc
00000110: bbfe 103d 6ebb 323c e0f0 b43c aa5d f2bc
00000120: c588 80bd c761 4fbd 23f8 1ebc bd5e 2cbe
00000130: 560a 97bc 7fe4 0dbd 1b4b 3c3b 5e76 fb3b
00000140: ddd3 a83c 5e9a bb3c 3683 dbba 0e68 aebc
00000150: 897e cd3a 8934 a5bb cd23 1ebc e3c2 efbc
00000160: c5e8 4ebd d45c fabc a672 89bc 420d ed3c
00000170: 1ec6 a5bc ac5d 01bc 162b e73c 04ba 76bc
00000180: 3302 e5bc fa79 ffbc a031 9cbc 3e43 1f3d
00000190: 23ca 15bd 2321 47bd 39cf cd3b 51a2 193d
000001a0: ed5e 99bb 4010 49bd 4a36 fcbc a33c f1bb
000001b0: e0ba 19bd a3ea 6dbd 2e56 7fbc b540 403c
000001c0: be76 96bc 074c f1bc 9bef 73bd d865 073c
000001d0: b8ea d6bb b985 37bc fd07 07bd 70fe d8bb
000001e0: 2033 99bc 5976 26bd 2bf2 bfbb 98e1 d0bb
000001f0: da57 64bb 8e74 61be 2581 b33b 7dc3 2dbc
00000200: e1ec cb3c c62f 813d 9e41 aa3d a4ce 5bbc
00000210: 3cab 9d3c d1fc 7cbd 74da 58bc eb31 313d
00000220: 0c0b 4bbc e6ad b7bd efee be3c cd1f 32bd
00000230: dc1d 59bd 8dec 8a3c bf38 753d f58c efbc
00000240: 0c79 0cbd 3985 ffbc a4d8 c73c 4931 bebc
00000250: 2a42 253d 0a78 15bd 35db 90bd 2149 c8bc
00000260: 6999 9dbc c22f 5f3d 0f1e 89bd 78f5 9d3b
00000270: f90d 1b3c 7ed4 563c 41cb 37bd 4a3a 843c
00000280: 38f6 e9bc 1304 24bd e0ce b0bb 5314 9b3d
00000290: 2641 3a3c c8a6 87bd c2c3 2a3c b0df 2f3d
000002a0: bf6d cb3c 4c09 083c ee49 753d 7ce5 f03c
000002b0: 5ceb 863d 0a6b 9cbc c240 193c 5e79 973a
000002c0: e860 98bd e948 71bd 17f3 79bd 2964 fdbc
000002d0: b909 66bd e973 2b3d cd9a 04bd 2918 50bd
000002e0: b5a2 5dbc f053 d4bc 7f65 953d e41c 4bbb
000002f0: f927 0dbd 8070 febc bb1d 21bd 5430 04bd
00000300: df6b 3dbd 6522 bfbc 95c1 efbc 6f1c e6bc
00000310: 1b13 b03d 719f c5bc a15d 2139 1b15 813b
00000320: ec16 9abc 994e b1bc 5c80 5ebd 5d5f 1f3d
00000330: 12b9 353c 8c58 853c a070 b63b 478f 9fbc
00000340: bbb6 1dbc 9315 c3bc b1c3 7dbd 9907 10bc
00000350: 2900 773d 9a02 823c 5882 e6bc b0c8 14bd
00000360: a9f2 1abd 9de3 f7bb a47a c0bc 8687 fabc
00000370: e109 223c 47f0 be3c b18f 1abd d3a5 9fbc
00000380: 1004 85bd 4ebb 30bd e956 81bd d4cb 1c3b
00000390: 19be cebc 8c7f 09bd 0e36 25bd 203f a2bd
000003a0: 935d 7cbb aa4a 82bd 8883 44bd 9c72 633d
000003b0: 8364 8d3d 5263 5abd ac57 23bd 0c8b 443d
000003c0: 3280 21bb afe5 913c 930d 30bd 506c a53d
000003d0: 7344 bb3a da1c 9fbc 4e02 d13c 799d 34bc
000003e0: e40a 213d a432 3cbd 10b9 af3c 6cae 0bbd
000003f0: 4bd4 d6bd aa48 95bc 8db9 913b 7c59 45bc

module.lin3.bias f4 [128]
0.008288087 -0.04498856 -0.006022806 0.032967076 -0.010327677 -0.013076345 -0.004444045 -0.009962149
0.031480115 -0.010899956 0.039022565 0.0054756035 0.007441828 0.011543743 0.0022157372 -0.006260868
-0.016074453 -0.003743099 -0.00066120183 0.04788678 -0.0056094085 -0.00990358 -0.0430337 -0.03965778
0.05363719 0.022763567 -0.06545697 -0.012008479 -0.021608599 0.0021417679 0.008910753 0.0013516238
-0.0010261658 0.015377805 -0.015173531 0.011467067 0.02172982 -0.08092468 0.046009593 0.04836736
0.012351032 -0.043505576 -0.0492106 -0.020578647 -0.008015165 -0.0039549097 0.017223237 0.0059000063
0.0095888935 0.011690552 0.00091609417 -0.000115817485 0.0025974754 0.007825114 -0.016206978 0.026556527
0.051112935 -0.07473179 0.014147468 -0.010174787 -0.024964135 0.0053210803 0.004119956 0.028157549
-0.023784105 0.023857191 -0.014132912 0.056118097 -0.0029272968 -0.004291205 0.014800213 -0.0042941608
-0.005987171 -0.0026452441 0.002912125 -0.00398062 0.0031833088 0.015414268 -0.021095952 0.0055071805
0.00010865818 0.007353913 0.006357209 -0.009376522 -0.007491108 0.0033044822 -0.0067421473 0.06817458
-0.054561675 0.04880149 -0.020448966 -0.09253195 0.016969575 -0.022556271 -0.0896277 0.04793745
-0.0024570038 0.03612196 0.0146027515 -0.022947751 -0.029503025 0.005693053 0.0035330944 0.012960122
0.035399742 -0.011637558 -0.060150314 0.009538172 -0.028664984 0.008297961 -0.0073242206 -0.0021795603
-0.049435414 0.044543225 0.010261611 0.011223937 0.007536526 -0.05814539 0.062871404 0.04133355
0.012397931 0.0006029591 0.0022284563 -0.0771097 0.00880809 0.0039482797 -0.04677486 -0.069899306
00000000: c2ca 073c ed45 38bd f55a c5bb 7c08 073d
00000010: 6b35 29bc 2b3e 56bc 5a9f 91bb 4838 23bc
00000020: 4bf1 003d bb95 32bc 20d6 1f3d b16c b33b
00000030: 94da f33b f821 3d3c e735 113b f827 cdbb
00000040: 92ae 83bc c84e 75bb 8154 2dba ee24 443d
00000050: 21cf b7bb a042 22bc 1b44 30bd 3270 22bd
00000060: acb2 5b3d a97a ba3c 4e0e 86bd 36bf 44bc
00000070: 8404 b1bc e75c 0c3b 68fe 113c f828 b13a
00000080: 6980 86ba 30f3 7b3c 679a 78bc 5de0 3b3c
00000090: bc02 b23c d7bb a5bd 8e74 3c3d da1c 463d
000000a0: fc5b 4a3c e732 32bd 0e91 49bd 8d94 a8bc
000000b0: 0a52 03bc 3098 81bb bf17 8d3c d754 c13b
000000c0: bc1a 1d3c bb89 3f3c 0a26 703a 0ae3 f2b8
000000d0: 683a 2a3b e834 003c 7fc4 84bc 138d d93c
000000e0: cc5b 513d fb0c 99bd c8ca 673c 26b4 26bc
000000f0: 9681 ccbc 755c ae3b b200 873b a9aa e63c
00000100: e2d6 c2bc 2870 c33c bb8d 67bc 17dc 653d
00000110: e4d7 3fbb 3d9d 8cbb 987c 723c 08b6 8cbb
00000120: 0830 c4bb d55b 2dbb 5ad9 3e3b dc6f 82bb
00000130: 0f9f 503b 208c 7c3c 6bd1 acbc 9475 b43b
00000140: 6bdf e338 18f9 f03b 2250 d03b fc9f 19bc
00000150: f877 f5bb 0390 583b 3bed dcbb 1d9f 8b3d
00000160: 107c 5fbd 12e4 473d 9784 a7bc 6481 bdbd
00000170: c703 8b3c eec7 b8bc ba8e b7bd 0f5a 443d
00000180: af05 21bb 9ff4 133d 6140 6f3c ecfc bbbc
00000190: 54b0 f1bc ca8c ba3b 7d8b 673b b156 543c
000001a0: 52ff 103d 75ab 3ebc 2d60 76bd fe45 1c3c
000001b0: d4d2 eabc 2cf4 073c 0400 f0bb f4d6 0ebb
000001c0: ca7c 4abd f572 363d 5120 283c 9be4 373c
000001d0: f6f4 f63b dc29 6ebd b9c2 803d 5e4d 293d
000001e0: b120 4b3c e60f 1e3a 4b0b 123b b1eb 9dbd
000001f0: cf4f 103c 9260 813b ff96 3fbd 5e27 8fbd

module.lin3.parametrizations.weight.original0 f4 [128, 1]
0.90591604 0.5528192 0.97108203 0.7272458 0.5529398 0.56005526 0.6794948 0.61839134
0.6987407 0.5840082 0.6761434 0.7664409 0.583057 0.70300776 0.6384961 0.60866046
0.6085184 0.64474 0.66454434 0.6382269 0.61508024 0.7110137 0.57106656 0.57038397
0.6251117 0.6404268 0.5505784 0.6958205 0.6097683 0.59794515 0.75069135 0.7923551
0.67924726 0.7433082 0.59091574 0.600171 0.6780379 0.5966474 0.70046216 0.58693844
0.7376686 0.58751476 0.60413975 0.6395561 0.59140915 0.5828225 0.7024823 0.782245
0.6822644 0.89659125 0.8570323 0.5859582 0.618559 0.7636266 0.5671167 0.70783454
0.6137618 0.59979206 0.73108184 0.612858 0.6526232 0.70007426 0.73629445 0.7105557
0.6088252 0.6252672 0.63219583 0.61001897 0.5903626 0.6721503 0.8331394 0.5844753
0.6673424 0.785795 0.62018514 0.7977714 0.6458144 0.6376996 0.56434065 0.5917977
0.81553775 0.6071761 0.7209855 0.62172633 0.589583 0.7591368 0.5872328 0.5367718
0.60625607 0.56661403 0.61083955 0.5689735 0.7447313 0.63677704 0.6065715 0.65994006
0.5992483 0.69574344 0.75827783 0.5885089 0.61993676 0.8349836 0.57213557 0.5675946
0.55773956 0.61920214 0.57407296 0.7179235 0.6017855 0.6120977 0.5635627 0.74298483
0.5947087 0.61330336 0.77847254 0.87588406 0.5832679 0.5447133 0.658651 0.66876405
0.7053679 0.9557201 0.6915126 0.6059083 0.77516043 0.5814009 0.59328336 0.58624107
00000000: 1dea 673f 8f85 0d3f d598 783f c82c 3a3f
00000010: 768d 0d3f c85f 0f3f 5ff3 2d3f e54e 1e3f
00000020: ace0 323f 9081 153f bc17 2d3f 7935 443f
00000030: 3943 153f 51f8 333f 7b74 233f 2cd1 1b3f
00000040: ddc7 1b3f ae0d 253f 941f 2a3f d762 233f
00000050: e675 1d3f fe04 363f 6b31 123f af04 123f
00000060: 5207 203f 03f3 233f b5f2 0c3f 4b21 323f
00000070: c619 1c3f ef12 193f 4f2d 403f c9d7 4a3f
00000080: 26e3 2d3f 7249 3e3f 4146 173f cfa4 193f
00000090: e493 2d3f e2bd 183f 7d51 333f 9941 163f
000000a0: d9d7 3c3f 5e67 163f e7a8 1a3f f3b9 233f
000000b0: 9766 173f db33 153f e1d5 333f 3541 483f
000000c0: e1a8 2e3f 0187 653f 7866 5b3f 5b01 163f
000000d0: e259 1e3f 087d 433f 8f2e 113f a534 353f
000000e0: 7e1f 1d3f f98b 193f 2e28 3b3f 43e4 1c3f
000000f0: 5012 273f 1138 333f cb7d 3c3f fae6 353f
00000100: f8db 1b3f 8311 203f 96d7 213f 342a 1c3f
00000110: 0122 173f 0b12 2c3f a048 553f 2ca0 153f
00000120: f4d6 2a3f dc29 493f 74c4 1e3f bf3a 4c3f
00000130: 1854 253f 4840 233f a178 103f 0e80 173f
00000140: 15c7 503f e56f 1b3f 8192 383f 7529 1f3f
00000150: e9ee 163f ca56 423f e454 163f e069 093f
00000160: 9933 1b3f 9e0d 113f fb5f 1c3f 3fa8 113f
00000170: b6a6 3e3f d203 233f 4548 1b3f d5f1 283f
00000180: 5668 193f 3e1c 323f 7f1e 423f 85a8 163f
00000190: 2db4 1e3f 7cc1 553f 7a77 123f e14d 113f
000001a0: 05c8 0e3f 0884 1e3f 72f6 123f d6c9 373f
000001b0: 9d0e 1a3f 6fb2 1c3f a545 103f 4134 3e3f
000001c0: d43e 183f 7301 1d3f fa49 473f f039 603f
000001d0: 0c51 153f 5572 0b3f 5a9d 283f 1f34 2b3f
000001e0: fe92 343f 13aa 743f f806 313f ce1c 1b3f
000001f0: ea70 463f b0d6 143f 6be1 173f e513 163f

module.lin3.parametrizations.weight.original1 f4 [128, 128]
-0.09607471 0.03660854 -0.0023381498 0.027177455 0.02269661 -0.032011844 0.016863534 0.035709072
0.009427122 -0.028391711 -0.0072225737 -0.066088766 0.028495163 -0.017869258 -0.057843775 -0.02316673
0.073717326 -0.09487115 0.019592458 -0.048206262 -0.06362686 -0.04772663 -0.12353672 0.004898168
0.02306671 -0.017484562 0.07966032 0.07396758 0.016473647 -0.021236753 -0.012442545 0.02056244
-0.012251623 -0.012053682 0.0017719868 -0.0054927766 -0.11988925 -0.047885913 -0.118452065 0.025389586
-0.12151262 0.008771387 -0.03472284 -0.13403268 -0.045305144 0.025343405 -0.1614046 0.01991363
-0.023851078 -0.0062000644 -0.023695555 0.023451498 0.042717956 -0.05199629 0.002094173 -0.033511266
-0.061832234 -0.040350925 -0.008840548 -0.13967298 -0.12803249 -0.00794995 -0.051538873 -0.015264632
0.07894246 -0.022667382 0.021017464 0.0076109124 0.0136468625 -0.026573142 -0.070509076 -0.017139392
-0.0130196 -0.014818551 0.028087912 0.031366967 -0.0016900528 -0.114103116 -0.009554355 0.032262504
-0.16196458 -0.14534897 -0.0064335205 0.068661265 0.012290908 -0.07439324 0.029944452 0.067387134
0.061124343 0.05023733 0.009426997 -0.05233255 0.017438367 -0.16634116 0.015297217 -0.026971199
0.061303128 0.010601343 0.03813987 -0.01935404 -0.13264658 0.028898586 -0.047616743 -0.029946515
-0.029903095 0.02306965 0.0031335354 -0.04742234 0.0008377472 -0.07969681 -0.0017065299 -0.03654758
-0.0056790756 -0.005641412 -0.07143783 0.07085792 0.030308476 -0.13922985 -0.05716565 -0.04034543
-0.12664664 -0.14632688 -0.06422615 -0.019694885 0.037104838 -0.027465804 -0.019410795 0.07826054
-0.01566676 0.02945698 -0.057038963 -0.055973053 0.07708113 -0.005069536 0.060851764 0.019139102
0.02637624 -0.0061452086 -0.048328575 0.09810471 0.0020176896 0.13781057 0.001559715 -0.03748445
-0.09904802 0.049576815 -0.08210051 0.05440004 0.018204 0.11861289 0.114612736 0.019220822
-0.010270764 0.0148021765 -0.022768095 -0.09853423 0.047740173 -0.030431261 -0.02509736 -0.02688673
-0.021893093 0.057209488 -0.027967041 0.0854182 0.010794378 0.036490537 -0.072089784 0.028349977
0.04560803 0.050522316 -0.02784893 -0.008077605 -0.04074026 -0.009530697 0.04284126 -0.020991059
-0.0141458195 -0.0063882926 0.074336015 0.014973509 0.016951136 0.105723344 0.060842007 -0.083588004
-0.012598289 0.12767778 0.029549796 0.0034225534 -0.039767977 0.03570987 0.053954855 0.01621476
-0.0136953425 0.05283916 0.03333635 -0.06607315 0.018378925 0.08734299 0.10593105 -0.016520958
0.016813926 -0.063421465 0.0031545346 0.021086713 0.050275583 0.030640919 0.05274969 -0.082538374
-0.030901942 0.06490173 -0.013166412 0.022984128 -0.015823584 -0.04989581 -0.03372581 0.003992509
-0.028287427 0.01775859 0.04593328 0.035557184 -0.024028625 0.03790146 0.012533904 -0.010616778
0.06897414 0.08715925 0.02510575 -0.027651854 -0.04720202 -0.01852809 0.033668265 0.0014338766
-0.05323219 0.041747577 0.06844376 0.13998413 0.046147663 0.0034502703 -0.09104483 -0.0709334
0.043071948 -0.054791234 0.06022693 -0.085567795 -0.016223501 -0.003191426 -0.057751484 0.002387597
0.0049834186 0.12651074 0.06456967 -0.026684145 0.06975294 0.060819115 0.06792763 -0.010930434
00000000: d1c2 c4bd d6f2 153d a53b 19bb 41a3 de3c
00000010: 3eee b93c da1e 03bd 6525 8a3c ad43 123d
00000020: 3774 1a3c bc95 e8bc 57ab ecbb 8c59 87bd
00000030: b06e e93c 8d62 92bc 98ed 6cbd 27c8 bdbc
00000040: 1cf9 963d ce4b c2bd 5d80 a03c ee73 45bd
00000050: cd4e 82bd 007d 43bd d200 fdbd d080 a03b
00000060: 66f6 bc3c c93b 8fbc f324 a33d 517c 973d
00000070: bef3 863c b3f8 adbc d1db 4bbc 9072 a83c
00000080: 08bb 48bc ce7c 45bc 0342 e83a c0fc b3bb
00000090: 7f88 f5bd 0524 44bd ff96 f2bd d2fd cf3c
000000a0: 9cdb f8bd ddb5 0f3c 8939 0ebd dd3f 09be
000000b0: e391 39bd f99c cf3c 3f47 25be e921 a33c
000000c0: 5663 c3bc e929 cbbb 2e1d c2bc 5b1d c03c
000000d0: 06f9 2e3d 10fa 54bd 653e 093b 1c43 09bd
000000e0: cc43 7dbd 0347 25bd f2d7 10bc 6f06 0fbe
000000f0: f31a 03be 8240 02bc 6d1a 53bd 8218 7abc
00000100: 96ac a13d f2b0 b9bc d12c ac3c f664 f93b
00000110: 1797 5f3c ebaf d9bc 1067 90bd e967 8cbc
00000120: 2950 55bc 82c9 72bc 9f18 e63c a67a 003d
00000130: c384 ddba e5ae e9bd df89 1cbc b025 043d
00000140: 0bda 25be 5cd6 14be 48d0 d2bb 479e 8c3d
00000150: ce5f 493c 7c5b 98bd 114e f53c 4402 8a3d
00000160: 855d 7a3d a9c5 4d3d b173 1a3c a85a 56bd
00000170: e8da 8e3c 5655 2abe 2ea1 7a3c b4f2 dcbc
00000180: fd18 7b3d 41b1 2d3c 8d38 1c3d 5d8c 9ebc
00000190: 81d4 07be babc ec3c c609 43bd 6552 f5bc
000001a0: 56f7 f4bc 90fc bc3c 005c 4d3b ed3d 42bd
000001b0: 439c 5b3a 1538 a3bd a4ad dfba eab2 15bd
000001c0: 8a17 babb 98db b8bb ff4d 92bd f51d 913d
000001d0: 7b49 f83c 4592 0ebe 8726 6abd 4041 25bd
000001e0: a8af 01be b7d6 15be 0089 83bd 2b57 a1bc
000001f0: 3efb 173d f7ff e0bc 6303 9fbc 1047 a03d
00000200: 9457 80bc c44f f13c b0a1 69bd 0044 65bd
00000210: b6dc 9d3d 5a1e a6bb b33f 793d 9bc9 9c3c
00000220: fc12 d83c bf5d c9bb 2ff4 45bd 1feb c83d
00000230: 373b 043b 371e 0d3e 5a6f cc3a 4b89 19bd
00000240: b0d9 cabd 0f11 4b3d 5024 a8bd 94d2 5e3d
00000250: 8e20 953c 51eb f23d 15ba ea3d fc74 9d3c
00000260: b546 28bc d484 723c 2884 babc 50cc c9bd
00000270: 338b 433d fb4a f9bc fb98 cdbc 8f41 dcbc
00000280: 2559 b3bc 7f54 6a3d 231b e5bc bdef ae3d
00000290: e7da 303c 1a77 153d cfa3 93bd 363e e83c
000002a0: 7ccf 3a3d 7df0 4e3d 7023 e4bc ee57 04bc
000002b0: 42df 26bd a426 1cbc 517a 2f3d 71f5 abbc
000002c0: dec3 67bc e254 d1bb 7b3d 983d 7353 753c
000002d0: 1cdd 8a3c 7b85 d83d 7835 793d 3030 abbd
000002e0: 0e69 4ebc f7bd 023e 6a12 f23c eb4c 603b
000002f0: bfe3 22bd 8344 123d c4ff 5c3d d1d4 843c
00000300: 6e62 60bc e06d 583d b28b 083d 5c51 87bd
00000310: 668f 963c e2e0 b23d 61f2 d83d f656 87bc
00000320: 5cbd 893c 1de3 81bd 4fbc 4e3b 0bbe ac3c
00000330: c5ed 4d3d aa02 fb3c 0f10 583d e109 a9bd
00000340: 1226 fdbc 33eb 843d efb7 57bc 3649 bc3c
00000350: 76a0 81bc 8d5f 4cbd 1324 0abd 98d3 823b
00000360: 09bb e7bc 767a 913c 8924 3c3d 69a4 113d
00000370: aed7 c4bc 903e 1b3d 015b 4d3c fff1 2dbc
00000380: 5042 8d3d 8d80 b23d 93aa cd3c 2486 e2bc
00000390: e856 41bd 39c8 97bc bce7 093d eaf0 bb3a
000003a0: ff09 5abd 82ff 2a3d 3e2c 8c3d 0058 0f3e
000003b0: 5505 3d3d ee1d 623b b675 babd 8845 91bd
000003c0: 366c 303d c66c 60bd 83b0 763d 2b3e afbd
000003d0: 26e7 84bc 3e27 51bb d28c 6cbd 3b79 1c3b
000003e0: f24b a33b 088c 013e 1a3d 843d b598 dabc
000003f0: a1da 8e3d 771d 793d a41d 8b3d 9015 33bc
