DeepSDFStruct/trained_models/primitives_2d/ModelParameters/latest.pth (torch, 349077 bytes, 17 tensors)

lin0.bias f4 [128]
00000000: d504 bfbd 6459 953e 8bd6 d2be 3817 efbe
00000010: a5c4 34be b583 81be 3a48 a73d 7cc9 25bf
00000020: 6665 dcbd 0ebe eabd 7ae0 273d 6064 483b
00000030: 4dee 87be c126 b6be fbbd 91be ddba efbd
00000040: 8d55 6fbe 6b5f 1d3e 9cbc fabe d0cd e1be
00000050: 4f47 93be 6468 8ebe 3045 a9bd 5356 d43d
00000060: 1e51 b0be deae 98be d379 d4be 5519 c8bd
00000070: de0e 72be ab85 9abe 1f4b 46bd ff5d 97be
00000080: d54f a9be b63e d0bd dd38 97be d2e4 363e
00000090: c1d7 f1bc 0015 01be 1fd6 88bd 6e94 c8be
000000a0: 2268 d1be 7df0 a2bd d801 8abe d813 53be
000000b0: 0623 9abe cd5f 86bd a6a6 f2be 9e4e 93be
000000c0: 2a45 763e ab97 0bbe 3257 32be 74ad 88be
000000d0: e0c1 37be bb46 16bf a1ba e33d ebf0 9fbe
000000e0: 5e42 99bd 9530 d5be b811 d8be b19a 52be
000000f0: e371 aebd 6591 9abd 8647 c3bd ff0b 19bf
00000100: 42eb e2be 1982 a9be 85d0 6bbc 8416 7dbe
00000110: cbee 8dbe 9483 16be f0d6 923c 6c09 c5be
00000120: 523b 72be 1746 c1bd 86d3 3fbe 4b3d 8dbe
00000130: 5510 37be 8372 60be 3f40 b2bd f653 33be
00000140: 3c88 c3be 5bb2 8cbe 4d29 babe c886 acbe
00000150: 1a85 c9bd 5a02 25be 5787 8bbe b60c 45bd
00000160: 1a2d cdbe 9dd6 0dbf 9d83 46be e6c2 aebe
00000170: a29f 9ebe 77c8 42bd c0e9 debe e8ba 06bf
00000180: f93c 96be bb8e 0abe 7694 9fbe 6f46 b5be
00000190: b519 9ebe 054a 6bbd a9f6 c1bc 7f32 363d
000001a0: e379 c0be fabf 51be fb21 a3be 5747 73be
000001b0: 5f9f 6cbe 060e 09bf 0c04 3cbe d8f5 c1be
000001c0: 18a8 e2bd 7185 d0bd fb05 ca3c d50f 54be
000001d0: 4b6d 56bc 39ff d0be 14c2 e8be 7f71 98be
000001e0: cc05 7dbe c6ae f7bc a3e1 70be dc05 c0be
000001f0: f8a3 96be 6600 85be cc8c 2bbe 9182 b9be
-0.093270935 0.29169762 -0.41179308 -0.46697402 -0.17653139 -0.25295797 0.08168073 -0.64760566
-0.10761528 -0.11462031 0.040985562 0.0030577406 -0.26548997 -0.35576442 -0.28465256 -0.11705563
-0.23372479 0.1536843 -0.48972023 -0.44102335 -0.28765342 -0.2781402 -0.082651496 0.103680275
-0.34436888 -0.29820913 -0.41499195 -0.09770457 -0.23638484 -0.30180106 -0.048411485 -0.295639
-0.3306872 -0.10168211 -0.2953557 0.17860726 -0.029521825 -0.12605667 -0.06681465 -0.39175743
-0.4089976 -0.07956026 -0.26954532 -0.20613039 -0.30104846 -0.06561241 -0.47392768 -0.28770918
0.24049821 -0.13632075 -0.17416075 -0.26694834 -0.17945051 -0.58701676 0.11119581 -0.31238493
-0.07483362 -0.41638628 -0.42201018 -0.20566823 -0.08517816 -0.07547263 -0.095351264 -0.5978393
-0.44320112 -0.3310707 -0.014392977 -0.2471562 -0.27721247 -0.1469863 0.017924756 -0.3848375
-0.23655441 -0.09437197 -0.18733034 -0.27585825 -0.17877324 -0.21918683 -0.0870366 -0.17512497
-0.38189876 -0.27479824 -0.36359635 -0.3369658 -0.0983984 -0.16114178 -0.27251694 -0.048107825
-0.40073472 -0.554056 -0.19386144 -0.3413307 -0.30981165 -0.04755446 -0.43537712 -0.52628946
-0.29343393 -0.1353101 -0.31167954 -0.354053 -0.30878988 -0.057443637 -0.023677187 0.04448175
-0.37592992 -0.2048339 -0.31861863 -0.23757683 -0.2310767 -0.53537023 -0.18360919 -0.37882876
-0.110672176 -0.10181702 0.024661055 -0.20709164 -0.013087581 -0.4081972 -0.4546057 -0.2977409
-0.24709243 -0.030234706 -0.23523574 -0.3750447 -0.29421973 -0.25976866 -0.16752928 -0.36232427

lin0.parametrizations.weight.original0 f4 [128, 1]
00000000: 5a61 cb3f 7083 a73f 426e b73f 23f8 9a3f
00000010: 196f c43f d6bb ae3f 7496 d63f f704 fb3f
00000020: fd1e 913f 0f7b 863f 8b11 763f 5def 8b3f
00000030: b43b c53f d095 9f3f e583 2940 ad5d b43f
00000040: e9eb 9a3f f06a 813f 88c6 c93f 336d 1640
00000050: ce72 e93f cf29 db3f ec82 de3f 67a8 923f
00000060: e63a 0040 8d90 fa3f 6b92 0f40 e615 853f
00000070: 0d25 8f3f ecdb 0540 2abb da3f fc75 c23f
00000080: 15c9 dd3f edea b63f 7280 0040 c4cb 5e3f
00000090: 36cb 9b3f ba11 d13f 8cc7 af3f 3482 cb3f
000000a0: 9d57 a03f 7e00 a43f f324 db3f 8290 a53f
000000b0: 508e d53f b5d9 ba3f a7b5 b63f 856b e33f
000000c0: b9ef a33f f64c c63f aac3 ed3f 72d1 983f
000000d0: f8ef e03f a095 1e40 a2f6 b83f cd26 0440
000000e0: 866a b63f 9a73 ea3f e56d a03f b126 e73f
000000f0: 5951 953f e7c5 b23f ce14 c93f a980 dc3f
00000100: 1214 1140 0d84 bc3f 4edc 833f 864f c23f
00000110: ed8f fe3f 5a48 0f40 902e 8f3f a623 0640
00000120: 9c19 a43f 6799 c53f fa4a 9f3f 11fb f63f
00000130: b4b0 8e3f de58 ae3f 1be7 9f3f 047e 933f
00000140: 2927 a43f ab69 b13f 1260 bf3f 9fc4 d03f
00000150: ba36 a63f d1c7 b93f 3115 aa3f 071b 9f3f
00000160: 8717 b83f f7da 0d40 0f14 f03f a804 1140
00000170: fb47 9e3f 0da2 ec3f b1d1 be3f be4f 0f40
00000180: de84 b93f bfa0 ab3f 3c7f c03f b372 923f
00000190: 2a9e 993f 8aa3 a53f 22f8 843f 12f3 ce3f
000001a0: 929f d33f 7387 9e3f 469d 8c3f 7e17 ec3f
000001b0: 1c2a d93f d3ad c63f a0c8 d83f 468d c03f
000001c0: 7245 bb3f 3e40 b03f fb68 953f 723d 973f
000001d0: a056 853f 6e9b f73f c96a 873f 617f 6a3f
000001e0: 71ad de3f f647 b13f e07b 1240 2565 1640
000001f0: ab92 1340 b51e 8a3f 4dcc bc3f 50f0 f23f
1.5889084 1.3086987 1.4330523 1.2106975 1.5346404 1.3651073 1.6764665 1.961089
1.1337582 1.0506305 0.9612052 1.0932423 1.5408845 1.2467594 2.6486752 1.4091088
1.2103244 1.011076 1.5763712 2.350415 1.8238161 1.7122134 1.7383704 1.1457642
2.0035949 1.9575363 2.2433116 1.0397308 1.1183182 2.091548 1.7088368 1.5192256
1.732699 1.4290444 2.0078397 0.8702967 1.217139 1.6333535 1.3732772 1.589911
1.2526737 1.281265 1.7120651 1.2934725 1.6684055 1.4597689 1.4274186 1.7767187
1.2807533 1.5492237 1.8575337 1.1938918 1.7573233 2.4778824 1.4450266 2.0648682
1.4251258 1.8316529 1.2533537 1.8058683 1.166545 1.3966645 1.5709474 1.7226764
2.26685 1.4727799 1.0301607 1.5180519 1.9887673 2.238791 1.1186085 2.0959258
1.2820315 1.543744 1.2444756 1.9295369 1.1147676 1.362087 1.2492403 1.1522832
1.2824451 1.3860372 1.4951193 1.6310004 1.2985451 1.4514104 1.3287717 1.2430123
1.438218 2.2164896 1.8756121 2.2659092 1.2365717 1.8486954 1.4907743 2.239242
1.4493673 1.3408431 1.5038829 1.1441253 1.2001393 1.2940533 1.0388224 1.6167929
1.6533072 1.2385086 1.0985496 1.8444669 1.6965976 1.5521797 1.6936226 1.5043113
1.4630568 1.3769605 1.1672662 1.1815627 1.0417061 1.9344308 1.0579463 0.91600615
1.739668 1.3850086 2.2888107 2.3499234 2.305827 1.0790621 1.4749848 1.8979588

lin0.parametrizations.weight.original1 f4 [128, 19]
00000000: cc0a b6be 5d69 183e d2bb bb3e 4209 af3d
00000010: d20b e8be 36b8 2e3f 2a37 733f 8c0b 85bf
00000020: 4303 bd3d 1842 b7bc 7d5a c03f 4ef9 c0bf
00000030: 7bc1 32bf c8f9 c83e 3350 b03e 949d 4abf
00000040: c6fe db3e dbad dabd 32d1 b739 18a9 1ebe
00000050: e8a1 0abe 7f1e 8abf 57ac 2e3e 1030 643f
00000060: 6d39 b1be 597a d83d e167 9ebf 93ab 54bf
00000070: d21b 52bd 0f52 3fbe 96fd a3bd 6f88 c5bd
00000080: 1457 893e 083e 8d3e 50f0 8c3e cfd7 853f
00000090: 4228 f5be 2b66 feb8 97cd 60bf c0a8 913f
000000a0: 98f7 b83d cc1a 733f 9654 bc3c e654 b73e
000000b0: 48ea 27bf c568 2c3f 781d 65bf d896 a33d
000000c0: 022c f33d c28e 2abe c637 71bf dbe6 1f3e
000000d0: 80c7 503f c910 653f be92 1a3f 35b4 08bf
000000e0: fef6 9d39 bdff c93e 97c9 963f f7a6 c7be
000000f0: 354d 933f 28ff 5b3e 1c0b 863f 4d8c 80be
00000100: 35f1 023f 1943 a1bd a4fa e7be 1cdf 1fbf
00000110: 440f ccbe e12d 833d d616 113f 89d4 9c3e
00000120: 2bfd 1cbf c40e 5ebf 7350 1f39 f0c5 003a
00000130: f04a 8bbe e4c4 b83f afff 353f 8623 663f
00000140: 46cc 9ebe 1b68 13bf 1481 3b3f 2be9 2ebf
00000150: 2c72 8f3f 3ae0 8fbe 8b2f 95bf 43fb 833d
00000160: 79d3 a73e c18a d83e b1a5 4fbf f537 873f
00000170: 1dfd e6bb a826 fdbc 16e1 f8b9 c61e 853d
00000180: 4794 dc3e 870f 9fbf afd7 ec3e c0f8 903f
00000190: 1159 953e 60d9 483f c82b 55bf 8a29 1bbf
000001a0: 6379 743f 1ace 78be 766d 9f3e 9c24 5dbf
000001b0: b6c0 dd3e 5ccf c53d f19c 4bbe 6638 0b3f
000001c0: f804 163f 2f01 053a a14d 7fbf 31c9 87be
000001d0: 5029 79bf 2dc6 3d3e c049 9dbf e1e7 a4bf
000001e0: 52d2 103f a3e6 97be 92a5 a4be 08de 06bd
000001f0: 867a 9cbc df72 bd3e 608b 5cbf 88c5 b7be
00000200: af22 bd3e a824 1abf 211c bebe 8026 093f
00000210: 0a3e 33b9 104f fe3e 486e 03bf edf2 74be
00000220: df64 a53f 9f74 73bf 336d 8abe e26c e23d
00000230: 7471 843f b8f2 5a3f 22a8 9ebe 7fd6 b73f
00000240: e677 413f 6a1d debe 6bc7 cc3e 390a 373f
00000250: 918e c5be b6d5 f0bd f171 09bf 221e a3b9
00000260: 3758 0ebd ff2d 423d 343f 873c 4b90 133d
00000270: 9e15 adbf cc81 013f 4b39 71be 2151 9abf
00000280: 81f7 fa3e f0ec 78be 1e7a e63e aff1 51bf
00000290: 387e a63e bacd 4e3f 64f0 0d3f 697a 3fbf
000002a0: 584e 2e3f add3 df3e 5d33 0039 98cc c4be
000002b0: 1e63 a3bc 147f 4d3e 547b e23e ece7 113f
000002c0: 8b1a 563f 13e0 463e c116 ffbd cf5e d23e
000002d0: c92e 01bd f307 b83e f471 4fbf 8166 4c3e
000002e0: 577b b7bc 2a35 4e3c 21ff 94bf 8e4b c5bf
000002f0: f2ba 893e 54b7 c538 d207 5dbf 9f7e 173e
00000300: a294 523c ed6c 99be af5a 22be c765 1e3e
00000310: c4db c6be b425 983b fcaa 293f a053 c83e
00000320: 20c6 323e add9 90be b1e9 863e cb94 1b3c
00000330: b99c 3abf c752 163f 5016 04be 6953 09c0
00000340: 08e3 0e39 a3fc 383f 835e 683e 5727 563f
00000350: b8dc 013f 188f abbe 65fb cd3e 6c5b a9be
00000360: 7768 b63e cbf8 16bf 6033 abbf 4c28 56bf
00000370: b97e 20bf 68a9 203e 4d59 263f cf38 b13e
00000380: 05d9 2fbf 379a c93e 1cc9 47bf 62ea 93b9
00000390: da61 7dbe 425a 913e 6bd7 82bf 4a5a e83d
000003a0: 3ac9 fdbe c9e2 eabe 1d0f 26bf 8bef 813f
000003b0: c74b e5be 50da eebf 4f76 d7be afc4 45bf
000003c0: aa0a 763d bad4 e7be 52d9 353f 38a7 683f
000003d0: 2b40 4e3e f1e4 c33e 415f 0fb9 a81a 65bf
000003e0: d747 bcbe 6040 003f 69a0 c33e b7f2 7e3f
000003f0: 67ba da3d 78c4 ad3d ebb3 533f dbb4 abbd
-0.35555112 0.14883943 0.36666733 0.08546688 -0.45321518 0.68249834 0.9500605 -1.0394149
0.09229138 -0.022370383 1.5027615 -1.5076082 -0.6982648 0.39253068 0.34436187 -0.79146695
0.42967814 -0.106776915 0.00035060343 -0.15494192 -0.13538325 -1.0790557 0.1705793 0.8913584
-0.34614125 0.10570211 -1.2375451 -0.830743 -0.051296063 -0.18683647 -0.08007352 -0.09645163
0.26824248 0.2758639 0.27527094 1.0456485 -0.47882277 -0.00012130694 -0.87813705 1.1379623
0.090316 0.94962764 0.022989552 0.3580696 -0.6559186 0.67347366 -0.8949809 0.079877555
0.11873628 -0.1665602 -0.9422573 0.15615408 0.8155441 0.8947874 0.6038016 -0.53399974
0.00030129397 0.39452925 1.178027 -0.38994572 1.1507937 0.21484053 1.047214 -0.2510704
0.511493 -0.07874126 -0.4530841 -0.6244981 -0.39855397 0.06405235 0.5667547 0.306309
-0.61323804 -0.8674128 0.00015193391 0.00049123075 -0.2720561 1.4435086 0.7109327 0.89897954
-0.31015223 -0.5758073 0.7324383 -0.68324536 1.1206717 -0.2810076 -1.1655134 0.06444409
0.32778528 0.4229336 -0.811122 1.0563952 -0.0070492164 -0.030902222 -0.00047469948 0.0650001
0.43081877 -1.2426614 0.46258304 1.1325912 0.29169515 0.7845669 -0.8326993 -0.6061026
0.9549772 -0.24297372 0.311382 -0.86383986 0.4331109 0.09658691 -0.19884087 0.5438293
0.5860133 0.0005073724 -0.9972783 -0.26520684 -0.9732866 0.1853263 -1.2288132 -1.2883264
0.56570923 -0.2966815 -0.3215757 -0.03292659 -0.019101392 0.37001702 -0.8615017 -0.35892892
0.36940524 -0.60212183 -0.37130836 0.5357437 -0.00017093882 0.49669695 -0.5134015 -0.23920794
1.2921408 -0.95099825 -0.27036437 0.11055924 1.0347123 0.8552661 -0.3098765 1.4362334
0.75573575 -0.43381816 0.39995894 0.71499974 -0.38585332 -0.11759512 -0.53689486 -0.00031112233
-0.034752097 0.047407147 0.01650963 0.03602628 -1.3522222 0.5058868 -0.23557012 -1.2056009
0.49016955 -0.24309134 0.45015043 -0.82009405 0.32518172 0.80782664 0.5544493 -0.7479616
0.68088293 0.43716183 0.00012226166 -0.38437343 -0.019944724 0.20068008 0.44234717 0.5699451
0.8363425 0.19421415 -0.12455512 0.41087958 -0.03153876 0.35943565 -0.81033254 0.19960977
-0.02239768 0.0125859175 -1.1640359 -1.5413682 0.2690044 9.4278395e-05 -0.8634006 0.14794396
0.01285282 -0.29965916 -0.15854906 0.15468512 -0.38839543 0.0046431664 0.66276526 0.391263
0.17458391 -0.28291073 0.26350167 0.009495924 -0.7289539 0.5872006 -0.12899137 -2.145716
0.00013626751 0.72260493 0.22692303 0.8365378 0.50727415 -0.3350761 0.4023086 -0.33077562
0.35626575 -0.5897338 -1.3375053 -0.8365524 -0.62693363 0.15689623 0.6498001 0.34613654
-0.6869052 0.3937547 -0.78041244 -0.00028212654 -0.24744359 0.28389174 -1.022199 0.11345346
-0.49567586 -0.45876148 -0.6486681 1.0151228 -0.44784376 -1.8660374 -0.4208245 -0.7725324
0.060068764 -0.45279485 0.7103473 0.90880156 0.20141666 0.38260606 -0.00013673028 -0.894938
-0.3677356 0.5009823 0.3820832 0.99589103 0.10680085 0.08484739 0.8269641 -0.08384105

lin1.bias f4 [128]
00000000: 1850 ccbd 37cc a1bc a12d 4e3e 705f eebc
00000010: c90a c8be 4b8c 87bc f348 36bd 99a7 053e
00000020: 4dec 0b3b 0049 72bd 414d 47bd 6e27 553d
00000030: 0d18 44bd 8204 f2bd 3ce8 6a3d 161c c2bc
00000040: 3d4a 2fbe 08b8 a8bd 5339 a5bd 52ed 3dbe
00000050: 0ded 2abe f125 7b3d 3d4b e9bd 9766 a3bd
00000060: e60c 1e3d 0dcc d0bd 642b 543d ee0e f8bd
00000070: 1e3b 41be a120 193f 4587 06bd e1d4 9fbe
00000080: 5c57 a03d 0491 30be 06a3 703d ee2d 06be
00000090: e2fc fbbd c3ff 4dbe 8e59 383e ddbe 8fbe
000000a0: 3748 b3be 78b7 5ebd eda2 1dbc 0b3c f3bd
000000b0: f562 e0be 7a9c bcbd 0ba7 6d3c 8d9a 21be
000000c0: 109b c6be dd08 3bbe 5a7e 98be 2d27 88bd
000000d0: 619e 4fbd 0429 5d3c a89c e1bd 91ac a8bd
000000e0: 3075 33bd 6048 4fbe a6eb ecbd 4ca8 84bd
000000f0: d2c3 08bf 3515 26bd d37e bdbc 44b6 7bbe
00000100: 0730 5abe cd95 e5bd e78e b03d 618a b1bd
00000110: 046f 3c3e 56f1 06be 850a c1bd f80b 5d3b
00000120: de9a 123e 9685 c6bd eaab c5bd c0a7 ccbd
00000130: 3ce7 ee3e c15e 063e f02b 84be 2303 69bd
00000140: b171 d9bd 8030 9cbe e998 54bd 8bd8 2c3e
00000150: 8a9b c9bb dcf1 d9bd 1a74 983d 7972 2bbe
00000160: 3f56 29bd f195 943e 8471 4bbd cbfb 24be
00000170: 7e00 52bd f137 e73d 3cb3 d43e 80a0 e1bd
00000180: 7516 693d 4add 70bd 036a 1cbd 2ab4 f9bd
00000190: 6181 1f3d 9ec7 b9bd 3fce e03e c8ce d4be
000001a0: 9daf bfbe 80d0 753e f358 e43c 3697 88bd
000001b0: 370d e1bc ad4f 67be b932 7fbe 17c5 f9bd
000001c0: 4b49 a1be b7b6 eabd 0d80 debd 479f 36bd
000001d0: b44b ec3d 03bc c4bd 7862 09be 424b 3dbd
000001e0: a22f a0bd 2d60 d03e 54c3 0b3e b294 33be
000001f0: c290 a1be 20ba d1bd 1c15 babe 09b8 83bd
-0.09976214 -0.019750698 0.20134594 -0.029098243 -0.39070728 -0.01654639 -0.044503164 0.13052215
0.0021350563 -0.05915165 -0.04865766 0.052039556 -0.0478745 -0.11817266 0.057350382 -0.023695033
-0.17118163 -0.08238226 -0.08067574 -0.18547562 -0.1669199 0.06131548 -0.11391304 -0.07978552
0.03858652 -0.101951696 0.051799193 -0.121122226 -0.18870208 0.5981541 -0.032843847 -0.312171
0.078291625 -0.17242819 0.05874922 -0.13103458 -0.12304093 -0.20117097 0.18002912 -0.28075305
-0.35016033 -0.05437419 -0.009621364 -0.11876687 -0.43825498 -0.09209533 0.014505158 -0.15781613
-0.38790178 -0.182651 -0.297839 -0.06648097 -0.05068815 0.013498548 -0.11016208 -0.082360394
-0.04381293 -0.20242453 -0.11568384 -0.064774126 -0.534238 -0.04054757 -0.023131764 -0.24581248
-0.21307383 -0.11210213 0.086210065 -0.08668972 0.18401724 -0.13178 -0.094258346 0.0033729058
0.1431689 -0.09693448 -0.09651931 -0.09992933 0.46660793 0.13122083 -0.25814772 -0.056887757
-0.10617388 -0.30505753 -0.05190364 0.1687948 -0.006152575 -0.10641834 0.074440196 -0.16742887
-0.041342016 0.29020646 -0.049668804 -0.16111676 -0.05127 0.11289967 0.41542995 -0.11016941
0.056906182 -0.058804788 -0.03818704 -0.12192567 0.038941745 -0.09071277 0.43907353 -0.41564012
-0.3743867 0.24005318 0.027874446 -0.06669466 -0.027472122 -0.22588988 -0.24921693 -0.12195795
-0.3150123 -0.11460631 -0.108642675 -0.044585492 0.11537877 -0.09606173 -0.13416469 -0.04621435
-0.07821585 0.40698376 0.1364873 -0.17537192 -0.31555754 -0.10240579 -0.3634423 -0.06431586

lin1.parametrizations.weight.original0 f4 [128, 1]
00000000: 926a f93e bd68 fc3f 5c0f c93f c3cd 123f
00000010: 2995 b13f 0901 0e3f d86a 293f 1443 e03f
00000020: 1524 e93f 30ac 103f 8568 013f eee0 a93f
00000030: 2b46 2140 4917 023f 451a dc3f 8f15 1d3f
00000040: f17d 0240 b30f 063f 59e0 b93f dc46 893f
00000050: c251 ad3f 309e a63f 9bd7 073f 4351 c53f
00000060: 0811 ff3f 7ba0 043f 990c d23f 2573 e63f
00000070: a5c2 f23f 976f 3740 5bee 163f cca4 e13f
00000080: e471 1340 94e6 eb3f d9f3 ec3f 7fd0 a53f
00000090: 31d0 e13f be4b d03e d4c5 ad3f 469e fa3f
000000a0: 0cab ec3f df73 fe3e 7af0 c13f e6f0 0a3f
000000b0: 0a4b 8f3f e64b c63f 99f3 e53f 0152 f53e
000000c0: 9207 963f 8d26 ad3f 12b1 1440 3844 b03f
000000d0: bd21 083f f3a0 0140 f848 093f 0721 093f
000000e0: 504c bc3f a809 c03f 86fd f43e 9a08 cf3f
000000f0: 178d b73f 84d3 0e3f 1f89 d83f fef8 e83f
00000100: b5e4 0540 ddc5 f93f 1859 ad3f 65c5 f13f
00000110: 6df6 3140 538c ef3e 1f4f 1440 33a5 223f
00000120: f9d8 ab3f aa06 043f f64b 0d3f 26f7 f53f
00000130: 93fd d93f 36c0 d63f 4e6c cd3f a810 ca3f
00000140: 8dca 0e3f 78d3 a13f ee9f e23f 0e45 d83f
00000150: fb36 2a40 b98a 0a40 0580 ee3f b98a e63f
00000160: aa69 c63f ebaa f53f e2da 093f b8fb 043f
00000170: baaa 153f 88ba bb3f 00b5 c03f 34a2 d83f
00000180: 76a0 a23f 6907 e13f 9fc1 c93f bb79 003f
00000190: 0178 c93f 4394 003f 32dc 0140 8ee4 a53f
000001a0: 1a42 0040 023a a33f 9ecf 0440 6be1 ee3f
000001b0: f0de 073f de91 1240 c6fb 1040 4d51 fe3e
000001c0: 7c45 953f 627b f13e 0caa e73f 1e98 363f
000001d0: 64a7 b03f 24e2 f53f 46ad 063f b941 c33f
000001e0: 481d 103f d092 a23f 66de e83f ac37 f03f
000001f0: 8607 fe3f 2b67 fe3e 0829 9f3f f034 013f
0.4871412 1.9719464 1.5707812 0.5734522 1.3873645 0.5547033 0.66178656 1.7520471
1.8214136 0.5651274 0.5055011 1.3271768 2.5199077 0.5081678 1.7195517 0.6136102
2.0389369 0.52367705 1.452159 1.072475 1.3540576 1.3017025 0.5306336 1.5415424
1.9927073 0.51807374 1.6410094 1.8003889 1.8965651 2.866186 0.5895745 1.7628417
2.3038263 1.8429742 1.8511916 1.2954253 1.764166 0.40682787 1.3575997 1.9579551
1.8489699 0.49697778 1.5151513 0.5427383 1.1194775 1.5491912 1.7964965 0.47914127
1.172106 1.352739 2.3233075 1.3770819 0.5317648 2.0254486 0.53626966 0.5356602
1.4710789 1.5002947 0.47849673 1.61745 1.4339932 0.557915 1.6916846 1.8200986
2.0920842 1.9513508 1.3542814 1.8888365 2.7806656 0.46786746 2.3173292 0.63533324
1.342559 0.5157267 0.5519403 1.9216049 1.703051 1.6777408 1.6048677 1.5786333
0.5577782 1.264266 1.7705057 1.6896074 2.6596057 2.164717 1.8632818 1.8011085
1.5500996 1.9192785 0.53849614 0.5194659 0.58463633 1.46663 1.5055237 1.69245
1.2705219 1.7580386 1.5762213 0.50185746 1.5739747 0.5022623 2.0290647 1.2960374
2.0040345 1.2752078 2.075172 1.8662542 0.5307455 2.290153 2.265367 0.49671403
1.166183 0.47164446 1.8098769 0.7132586 1.3801084 1.9209638 0.52608144 1.5254432
0.5629468 1.2701054 1.8192871 1.876699 1.9846046 0.49688086 1.2434397 0.504714

lin1.parametrizations.weight.original1 f4 [128, 128]
00000000: 4cc9 4dbd 40b4 b7bd d12f 9e3b 0fcb 5cbd
00000010: f358 523d 3a32 3c3d 4995 013d bc06 81bd
00000020: b690 623d 9368 163c 4ca5 81bd df72 2f3d
00000030: 364c 8b3d f825 3cbc 269a 363d 63af 9fbc
00000040: ef89 103d 4dee ddbd 413c 183d 59c6 6fbd
00000050: e4a3 f33c 2083 96bd ea8c 003d 45ae ebbd
00000060: 6a99 d9bc 0c8d 9bbd f831 9cbd 2ca7 c5bd
00000070: 3e5c 93bd 6657 463b 4011 7e3d 7909 6ebd
00000080: 1665 f3bd 11b1 a33d 73ce b8bd a44b 7dbd
00000090: db68 073d 4d55 28bd bbd1 763c 59f8 acbd
000000a0: 4aa8 c6bd c859 b4bd 7fa8 3f3c 6c84 c3bc
000000b0: 5d3a b5bd 374f ccbd 1de2 34bd 6a68 313d
000000c0: 9372 d3b9 13cd a63c 33e3 e8bd 7b08 c8bc
000000d0: 5c80 e63b 1356 84bd 2df7 92bb 6848 04bd
000000e0: 6d05 b1bd fb70 aebd dc18 473d 082c 44bd
000000f0: 3c65 c5bd e0e4 233c e81d 173d de8a 8dbc
00000100: 9fe0 1d3d b95a fcbc cfcc 8bbd d484 8dbd
00000110: 464c 27bd ee7d 3fbd 4415 c3bd 7287 433c
00000120: 6635 2dbd 3181 ecbd 2c2a c9bd 03a3 c0bd
00000130: 7a5c 853d 4863 533d b0a9 61bd e5f4 e7bd
00000140: 5523 e53c ddc4 a33c d553 a43c 30a7 923d
00000150: 51bc 82bc c62a c4bd 67ca 433d e8c7 8abd
00000160: 6f07 df3b 71ce c8bd a750 babd 74a0 9dbb
00000170: e03f 8cbd 4639 11bd d130 31bd ad4e 93bd
00000180: 873c 52bd 7ece e03c 933f 7fbd 1f31 933c
00000190: 625f c6bc a126 dbbd 7623 97bd a256 923c
000001a0: ffa2 9a3d 008e c13d c9e1 983d f432 0b3c
000001b0: 29d6 363d 8735 c1bd 2cee 11bd ed56 c23d
000001c0: e616 e0bd 6a55 5e3d eb4a dd3c 199f 52bd
000001d0: d62d 5fbd 969a 25bd 32b8 c23b 68b5 abbd
000001e0: 34d0 6fbd 11cf 8f3b 37aa 68bd bd24 bebc
000001f0: 7281 cebd 429f a5bd f197 5bbd af9c 9f3c
00000200: 8b00 f53e 46b9 6bbf 6b5a 46bf 45cd 303e
00000210: 0377 41bf a83a 673d e63c 9ebd c09f 193d
00000220: 6f58 28be fd11 363f 0264 babd 4cf7 b73b
00000230: 528e 213d 9cab 33bd 51eb aabe 48e4 7fbe
00000240: 5fb8 a3bd 75f1 0b3f 5fbf 613e 742c a0be
00000250: 3112 613f 47c3 3bbc 4750 48bf 43dc e9be
00000260: c8d5 4c3f 76d9 bdbe da91 11bf d01d c03e
00000270: a803 1ebe 702a 1bbf a525 9a3c 5262 12bf
00000280: c42a 2dbf f226 e53c fd06 d1be 631a fdbe
00000290: 3d05 4dbf 51d7 8f3e ba95 72be 83fb 99be
000002a0: 685e c1bd 2bb8 6cbf 1c3f 003f 633c f5be
000002b0: a65f 9b3f bce0 9cbf c042 27be 29f9 94bf
000002c0: 32c7 a5be 48ee 013f c107 5f3f f0e4 4abf
000002d0: 87d1 933e 0cd2 babe d784 10be 1f43 ca3f
000002e0: a49e da3e f13f f63e c353 533f f033 82bd
000002f0: f1d9 9c3e 4efd 013f e2a1 34bf b245 a43f
00000300: 69a7 8bbd e0f5 77bf 262a fbbc 26be ba3a
00000310: b453 d7be ab9b 61be 4c93 2cbf 8b67 c3be
00000320: 3bad 653d e2fc 2fbf 6fa8 47be ac4e 7f3f
00000330: d8f9 50be 64e4 2a3f da5e 60be 5fd4 a2be
00000340: 885b 873d 00f8 f8be 9dbb c03e 60df 8a3f
00000350: d107 25be b275 f13e 0c86 57be 8c5f 8f3f
00000360: 3b37 26bf b4e4 103f 0c9b 5cbf 12ef c6bf
00000370: 82e3 1dbf 0f5d 2e3f 6441 823e a31b 513f
00000380: 520d 3b39 24be 013f 3d59 bcbe 4fbd 103f
00000390: b381 4c3e 84c1 573e 4f84 c7be 86a6 3a3f
000003a0: 711f 333e 6d7c 63bc f79d 973d 8e02 5b3e
000003b0: cdb1 1d3e c970 3340 6ee5 b73f 010d 41be
000003c0: 0f19 0dbf 81fe 413f 269d 01be ab57 16be
000003d0: 32d7 d13e 6a95 853e 9c05 a43e 381a 9b3e
000003e0: 023f 803f 8941 3e3e 7552 d5be df46 163f
000003f0: 2c71 c5bc 6d41 e0be 2abc d8bd 2ab1 25be
-0.0502408 -0.08969927 0.0048274775 -0.05390459 0.05135436 0.045946337 0.03163651 -0.063001126
0.05531379 0.009180206 -0.06330356 0.04283416 0.068016455 -0.011483662 0.0445806 -0.01949281
0.035287794 -0.10836468 0.037166838 -0.05853877 0.029741235 -0.07349229 0.031384386 -0.11507849
-0.026562411 -0.07595262 -0.07626718 -0.09651026 -0.07195328 0.0030264496 0.06202817 -0.058114503
-0.11884515 0.07992757 -0.09023752 -0.061839715 0.033058982 -0.041096974 0.015064652 -0.08445806
-0.09700067 -0.08806187 0.011697887 -0.023866855 -0.088490225 -0.099760465 -0.04416095 0.043312468
-0.0004033042 0.020361459 -0.1137146 -0.024418106 0.0070343446 -0.0646173 -0.004485032 -0.032295614
-0.08643613 -0.08517643 0.048607692 -0.047893554 -0.096384495 0.0100032985 0.036893755 -0.017278131
0.038544293 -0.030804979 -0.068261735 -0.069101006 -0.040844224 -0.046750955 -0.095255405 0.011934148
-0.042287253 -0.11548079 -0.09822497 -0.09406092 0.06511779 0.051608354 -0.055093467 -0.11326007
0.02797095 0.019991333 0.020059505 0.07160795 -0.015958937 -0.09578471 0.047800448 -0.0677641
0.006806306 -0.098050006 -0.090974145 -0.0048103873 -0.06848121 -0.03545501 -0.043259446 -0.071927406
-0.051327255 0.027442213 -0.06231649 0.017967759 -0.024215404 -0.10700727 -0.073798105 0.017863575
0.0755062 0.094509125 0.0746494 0.008496035 0.044637833 -0.09434038 -0.03562753 0.09489236
-0.109418675 0.054280676 0.027013263 -0.05142126 -0.054487072 -0.040430628 0.005942368 -0.0838421
-0.058548167 0.004388698 -0.056802955 -0.023210878 -0.100832835 -0.08087017 -0.0536117 0.019483892
0.47851977 -0.9207958 -0.77481717 0.17265804 -0.7557222 0.056452423 -0.07726459 0.037505865
-0.16439985 0.711212 -0.09101106 0.005614197 0.039442368 -0.04386483 -0.33382657 -0.24989426
-0.0799415 0.5466531 0.22045659 -0.31283915 0.8791838 -0.011460132 -0.78247494 -0.4567586
0.80013704 -0.37079972 -0.56863177 0.37522745 -0.15431082 -0.6061163 0.018816778 -0.57181275
-0.6764338 0.027972672 -0.40825644 -0.49434194 -0.8008612 0.2809396 -0.23689929 -0.300747
-0.09441835 -0.9246852 0.500963 -0.47897634 1.2138565 -1.2256083 -0.16334057 -1.1638538
-0.32378536 0.50754213 0.87121207 -0.7925558 0.28870794 -0.36488378 -0.14113174 1.5801734
0.42699158 0.48095658 0.82549685 -0.063575625 0.30635026 0.5077714 -0.70559514 1.2833769
-0.0681904 -0.9685955 -0.030659746 0.0014247342 -0.42056048 -0.22032039 -0.6741226 -0.38164935
0.05607341 -0.68745244 -0.19497846 0.9972942 -0.20407808 0.66754746 -0.21911183 -0.3180265
0.06609255 -0.4862671 0.37643138 1.0849419 -0.16116263 0.47160107 -0.21047229 1.1201034
-0.64928025 0.56598973 -0.8617408 -1.5541708 -0.61675274 0.68110746 0.25440514 0.81682795
0.00017838672 0.50680757 -0.36786833 0.5653886 0.19971351 0.21069914 -0.3896813 0.72910345
0.17492463 -0.013884646 0.07403176 0.21387693 0.15399857 2.8037589 1.4366891 -0.18852617
-0.5511636 0.7577897 -0.12657604 -0.1468188 0.40984493 0.26090556 0.3203553 0.3029344
1.0019228 0.18579687 -0.41664472 0.5870189 -0.024101816 -0.43799916 -0.105827644 -0.16180864

lin2.bias f4 [128]
00000000: 7551 3fbd d81a 533d 236f c83e 7702 02be
00000010: d3c2 d23d dcf5 dd3e 0b19 7c3e e514 9abe
00000020: c163 6cbd 72f1 eb3e 33a4 913e 8a25 0a3d
00000030: e9d1 8cbd 4fab 553d e904 133e f5a7 93bd
00000040: 9dd2 44be 6f26 e2be 0855 d0bd e7d9 8dbe
00000050: 474e 8ebe 5576 c6bd 7be9 e9bd c8dd 81bd
00000060: 4fed 9a3e 7738 4abe 8c9d 613e 9de1 1dbe
00000070: e28c 01be a2e7 fd3c 6ed6 0ebe 78fc 713e
00000080: 6453 d0be 913d babd b88d 91bd 21ef 18be
00000090: f5bc dabd 8f39 093f 1daf 9dbd afbf f7be
000000a0: bdbd cebd 6b77 923e 1830 7fbd 637f febe
000000b0: 127c b0bd 18f1 9a3e 95da eebd 79ef 823e
000000c0: a397 f7bd b177 0fbe 688f 27be 7929 4abe
000000d0: adf7 23bd fec4 183e f30b 733d 4c58 94bd
000000e0: b6fd 0cbe d2b2 6d3e 97fd b7bd e3fe b1be
000000f0: e8b0 63be fb36 04be 7f93 ebbd 255a 3ebe
00000100: 2030 a0bd 2030 cfbe 13bd 2abd c1e2 04be
00000110: 1321 89be 3bd4 11be d97f febd 0cde eabe
00000120: a9bd 6b3d 03b1 b3bd faec abbe 5555 97bb
00000130: 6209 04be e2bc 61be a0b1 bdbe f593 80bd
00000140: 4366 04be 5017 b0bd 27e0 32be acbc 3cbe
00000150: e99a 0dbe 0d6d d3bd c0fd 3abd 9551 6bbe
00000160: 8a19 f3be a359 953e 3356 0ebe 5c05 87bd
00000170: d48b 4dbd 2a0d 6cbd 516b 94bd 3ad4 d0bd
00000180: fbdf 57bd 06ee a0be 91c7 1abe 6e5e 0f3f
00000190: 356c 93be de43 43be 5f18 10bd aa30 ddbd
000001a0: ecb6 c63e f7e4 c3be c80d 41bd 0b16 d3bd
000001b0: deda e3bd 164e fbbd b02d 0dbf 624b 50be
000001c0: a00d 433e 6d6d e0be 1675 82be 924d 403e
000001d0: 72d2 2d3e 6675 cfbd 7c6d 21be c457 2b3e
000001e0: 4954 15be 0cb9 443e 32f1 43be 90ec a5be
000001f0: 4bb3 eabd bbca c2bd d552 15be d3b9 02be
-0.046708543 0.051539272 0.3914729 -0.12696253 0.10291066 0.43351638 0.24618928 -0.30094066
-0.05771232 0.46082646 0.28445587 0.033727206 -0.06875975 0.052165326 0.14357342 -0.0720977
-0.19220968 -0.44169948 -0.101724684 -0.2770531 -0.27794096 -0.09690539 -0.11421486 -0.063411295
0.30259177 -0.19748102 0.22032756 -0.15418096 -0.12651399 0.03099424 -0.13948986 0.23631465
-0.40688622 -0.09093774 -0.07107109 -0.1493497 -0.10680572 0.5360345 -0.07699416 -0.4838843
-0.100947835 0.28606734 -0.062301725 -0.49706563 -0.086174145 0.30262065 -0.11662785 0.25573328
-0.12089469 -0.14010502 -0.16363299 -0.19742383 -0.040031124 0.14918897 0.059337568 -0.07243404
-0.13768658 0.23212746 -0.08983915 -0.34764776 -0.22235453 -0.12911598 -0.11502742 -0.18589075
-0.07821679 -0.40466404 -0.04168422 -0.12977125 -0.26783046 -0.14241116 -0.12426729 -0.45872533
0.05755392 -0.08773997 -0.33579236 -0.0046183267 -0.12894204 -0.2204471 -0.3704958 -0.062782206
-0.12929635 -0.085981965 -0.1746832 -0.18431348 -0.13828625 -0.10323534 -0.04565215 -0.2298034
-0.47480422 0.2916995 -0.1390007 -0.06592819 -0.05018218 -0.05762974 -0.072470315 -0.10196729
-0.05270384 -0.31431597 -0.15115191 0.56003463 -0.28793493 -0.19068858 -0.035179492 -0.108002976
0.38811433 -0.38260624 -0.047132283 -0.10306939 -0.1112573 -0.12270753 -0.5514784 -0.20341256
0.19048166 -0.43833485 -0.25479954 0.1877959 0.1697481 -0.10129814 -0.15764421 0.16732699
-0.14582933 0.19211215 -0.19134977 -0.32407045 -0.11459979 -0.09511324 -0.14582379 -0.12766199

lin2.parametrizations.weight.original0 f4 [128, 1]
00000000: d118 4c3f 3c3c 0e40 1b20 963f 29ce 0640
00000010: ebfc 1e40 85df e63f 05bf 9d3f fc16 f63f
00000020: 9ef0 fc3e c930 0d40 8296 5240 4136 5040
00000030: 9839 0c3f 78cf 8d40 21da e43f df32 043f
00000040: f254 4f40 e0ae b23f f75b 0d3f 5ee6 e53f
00000050: 4c0e 973f 299d a93f 9c18 2340 ceea 013f
00000060: da05 b63f 60fe 483f e22b 0440 b785 963f
00000070: 8a80 113f 79b0 0240 4d28 2040 e1a5 1b40
00000080: 3933 ca3f b7e2 073f 513d 863f fa00 a33f
00000090: cabe 1740 580e 0240 a84c 043f 596a 0840
000000a0: ae58 013f 6e2a 1d40 84ef f93e 7dea 993f
000000b0: cef0 f93e cb3f ac3f 0f2e 043f 760b e13f
000000c0: f81e 103f b795 083f 1312 f83f 4a7d c53f
000000d0: 76bf 053f 19b7 b93f fbc1 0740 09b2 193f
000000e0: 0138 093f 7d10 1040 68fc 033f 78f3 1d40
000000f0: 6aa0 b33f 0d4f 7f3f 86d0 f63e 8ca2 993f
00000100: c0bf e83f 6c65 0240 77f9 993f 914a 063f
00000110: 4df8 d63f b6dd 043f fc13 0d3f 7701 b53f
00000120: be4c 1e40 cfa2 c93f de26 e43f 0394 a53f
00000130: e1c3 fe3e e89d 9b3f b9b3 a93f cc43 2740
00000140: e9d4 1d40 fbf2 023f c4fe f23f e45c fd3e
00000150: 4d2b 143f b7e2 fd3e 1580 0240 6196 c63f
00000160: 3148 c43f 546f 0d40 8d41 fe3f 0825 073f
00000170: f80a 113f beed b83f 9892 003f 9ba6 0e3f
00000180: 89ff 043f 8861 3340 c624 eb3e 14a3 0b40
00000190: c5fb 0240 c1e4 e03f b9b6 063f 84ec f23f
000001a0: 2dc3 883f deab f23f dd87 1140 3a19 163f
000001b0: b42e 053f 661f 023f c17b df3f b23b 7d40
000001c0: 7ee7 f63f 2f53 c03f 759e 0240 6da7 1a40
000001d0: 065f 4c40 c4bb 0a3f 6f9a 093f 0df0 1340
000001e0: 67ad 093f aabb 4e40 a3ed e33f dd38 e73f
000001f0: 3eff 053f 3f32 0b3f 55e1 f23e 5902 fe3e
0.79725367 2.2224264 1.1728548 2.106333 2.484187 1.8036963 1.232392 1.9225764
0.49402326 2.2061026 3.2904363 3.2533114 0.5477538 4.431576 1.7879068 0.51640123
3.2395597 1.3959618 0.5521845 1.7960927 1.1801238 1.3251086 2.548377 0.5074891
1.4220536 0.78513145 2.0651784 1.1759557 0.5683676 2.042021 2.5024598 2.4319994
1.5796882 0.53080314 1.0487462 1.2734673 2.3710198 2.0321255 0.5167947 2.131491
0.5052594 2.4557147 0.48815548 1.2024685 0.48816532 1.3456968 0.5163278 1.7581623
0.56297255 0.53353447 1.9380516 1.542886 0.5224527 1.4509002 2.1212146 0.60037285
0.5360108 2.2510064 0.51557016 2.4679852 1.403333 0.99729997 0.48205966 1.200273
1.8183517 2.0374403 1.2029256 0.5245753 1.6794525 0.51900804 0.5510862 1.4141072
2.473434 1.575281 1.7824361 1.2935795 0.4975882 1.2157564 1.3257972 2.613513
2.46612 0.5115201 1.8983998 0.49484932 0.5787857 0.49587032 2.0390675 1.5514642
1.5334531 2.20992 1.9863755 0.5279088 0.5665736 1.4447553 0.50223684 0.5572297
0.51952416 2.8028278 0.45926493 2.1818285 2.0466168 1.756981 0.5262256 1.8978429
1.0684563 1.89587 2.2739174 0.5863224 0.5202439 0.5082916 1.7459642 3.9567685
1.9289396 1.5025386 2.0409214 2.4164689 3.1932998 0.5419276 0.5375127 2.3115265
0.53780216 3.230204 1.7806896 1.8064228 0.52342594 0.54373544 0.4743754 0.49611166

lin2.parametrizations.weight.original1 f4 [128, 128]
00000000: f47c 293a 034e 2cbd 3cc4 babd c13e 95bc
00000010: 9d17 53be 9051 14bd 2aa8 953a 9f85 0b3d
00000020: a84d 5ebd 846c ba3b 8d18 253a 0da0 b0bd
00000030: 36fd 99bd a483 fb38 43a5 a0bd 47a2 083b
00000040: b244 c8bd 49d4 db35 b134 2c3c b93e b5bc
00000050: 4eae 0fbe 32d4 95bd 6dd3 173b 7d84 a1bc
00000060: 126b bcbc f5a0 a239 b918 b13c 90d2 44bd
00000070: 150c d4bd c1b5 84bd 1ef8 16bb dad5 223d
00000080: 2c1c 38be 5968 96bc dfab ddb8 fb59 09be
00000090: 7218 28bd 9ebf a1bd d330 8d3d 4560 c73a
000000a0: d99f 85bc 8408 7ebc 6203 b7bd d4e1 05bb
000000b0: 99d4 1abd d841 2dbe f425 9bbd 5ce1 a838
000000c0: b2b3 77bd 8e42 31be c144 bbbb a88f 7bbd
000000d0: 8b2a a43a b8bc 08bc 5b97 c8b4 cec6 1abc
000000e0: 47fd daba 99de 02be df42 e03a 7990 fa3c
000000f0: e114 65bd 33e6 8a39 ecca fbbd 7147 10bc
00000100: c893 d7bd 7082 223c 35bb 58bd eb46 0cbe
00000110: 1363 23bc 9d83 4f3b 9fda 19bd 75ff d3bc
00000120: a0b8 93bd 728f 6dba f297 3b38 b1bf 3fbd
00000130: d30d dcbd 4a12 bc3d 4ae1 0ebb be7a e9bb
00000140: 9426 35bb 35a0 af3d 6f20 543b 1a69 cabd
00000150: b86d aabd 19bc 84bc fe3d 61bd f1da 33bd
00000160: 2d8f 3cbd 8139 853c 6ff1 1eb7 521d 1bb7
00000170: 1076 c53c 4168 2cbe ce29 d83c 2b77 1cbd
00000180: 0b97 13be 43d7 a8bd 2b1d 703b e5a3 aaba
00000190: fe0c a7bd c5ab 4839 d6a1 34bc 7bbc 2c3d
000001a0: c416 d63b 00c2 dfbd 2065 fcbc c87e 1ebe
000001b0: 36d3 91bc c9ba c8bd 0524 00be 0560 aa37
000001c0: dfa6 93bc e879 70b9 4dd5 2fbc ae64 39bb
000001d0: ada9 e6bd a84f aebc a6d3 cdb9 45be e5bd
000001e0: dd7e 65ba d5fc dfbd df43 bb3d f4ab 5ebc
000001f0: d3a2 9ebb 4521 36bb 3171 ddbd 47a0 043b
00000200: 42c5 0000 1abb 273e e262 58bf 42c5 0000
00000210: a912 cdbf 42c5 0080 42c5 0000 c305 15be
00000220: 0dc5 d7be 42c5 0080 42c5 0000 9fdd 6abf
00000230: e35e d13e 42c5 0080 4919 143f 42c5 0000
00000240: c78d 223f 42c5 0080 0346 f43e 6bd6 92be
00000250: e4e1 b73c 88e3 a7be 42c5 0000 df7d 11bf
00000260: 3170 67bf 42c5 0080 fd5f 2abf 072b 713e
00000270: 0385 fc3e 3edf 4c3f 42c5 0080 048e a7be
00000280: 33e6 41bf 1403 1dbe fbed 0bbe f952 cf3d
00000290: 3e8a f83e 2693 0080 5aaf 383f 218a 2fbe
000002a0: 84de 043d 42c5 0000 6d0f 9f3f 42c5 0080
000002b0: dc1a 893e 7c9b a5be ec48 d63d 42c5 0080
000002c0: ac04 c8bd 421b 333e 64af 24bf 4514 143f
000002d0: 8187 0080 8127 0d3f 42c5 0080 42c5 0000
000002e0: b889 2f3e 4376 1dbc 42c5 0080 4b21 80bf
000002f0: 5675 8cbd 42c5 0000 4709 5bbf 9b00 29bf
00000300: 8843 babe 48f7 3d3f 752e c83e 4180 3ebe
00000310: 5312 0cbd 42c5 0000 4bad bcbe 8187 0000
00000320: c5b6 51bd 42c5 0000 42c5 0000 d641 403d
00000330: 6458 efbd 526a 00be f4c6 293f c20c 7abf
00000340: 42c5 0000 af5a 3d3f 31af 973e a9e5 df3e
00000350: 0982 05bf b444 b6bf c830 9e3e c71d 61be
00000360: 2934 933e dec1 15bf 42c5 0000 42c5 0080
00000370: 42c5 0000 8fc1 b0be 140e f13c e302 0fbf
00000380: 0d63 cdbe bf28 29c0 b968 803f 42c5 0080
00000390: ef71 483d 42c5 0000 4a46 13be c482 13bf
000003a0: c544 24bf 997d dfbc 54ca c5bc e60e f5be
000003b0: 42c5 0000 4596 41c0 a354 a9bf 42c5 0080
000003c0: 1336 003e 42c5 0000 d205 17bf 42c5 0000
000003d0: e10f 613f afaa babe 42c5 0000 892b 203f
000003e0: 42c5 0080 b958 04bf bd1c 0e3e 1ec2 33bf
000003f0: 9b7e a9bd 42c5 0080 f7ed 733e 8187 0000
0.0006465458 -0.042066585 -0.0911946 -0.0182184 -0.20614477 -0.036210597 0.0011417915 0.034062978
-0.054273278 0.0056892056 0.0006297909 -0.08624277 -0.07518999 0.00011993133 -0.07844021 0.0020848678
-0.097787276 1.6378555e-06 0.0105106095 -0.022124635 -0.14031336 -0.07315864 0.002316679 -0.019716496
-0.023000274 0.0003101897 0.021618234 -0.04805237 -0.10353867 -0.06479979 -0.0023036073 0.039754726
-0.17979497 -0.018360304 -0.00010570115 -0.13413231 -0.041038938 -0.07897876 0.06894078 0.0015211186
-0.016311573 -0.01550496 -0.08936192 -0.0020428794 -0.037800405 -0.16919649 -0.07575598 8.052841e-05
-0.060474105 -0.17310545 -0.005714983 -0.0614163 0.0012524886 -0.008345775 -3.736303e-07 -0.009446813
-0.0016707563 -0.12780227 0.0017109773 0.030586468 -0.055928115 0.00026492923 -0.12294564 -0.008806095
-0.10526234 0.009918794 -0.05291291 -0.13698928 -0.009972352 0.003166414 -0.03756201 -0.025878647
-0.07212949 -0.00090622075 4.4725784e-05 -0.04681367 -0.10744824 0.09183176 -0.0021801763 -0.0071252277
-0.0027641403 0.08575479 0.0032367965 -0.09883328 -0.083217084 -0.016202973 -0.05499076 -0.04390997
-0.04603498 0.016262772 -9.473747e-06 -9.245547e-06 0.024104148 -0.16836645 0.026387122 -0.038199585
-0.14413087 -0.08244183 0.003663848 -0.0013018815 -0.08156775 0.00019137475 -0.011024913 0.042171936
0.0065334756 -0.109256744 -0.030809939 -0.1547805 -0.017800909 -0.098012514 -0.1251374 2.0310292e-05
-0.018023906 -0.00022933597 -0.010732007 -0.002828877 -0.11262832 -0.021278217 -0.00039258337 -0.11217932
-0.0008754561 -0.10936896 0.09143805 -0.0135908015 -0.0048411875 -0.0027790826 -0.10812605 0.0020237134
7.0763e-41 0.16379967 -0.84525883 7.0763e-41 -1.602132 -7.0763e-41 7.0763e-41 -0.14552979
-0.42142525 -7.0763e-41 7.0763e-41 -0.91744417 0.40892705 -7.0763e-41 0.5785108 7.0763e-41
0.63497585 -7.0763e-41 0.47709665 -0.28679213 0.02244658 -0.3279078 7.0763e-41 -0.5683269
-0.90405566 -7.0763e-41 -0.66552716 0.2355157 0.4932023 0.8002814 -7.0763e-41 -0.32725537
-0.7574188 -0.15333205 -0.13665001 0.10123248 0.4854297 -5.2787e-41 0.72142565 -0.17142536
0.03243877 7.0763e-41 1.2426583 -7.0763e-41 0.26778305 -0.32345188 0.104631275 -7.0763e-41
-0.09766516 0.17490867 -0.64330125 0.5784343 -4.861e-41 0.55138403 -7.0763e-41 7.0763e-41
0.1714238 -0.009610715 -7.0763e-41 -1.001016 -0.068583176 7.0763e-41 -0.8556103 -0.6601655
-0.36379647 0.74205446 0.39097944 -0.18603612 -0.034197163 7.0763e-41 -0.36850962 4.861e-41
-0.051199693 7.0763e-41 7.0763e-41 0.046937786 -0.11686781 -0.12540558 0.66319203 -0.97675717
7.0763e-41 0.739665 0.29625848 0.43729904 -0.5215154 -1.4239717 0.30896592 -0.21984015
0.28750733 -0.5849894 7.0763e-41 -7.0763e-41 7.0763e-41 -0.34522673 0.029425658 -0.5586378
-0.40114632 -2.643112 1.0031959 -7.0763e-41 0.04893678 7.0763e-41 -0.14382282 -0.5762141
-0.64167434 -0.02728157 -0.02414433 -0.4786293 7.0763e-41 -3.0247967 -1.3228954 -7.0763e-41
0.12520628 7.0763e-41 -0.58993256 7.0763e-41 0.87914854 -0.36458346 7.0763e-41 0.6256643
-7.0763e-41 -0.5169788 0.1387815 -0.70218074 -0.08276101 -7.0763e-41 0.23821245 4.861e-41

lin3.bias f4 [128]
00000000: b2e8 1e3e 6fa7 3c3e 4385 e5bd 6d98 d3bd
00000010: 43bd 8ebd 9b92 2d3e 6125 d5bd d6f9 36be
00000020: cd30 ddbd 5140 8c3e 5118 d4bd 09e3 6cbd
00000030: 13e8 69bf a922 b4bd 9f34 97bd 1314 88bd
00000040: 9644 2cbe d769 ff3d 4319 fbbd b753 b43c
00000050: 1f3e 2f3e 85ed bbbd 5cb7 a73c 296e 1bbe
00000060: 2b0a fdbd 0bea 0bbe 6fb1 45bd 2165 cfbd
00000070: 2afd 703e de04 a6bd 0773 693d e54f 90bd
00000080: f8a9 fbbd 8457 f4be bcba 80bd 6674 0abf
00000090: f263 a2bd 089c 2e3e d34a b7bd d42f fcbd
000000a0: 6249 c7bd da2a d1bd 3dff c3bd dbb9 fd3b
000000b0: cc25 09be db3f f3bd 53ef 24bd b1fd f8bd
000000c0: 1e02 f1bc fbb7 f3bd 0027 97bd 81ef 133e
000000d0: 22b5 22bf ff82 523e a895 773e f3d4 52be
000000e0: 7b17 cabc 8d44 b8bc 2533 87bd 3da0 83bd
000000f0: c8f5 0fbe 92d4 fabd 0899 13bd d758 04be
00000100: 276f 8abd 43b3 febd b9f1 d1bd c788 3ebd
00000110: 6964 20be d3a5 483d e733 a3bd 93d7 aa3d
00000120: e71f 29bd b4fb 4c3d ce2a bdbd c640 7a3c
00000130: 1365 a5bd a388 d8bd f3f4 093e 7692 84bd
00000140: 6901 103e 0866 08be caf3 fbbd 8d69 10be
00000150: 38bd 26be 806f 063e e20d d2bd 3d7a dbbd
00000160: 8681 b7bd ee73 733d 90fd 5ebd e858 903e
00000170: fa2a 01be 37e4 a2be e767 c7bd a9f4 09bd
00000180: 1f94 17be 5dbb fabd 33d5 cfbd bdae 7bbd
00000190: b97e 25be 6963 01be 4389 1fbe c724 2ebe
000001a0: 6abc bdbd b394 b53c 21df afbc fd5a e1bd
000001b0: e313 02be dd13 07be e166 b0be ec62 7abd
000001c0: dad4 8fbe 800f acbc 1d8d 82bd 80dc c3be
000001d0: f0e3 0abe bc55 08be fe64 713c 1384 7d3e
000001e0: 16a3 f8bd 3804 99bd 9d28 46be f75d febd
000001f0: 9bb1 e93d 4a91 fcbd 4130 f7bc d40f 06be
0.15518454 0.18423246 -0.11207058 -0.10331807 -0.069696926 0.16950457 -0.1040752 -0.17868742
-0.10800324 0.2739282 -0.103562005 -0.057833705 -0.9136974 -0.087956734 -0.073830836 -0.06644454
-0.16823038 0.12471359 -0.12260678 0.022012575 0.17113541 -0.09176163 0.020473175 -0.15178742
-0.12355455 -0.13663499 -0.048264917 -0.10126711 0.23534074 -0.08106397 0.056994464 -0.07046489
-0.12288278 -0.4772302 -0.06285617 -0.5408386 -0.07929219 0.17051709 -0.089498185 -0.1231381
-0.097307935 -0.102132514 -0.09570167 0.007743103 -0.13393325 -0.11877414 -0.0402673 -0.12157763
-0.029419955 -0.11900326 -0.073804855 0.14446832 -0.63557637 0.20557784 0.24178183 -0.20589046
-0.0246694 -0.022493625 -0.06601552 -0.064270474 -0.14058602 -0.12247576 -0.036034614 -0.12924515
-0.06759482 -0.12436535 -0.10251183 -0.04651716 -0.15663303 0.048986267 -0.07968884 0.08341899
-0.04129019 0.05004473 -0.0923668 0.015274232 -0.08075919 -0.105729364 0.13472347 -0.06473248
0.14063038 -0.13320172 -0.123023584 -0.14102764 -0.16283119 0.13128471 -0.10256554 -0.107166745
-0.089602515 0.05943673 -0.054441035 0.2819283 -0.1261405 -0.3181474 -0.09736615 -0.03368059
-0.14802597 -0.12242768 -0.101480864 -0.06144594 -0.16161622 -0.12635578 -0.15579705 -0.17006217
-0.09264453 0.022165632 -0.0214687 -0.11003683 -0.12702899 -0.13191171 -0.3445349 -0.061129496
-0.2809208 -0.021003485 -0.063745715 -0.38254166 -0.13563514 -0.13313955 0.014733551 0.24757414
-0.12140481 -0.07471508 -0.1935143 -0.12420266 0.11410829 -0.12332399 -0.030174376 -0.13091975

lin3.parametrizations.weight.original0 f4 [128, 1]
00000000: 8c22 9a3f 4664 893f ba42 053f 2da4 0640
00000010: 3969 1d3f 72c6 d63f 2a78 093f 1c5d bd3f
00000020: 416f 033f 3c3b 713f d7d2 143f 8a18 2840
00000030: 1bfa aa3f 33aa f23e a6ca f73e bc6a e73f
00000040: 9f21 d33f 5ba1 f73f 5f46 e23f 0634 b73f
00000050: 1187 5c3f 5cf2 013f 3668 833f 8fb7 043f
00000060: ceec 0b3f f689 023f 023c 253f 124d 123f
00000070: b6c5 ac3f cf79 083f 605c db3f 6f96 103f
00000080: 9e97 f73f 3bbd ab3f 6978 123f bc9c 843f
00000090: 8155 153f 9817 ce3f 5064 0b3f c53b d33f
000000a0: 3b77 0f3f ae8d 033f 39e4 023f 9512 e33f
000000b0: 1d60 023f 7ab7 fa3e e809 193f a19e 063f
000000c0: bd20 1c3f 72cc 0c3f 4006 093f 80f1 fe3f
000000d0: edfb 933f 3bd9 c63f 1575 8a3f 45dd a53f
000000e0: cc8b f83e 5f49 1d3f db8f 1740 dc28 063f
000000f0: 0a10 833f df94 f33e 29f6 b83f 092c 043f
00000100: dfd0 0a3f c38e 033f 4ef8 063f 883c 033f
00000110: 1209 003f cd7a cf3f f103 953f 8e5b c93f
00000120: e61a 133f e156 d73f 6174 ec3e 4478 ce3f
00000130: 8407 033f ebc4 093f 18d5 953f 648e 043f
00000140: 62e4 793f cdb5 0a3f 9ee3 0c3f 9655 b83f
00000150: 9b97 f63e 60bb a33f 31a7 0a3f 3f0c 023f
00000160: 2448 f43e 493f c13f 5705 073f 9412 a13f
00000170: 1852 033f 9813 3540 d922 073f bb5e 9e3f
00000180: f140 183f 245f 093f 4336 033f 70c8 fe3e
00000190: 664d 053f cbd0 e13f c10c 0a3f f206 d73f
000001a0: 10f2 f13e e628 9b3f 3313 1f3f 0b5d 0c3f
000001b0: b36c 093f 068c 0b3f 10ce a13f 702c 0b3f
000001c0: d208 ef3f 9c46 1140 5009 093f 768d a83f
000001d0: 1d6b 063f 6593 a93f f27b da3f ac57 e43f
000001e0: a044 f63f 4480 a53f 6e06 ce3f 427b c83f
000001f0: 6387 0f40 e8da 0a3f f52d a13f aa2f 113f
1.2041793 1.0733726 0.5205494 2.1037705 0.6148868 1.6779311 0.5369898 1.479404
0.51341635 0.9423101 0.58134216 2.6264977 1.3357576 0.47395477 0.48396796 1.8079448
1.6494635 1.9346117 1.7677726 1.4312751 0.86143595 0.50760436 1.0266178 0.5184259
0.5465821 0.5099176 0.6454469 0.5714885 1.3497837 0.53310865 1.7137566 0.56479543
1.9343145 1.3417124 0.5721498 1.0360332 0.58333594 1.610095 0.5444994 1.6502615
0.56041306 0.5138806 0.5112949 1.7740046 0.5092791 0.48968107 0.5978074 0.525858
0.60987455 0.5499946 0.5352516 1.991745 1.1561257 1.5535043 1.0816981 1.2958151
0.48544157 0.6144008 2.3681552 0.52406096 1.023927 0.47574517 1.4450122 0.5162969
0.5422496 0.5138971 0.5272263 0.5126424 0.5001384 1.6209351 1.1641828 1.5731065
0.5746292 1.6823388 0.4618254 1.6130452 0.5118334 0.538161 1.1705656 0.5177977
0.9761411 0.54183656 0.55034816 1.4401119 0.4816254 1.2791557 0.54161364 0.50799936
0.4771129 1.5097438 0.5274252 1.2583795 0.5129714 2.829321 0.5278755 1.237266
0.5947409 0.536608 0.5125467 0.49762297 0.52071226 1.7641844 0.5392571 1.6798995
0.47254992 1.2121856 0.6213867 0.5482947 0.53681487 0.54510534 1.264101 0.5436468
1.8674567 2.2699347 0.53529835 1.316817 0.5250719 1.3248106 1.7069075 1.7839255
1.9239693 1.2929769 1.6095712 1.5662615 2.2426383 0.54240274 1.259215 0.56713355

lin3.parametrizations.weight.original1 f4 [128, 128]
00000000: 26b8 1100 4d3c 19bf 2619 143e 58a4 213f
00000010: b249 8a3e 65bf 123f 7b98 7ebf ca0b 9fbf
00000020: 32d2 1100 2926 413f d749 08bf ed6a eabd
00000030: 5eae 1100 4538 563c ab3f 243f e619 0100
00000040: a862 ebbe 7bc7 a43e b80f 0100 be93 84be
00000050: e572 86be 1cb4 423f e90b 083f c610 0280
00000060: 2302 e43d b5f4 5f3d b6d6 febe 9ec9 09be
00000070: f4ac 1180 c05e 9b3e d6d9 0ac0 04db dd3e
00000080: af1f 47bf 55e3 29a1 7b41 dabe fedd 80be
00000090: 7bc6 24bf 48e9 0ebf 740d 0180 6c52 ac3e
000000a0: c8fe 0100 ac37 993e 180c 0100 4407 e8bc
000000b0: f004 0180 202f eabe 2d13 0180 a488 1f3f
000000c0: 1656 0100 d0b0 8eb2 5b29 ddbe 6e8d 2b3e
000000d0: 66cd 1180 4312 79bc 34d3 3e3f 80b0 1100
000000e0: 6c13 0100 04f4 bbbe 8ccd 1100 865a bbbf
000000f0: ee87 7d3d 730a 0e3d 6c56 0180 e0d6 0b3e
00000100: a4d5 403e 60bd ffbe b099 65be d8d2 1180
00000110: 3dd6 9dbe f02a 0200 540d 0100 38c4 39bf
00000120: c086 58be 11a5 c73c 329f 473f fa27 6a3f
00000130: fc2b 0280 3172 ff3e 4013 c93e 2ae9 923e
00000140: c911 0d3d 1c37 7eb5 eab5 31bf 440c 0180
00000150: a456 0180 f602 0180 0795 38be 6165 cebe
00000160: 94e9 b0bd a73b 073f eaa8 b9be bc10 0100
00000170: 363b 0280 1a39 77bc a2b6 1100 ae3b 0200
00000180: f0b6 1100 78a6 643d 58b0 1180 278f af3d
00000190: 159e 65bb 913a 84be b80d 0100 cc02 373f
000001a0: e36c 133e ec6b d73e 8942 c13e a2d1 1100
000001b0: 28d3 d133 b418 0180 7994 69bf e0a3 22bf
000001c0: 2a3c 243f 7315 20bf 47a6 f2be 1787 fdbe
000001d0: 21ac f13d fc10 0100 c012 0100 9701 2c3e
000001e0: 0413 0180 c109 13be 5866 10bf 235b 253f
000001f0: 2f56 53a9 341a 0180 e294 0ab5 11bb aead
00000200: ce70 0380 2f19 11be f82b a7be de48 1fbe
00000210: 010b 12be 4ab9 0fbd bcdc 09be e63c bcbe
00000220: 9ea3 0700 7d61 abbd 7e30 d73c dd91 b33d
00000230: 9610 0900 a727 a7bc 64c4 2d3f 646f 0300
00000240: 64f0 8fbf 8a20 9bbf b030 0900 2546 d7be
00000250: aa8e bf3e 5c1f e3be ea45 ecbe 0c24 0980
00000260: ed02 bfbe 135d 0cbb e106 123f 3d5a 2cbc
00000270: 62a4 0780 e22c cbbe 4899 13c0 3351 113e
00000280: 368f 81bf eb2e 7222 8af0 db3d 45e8 04bf
00000290: d482 8cbf 4bf7 933e 2c77 0100 5da8 92bf
000002a0: 441a 0580 e246 b7be 9ea3 0780 6123 3f3d
000002b0: 9ea3 0700 438a 1e3f c857 0200 178d 62bf
000002c0: 9ea3 0700 8876 0180 cf9e 773f aeaa fb3e
000002d0: 8876 0180 ef33 0bbf 7a89 cfbe 9ea3 0700
000002e0: 646f 0300 d5b7 803f 2258 0200 30fd 9cbd
000002f0: a6c2 0ebf 06cc 03bf aaa4 0700 5265 ed3e
00000300: d004 52bf 131e 27be 9822 fbbd 11a3 0700
00000310: 5fa1 59be 1c77 0180 2c77 0180 24ff 853e
00000320: e15e e5bd d01a 913e bc91 703d b564 333e
00000330: b030 0980 e1fd 2fbe c777 8bbe 4b8f 323f
00000340: ea97 b8be 3877 0380 b8e7 3dbf 8876 0100
00000350: b030 0980 646f 0300 503a 603f d56b 50be
00000360: dbca 31bf 49bc 283e f6bd a8bf 2c77 0100
00000370: b030 0900 24ee 6d3e 9ea3 0780 f476 0180
00000380: 8406 0000 b59d 813e 9ea3 0700 e827 68bf
00000390: 53b0 8fbf 15bc 5abf 8971 0300 71ae 753d
000003a0: 8f3c 2d3f 6520 3abf b38a 633f 8876 0100
000003b0: 4d01 50b3 2c77 0180 99ba b5be 243b cdbe
000003c0: 3f71 86bc 04ad 78bf dd9a c2bd 2bf4 f23b
000003d0: f968 ddbf c462 9722 2c77 0100 4608 29bf
000003e0: 8876 0180 b1d4 71be 5f27 9bbf b861 1ebd
000003f0: 9049 dbab b030 0980 50e3 96b3 baa6 0700
1.627263e-39 -0.59857637 0.14462718 0.63141394 0.2700935 0.57323295 -0.99451417 -1.2425473
1.636607e-39 0.7544885 -0.5323767 -0.11446176 1.623755e-39 0.013074939 0.6415965 1.01126e-40
-0.45973706 0.32183442 9.7474e-41 -0.25893968 -0.26259533 0.76056075 0.53143173 -1.89688e-40
0.1113322 0.05467673 -0.49773186 -0.13455817 -1.623247e-39 0.30345726 -2.1695457 0.43331158
-0.7778272 -5.75603e-19 -0.42628083 -0.25169367 -0.6436536 -0.5582471 -9.6662e-41 0.33656633
1.83234e-40 0.29925287 9.6174e-41 -0.028323777 -9.3607e-41 -0.4573908 -9.8714e-41 0.6231787
1.22717e-40 -1.661138e-08 -0.43195614 0.1675317 -1.634887e-39 -0.015202108 0.7454102 1.62452e-39
9.8803e-41 -0.36709607 1.63494e-39 -1.4637 0.06189721 0.034677934 -1.22838e-40 0.13656187
0.18831497 -0.4994917 -0.22421908 -1.63684e-39 -0.30827513 1.99074e-40 9.6617e-41 -0.7256503
-0.21145153 0.024370702 0.7797729 0.9146725 -1.9945e-40 0.4989181 0.392725 0.28693515
0.03444079 -9.470257e-07 -0.69418204 -9.6236e-41 -1.22916e-40 -9.2898e-41 -0.180256 -0.4031172
-0.086383015 0.528254 -0.36261684 9.7839e-41 -2.04912e-40 -0.015089298 1.62672e-39 2.0508e-40
1.626829e-39 0.05582282 -1.624464e-39 0.08572226 -0.0035036851 -0.25825933 9.6757e-41 0.7148864
0.14397006 0.42074525 0.37746075 1.636406e-39 9.77073e-08 -1.00697e-40 -0.91242176 -0.63531303
0.64154303 -0.6253273 -0.47392485 -0.49517128 0.11800409 9.7928e-41 9.8562e-41 0.16797481
-9.8657e-41 -0.1435919 -0.56406164 0.6459219 -4.6926164e-14 -1.01235e-40 -5.162566e-07 -1.9864584e-11
-3.15973e-40 -0.14169763 -0.32650733 -0.1555514 -0.1426201 -0.035088815 -0.1346311 -0.36765212
7.01543e-40 -0.08368204 0.02626824 0.087680556 8.3247e-40 -0.02040465 0.67877793 3.15466e-40
-1.1245236 -1.2119305 8.43985e-40 -0.42045704 0.37413532 -0.44359863 -0.4614709 -8.3945e-40
-0.3730692 -0.0021417781 0.57041746 -0.010519561 -7.01818e-40 -0.3968268 -2.3062305 0.14191131
-1.012183 3.2821954e-18 0.107392386 -0.51916915 -1.0977426 0.28899607 1.34586e-40 -1.145763
-4.686e-40 -0.35796267 -7.01543e-40 0.0466646 7.01543e-40 0.6192972 2.15161e-40 -0.88496536
7.01543e-40 -1.34356e-40 0.967267 0.49153656 -1.34356e-40 -0.5437612 -0.40534574 7.01543e-40
3.15466e-40 1.0056101 2.15287e-40 -0.07665479 -0.5576576 -0.5148319 7.01919e-40 0.46366364
-0.82038593 -0.16320066 -0.122624576 7.01346e-40 -0.21252964 -1.34564e-40 -1.34586e-40 0.2617122
-0.11199737 0.2834077 0.058732733 0.17518885 -8.43985e-40 -0.17186691 -0.2723982 0.697499
-0.360534 -3.18274e-40 -0.741817 1.34356e-40 -8.43985e-40 3.15466e-40 0.8758898 -0.20353635
-0.6945016 0.16478075 -1.3182971 1.34586e-40 8.43985e-40 0.23235375 -7.01543e-40 -1.34508e-40
2.337e-42 0.25315633 7.01543e-40 -0.9068589 -1.1225685 -0.8544324 3.16235e-40 0.059980813
0.6767053 -0.7270568 0.88883513 1.34356e-40 -4.8429957e-08 -1.34586e-40 -0.35493925 -0.40084183
-0.016411422 -0.97139 -0.09502194 0.007414361 -1.729766 4.1033204e-18 1.34586e-40 -0.6602825
-1.34356e-40 -0.23616292 -1.212139 -0.03866741 -1.5581304e-12 -8.43985e-40 -7.026267e-08 7.02659e-40
