DeepSDFStruct/trained_models/test_experiment/ModelParameters/latest.pth (torch, 29449 bytes, 19 tensors)

lin0.bias f4 [32]
00000000: e322 de3d e1c8 b3be 4724 cb3e db8b f53e
00000010: 68fc b03e d74d d93e 9760 f63d 231d 5bbd
00000020: 819e 0c3e 1be2 663e fe3d dcbe e3a2 9cbe
00000030: 91fc b9bd 6e56 85be a640 5e3e 5de2 853e
00000040: e3a3 a13e b1fd 3f3d 5fa0 453e bb83 443c
00000050: e545 57be 694d bd3e 5c1c d6be 5c94 81be
00000060: 983d aabe d798 8a3d 8844 63be b54d b73e
00000070: d107 9c3e 8bf9 853e 085c c93e 92b8 003f
0.10846498 -0.35114196 0.39676115 0.47958264 0.3456757 0.424422 0.12030142 -0.053494584
0.1373234 0.2254719 -0.43016046 -0.30593023 -0.09081376 -0.26042503 0.21704349 0.26149264
0.31570348 0.0468728 0.19299458 0.011994298 -0.21022756 0.36973122 -0.4181851 -0.25308502
-0.33250117 0.06767433 -0.22194111 0.35801473 0.30474713 0.2616695 0.39328027 0.5028163

lin0.parametrizations.weight.original0 f4 [32, 1]
00000000: 210d 3c3f dc9d 0e3f d286 ae3e 2d38 293f
00000010: dfee c13e d32b 173f decc dc3e d827 1f3f
00000020: 9f91 c33e 208e 213f 40b7 2c3f a8bc 1f3f
00000030: 3c55 fb3e f7a0 583e 0d9c 123f 0fcf 343f
00000040: d393 ff3e 61c1 0c3f fdea 3d3f d880 313f
00000050: 5c75 413f 754b ff3e 61b6 273f e9c0 253f
00000060: ce56 1f3f c8b1 183f afd4 e83e 17cb 373f
00000070: 39d0 293f 07a5 453f 2dcb 273f 8dc9 913e
0.73457533 0.55709624 0.34087235 0.6610134 0.37877557 0.59051245 0.4312505 0.6217017
0.38197038 0.6310749 0.6746712 0.6239724 0.49088466 0.21155153 0.57269365 0.70628446
0.49917468 0.5498257 0.7418669 0.69337225 0.755697 0.49862257 0.65512663 0.6474748
0.6224183 0.5964627 0.45474765 0.71794266 0.6633335 0.77204937 0.65544397 0.28474084

lin0.parametrizations.weight.original1 f4 [32, 4]
00000000: 2609 5cbe 8b45 e03e b670 c8be e98b c43e
00000010: 3325 613d d6b0 8c3e 9a24 cfbc 87b6 f73e
00000020: ead2 b2bd 9fe5 a63e 12d8 b4bd 80d2 f2bc
00000030: 016b f63e c6c5 6e3e 4bb3 973e dbea 89be
00000040: 848b 923c 2f32 393e b42a 93be 945a 353e
00000050: 5925 5439 9670 413e 3afd e43e 1180 aebe
00000060: 1748 3bbd ac5b 52be d09d be3e 5c15 7d3d
00000070: 7f63 e83e 0544 10be e19a 923e bcb3 9cbe
00000080: 565b 853e cd28 c5bd 0e1b 1abe 0b2e 5b3e
00000090: 0094 02be 5ba0 80bd e30e e0be d30c d63e
000000a0: ad87 e03e 8cf6 f9be c18f c13d 0a7b d33d
000000b0: 79d9 023e b552 663e 3825 e9be 82ab a6be
000000c0: 4f9c a03e 7ad8 913e edd5 87be f25c 50bd
000000d0: a96f 4abd e2e4 e13c e841 9a3d 9a63 4f3e
000000e0: e4db 3fbe cc74 fd3e 684f adbd 72bf 3bbe
000000f0: 34bc 73be 52f0 b83e d22e 8ebe 5fd0 f1be
00000100: 33cf a73e 5f2d 02be 3cc7 823c b843 adbe
00000110: aabb d6be 7218 23be 1641 79be f8ab 52be
00000120: 5085 c53e 8f32 c63e b43c 8bbe 6b97 d2be
00000130: d113 c5be 0306 ff3e 748f 47be bee8 68be
00000140: f61c b5be b231 bbbe 970a d4be 15ae c7be
00000150: 2063 11bd f685 f1be 562e 23be b556 073d
00000160: 3a9a ea3e abf7 94bd 0cdf 99be 99e4 b13e
00000170: 0fb8 553e 4d3c 9dbd f30b c5be a899 ec3e
00000180: 833b e9be 0ecd b1be 11a9 143e 61e4 58be
00000190: 644e b7be 458e 06be 46d7 a9be d4cc 9abe
000001a0: 9960 60be fe29 c63e 03a5 f2bc 11b0 6abd
000001b0: 0de0 9e3e a5b3 86be d36f b5be a3b3 ea3e
000001c0: 2f23 c13e 2dc1 4bba 3dd2 9a3e 9158 ec3e
000001d0: 7eb1 f2be d723 7c3e 3dd0 923e 1cf0 f63e
000001e0: a96d de3e d9b7 b0bd a4ec e5be c5d8 243e
000001f0: 10da ed3d 19fa 49be 2c67 8bbd 4cda 103e
-0.21487865 0.43803057 -0.39148492 0.38387993 0.054967117 0.27478665 -0.025286008 0.48381445
-0.08731635 0.32597062 -0.08830275 -0.02964139 0.48128513 0.23317632 0.29628977 -0.26936993
0.017888792 0.1808555 -0.28743517 0.17710334 0.00020231809 0.18890604 0.44724447 -0.34082082
-0.045723047 -0.20542783 0.37229776 0.061787948 0.4538841 -0.14088447 0.28633788 -0.30605876
0.26046246 -0.09626923 -0.15049383 0.21404283 -0.1275177 -0.062805854 -0.43761358 0.4180666
0.43853512 -0.48820913 0.09451247 0.10326202 0.12778272 0.22492488 -0.45536208 -0.32552725
0.31369254 0.2848547 -0.265304 -0.05086989 -0.049422894 0.02757496 0.07532102 0.20252839
-0.18736225 0.4950317 -0.08462411 -0.1833475 -0.23802263 0.3612085 -0.27770096 -0.47229287
0.32775268 -0.1271262 0.015964143 -0.33840728 -0.4194005 -0.15927294 -0.24341235 -0.20573413
0.38578272 0.38710448 -0.2719475 -0.41131148 -0.3849168 0.49809274 -0.19488317 -0.22745034
-0.35373658 -0.36561352 -0.4141433 -0.39000002 -0.035494924 -0.47172517 -0.15935645 0.033041675
0.4582079 -0.072738014 -0.30052984 0.3474472 0.20870994 -0.07677517 -0.3848568 0.4621098
-0.45553216 -0.34726757 0.14517619 -0.2118087 -0.35801995 -0.13140209 -0.33172053 -0.30234396
-0.21911849 0.38703912 -0.0296197 -0.057296816 0.31030312 -0.26308933 -0.35436878 0.45840177
0.37722155 -0.0007772621 0.30238524 0.4616132 -0.4740104 0.24623047 0.28674498 0.48230064
0.4344304 -0.08628816 -0.44907105 0.16098316 0.11613858 -0.19724311 -0.06806788 0.14145774

lin1.bias f4 [28]
00000000: 0d34 6a3d 0374 cf3d c075 f53d b018 9b3d
00000010: 5b87 9dbd 4e1b 47bd 7081 11be 9cef aabd
00000020: ea5e e03d fc44 3dbd ec69 14be 594e 953d
00000030: fe3a b3bc c4e5 e9bd 97de c93d 3cb8 db3d
00000040: 1e57 93bd a3d9 20be 4b1f 243e 6e22 ef3d
00000050: ffa6 69bc ab60 de3d a723 903d 6b1f 8639
00000060: ae3e 0e3e bb92 1abd 6808 34be daa0 0c3e
0.057178546 0.10129549 0.1198535 0.07573068 -0.07691833 -0.048610024 -0.14209533 -0.08346483
0.109556034 -0.046208367 -0.14493531 0.07290334 -0.021878716 -0.114207774 0.09856909 0.10728499
-0.07194351 -0.15708022 0.16027562 0.11676489 -0.014261006 0.10858282 0.0703805 0.0002558188
0.13891098 -0.03773759 -0.17581332 0.13733235

lin1.parametrizations.weight.original0 f4 [28, 1]
00000000: 06aa 013f fbde 073f 83e9 0a3f 1a91 193f
00000010: 7502 143f 1363 0d3f a150 183f c245 203f
00000020: 810c 183f d3c8 203f 5c51 023f 3800 123f
00000030: bb09 183f 664c 173f dd84 1b3f 9261 1a3f
00000040: e7a4 2e3f 6728 133f 7f48 1b3f 18a7 113f
00000050: cccd 213f 0215 133f 52d6 213f cae2 213f
00000060: d97a 0d3f ea07 0c3f 7581 133f ba3a 053f
0.5065006 0.53074616 0.5426256 0.5998703 0.5781625 0.552293 0.5949803 0.6260644
0.5939408 0.62806433 0.50905395 0.57031584 0.5938985 0.5910095 0.6074961 0.6030513
0.6822037 0.57483524 0.60657495 0.5689559 0.63204646 0.5745393 0.6321765 0.6323668
0.55265576 0.54699576 0.5761941 0.52042735

lin1.parametrizations.weight.original1 f4 [28, 32]
00000000: f4a9 31be 8a41 e0bd 8c1d 79bc ee81 a2bd
00000010: 5205 073e 1426 24be 75d0 dcbb 83f0 fd3b
00000020: a3a3 c6bd dbc7 acbd 1e74 e13d 9a22 043d
00000030: a08b 09be e9cc e5bd 10ba 0fbc f257 80bc
00000040: 96f5 b7bd 76f8 123e 0697 923d 2acd b23d
00000050: bc8d 18bd 585f 6c3d 114a 2abd 116e 723d
00000060: 2296 a93d ca68 67bd 179f 8f3d 4894 023e
00000070: 2b68 f8bc 42c0 fe3d cbf9 9a3d 3776 7d3b
00000080: 15b9 0f3d 6489 2a3e bdd7 7fbd e2fa 9c3d
00000090: 261f cbbd 0210 f6bd 3a88 1cbd fc80 e23c
000000a0: 1a8d 32bd 6519 7b3d 430d c03c 555a e43d
000000b0: 016b c2bd 330d 80bd 832d a6bd ce4e 233e
000000c0: 8a29 06be 2dc7 6d3a 8beb 0dbe 8fcf 8c3c
000000d0: 3979 e23d 977f 86bd 29db 1abe 99f4 063e
000000e0: 0618 9abd 53f9 87bd 41c8 38bd 8b15 b3bb
000000f0: fedf cdbd b729 873d 2633 2cbe e34f 43bd
00000100: 78b6 203c 933f 89bd 5913 c3bc 72e3 763c
00000110: b092 16be 609d 7f3d 58d5 a4bc eae5 01bd
00000120: 09ae 12be 12d2 f43d f746 b2bd 68ab 83bd
00000130: f02a 163d 1c2e 9abc b7e5 003e 4c72 16be
00000140: caf9 91bd dc8e 1cbb 84d7 ea3b 5318 d23d
00000150: 28a1 15be 6d99 30be 1ee3 d63d affe 043e
00000160: 6822 273e 22a9 503c 7d3e a73d d342 1a3d
00000170: 3745 e03d ba42 73bd 7ce5 adbb b7ca 17be
00000180: 1cf4 86bd 0292 1cbe 5968 2fbd 3cfc a4bd
00000190: 889b ce3d f781 253e 5185 c43a 1043 403d
000001a0: 9337 0bbd 3f8d 413d 53e8 04be a29c 1dbd
000001b0: 06e8 f83c 6446 c13b aace 973d a5dd bb3d
000001c0: d4c1 a03d 86ea cabc 5f04 173e 97c5 013e
000001d0: fd11 bc3d fe70 113e c6ae 083e a3d2 0d3e
000001e0: 60ec 103e 9a95 9d3d 0d65 25be bf83 373d
000001f0: 3903 a9bd 53d5 183e 5e6b 22be ce87 03be
00000200: 487f 32be 83bc b23d 5a41 243e 1248 a03c
00000210: b806 2b3e a668 a63d a8fc 17be 338a 34ba
00000220: 7fff c0bc b42a f6bd b100 fb3d 9ac4 cebd
00000230: 4dff abbd 060e 31be 55c4 0a3e 7a80 8d3d
00000240: 5a33 0fbc 0e9d 173d 20f2 1e3e 20c4 f73d
00000250: a89c 833d f7f4 8cbd 411d 8a3c e05e ccbd
00000260: eace 33bd 6981 4abd 21b3 743d 4ea2 213d
00000270: 076b a53d f05d 2c3e 6bbf 0ebe 9d86 d7bd
00000280: 2de3 c0bd 83a5 87bc 16ae 4dbc cb47 d53d
00000290: 6290 b03d 382f b5bd 8322 dabd ab10 27bd
000002a0: e4a3 c4bc 1279 ebbd e268 203e 7729 29be
000002b0: e22c 01be 3f53 cabd 1186 c0bd 5f00 c3bd
000002c0: 0687 183e 1c40 853d 488b 013d 4353 463d
000002d0: 1151 1c3e 4ac7 ac3d fc7a 163e 16e2 c8bc
000002e0: ba76 e63d b302 573d f62a 0fbe 26ee e73c
000002f0: 2b2f 69bd 6b30 98bd a0aa cdbd 3902 4b3d
00000300: 3b7b f73d 4664 3c3e a0dc c83d b052 bfba
00000310: 3514 1ebd 07ab c6bd ad28 2a3e 5e07 b7bc
00000320: 0d06 df3d 2e26 0fbe a54f 393e 1407 2dbe
00000330: 2e80 283d e454 b93d c5c7 0b3e 4a2b 6ebc
00000340: 7930 9fbc 38c6 da3c 1f6f 10be 3c04 9b3d
00000350: 848b 8f3d 9472 87bd 5ee8 31be d078 00be
00000360: 620e 383d c491 a7bc 8fb6 33be a9ac 073d
00000370: 0199 d4bd d5da c23d 62f2 34bd 7fc8 ec3d
00000380: 3940 19be f170 053b eb42 18be a054 d3bc
00000390: 73c9 ebbd c568 2fbe f7d7 15be e955 64bc
000003a0: f8dd 08bd 9501 24be bd6c a2bc bbdb 1abe
000003b0: 4330 2d3e 72fd 113d a912 323e 4abe 58bd
000003c0: c19e c63d 4952 05be c21a 963d d172 33be
000003d0: c75f 1b3e 68a9 d8bd 2e24 c9bd d128 893d
000003e0: b7cb 3ebd 018c b2bd 8509 4ebd 9387 183e
000003f0: b023 f0bd 3954 d9bd d3be fabc 139e f13d
-0.17349988 -0.109500006 -0.015204798 -0.07934938 0.13185623 -0.1603015 -0.006738717 0.0077496185
-0.0969918 -0.08436557 0.11008476 0.03225956 -0.13432169 -0.11220724 -0.008772388 -0.015666936
-0.08982389 0.14352593 0.07157712 0.08730538 -0.037244543 0.057708114 -0.04157454 0.059187
0.08280589 -0.05649642 0.07012766 0.12751877 -0.030323109 0.12439014 0.075671755 0.0038675198
0.035088617 0.16653973 -0.062461603 0.076650396 -0.099180505 -0.12014772 -0.038215853 0.027649395
-0.043591596 0.061303515 0.023443824 0.11150042 -0.094930656 -0.062525176 -0.081141494 0.1594803
-0.13101783 0.0009070512 -0.13859384 0.017188815 0.11058278 -0.065673046 -0.15122665 0.13179244
-0.07524113 -0.06639352 -0.045112852 -0.0054652146 -0.10052489 0.06599753 -0.16816387 -0.047683608
0.009809129 -0.06701579 -0.023812937 0.015068876 -0.14704394 0.062405944 -0.020121261 -0.031713404
-0.14324202 0.1195413 -0.08704942 -0.064291775 0.036662042 -0.018820815 0.1258763 -0.14692038
-0.071277216 -0.0023888862 0.0071668047 0.10258546 -0.14612257 -0.17246027 0.10492538 0.12987779
0.16321719 0.012735637 0.081662156 0.037661385 0.10950702 -0.059389807 -0.0053068977 -0.14823423
-0.06589529 -0.15290073 -0.042824123 -0.080559224 0.10088259 0.16162859 0.0014993345 0.046938956
-0.033988547 0.047253843 -0.1297925 -0.038479455 0.030384075 0.005898284 0.07412465 0.09173135
0.0784947 -0.024770033 0.14747761 0.12673031 0.091831185 0.1420326 0.13347921 0.13849883
0.1415267 0.0769455 -0.16151829 0.044803377 -0.08252568 0.14925127 -0.1586127 -0.12844774
-0.17431366 0.08727362 0.16040555 0.019565616 0.16701782 0.08125429 -0.14842474 -0.00068870484
-0.02355933 -0.12019864 0.12255991 -0.100960925 -0.08398304 -0.17290506 0.13551457 0.069092706
-0.0087402705 0.037015013 0.15522051 0.12097955 0.06426364 -0.06882661 0.016859652 -0.099790335
-0.0438985 -0.04943982 0.059741143 0.039461426 0.080770545 0.1683271 -0.13940208 -0.10523722
-0.0941833 -0.016558414 -0.012553712 0.10414084 0.08621289 -0.08846897 -0.10651114 -0.04078738
-0.02400393 -0.11497702 0.1566501 -0.16519724 -0.12614778 -0.09879159 -0.09400571 -0.09521555
0.14895257 0.065063685 0.03162697 0.04841925 0.152653 0.08436449 0.14695352 -0.024521869
0.11253114 0.05249281 -0.13981232 0.0283118 -0.05692975 -0.0743111 -0.1004231 0.049562667
0.12084051 0.18397626 0.09807706 -0.0014596786 -0.03859349 -0.097005896 0.16617079 -0.02234238
0.10889826 -0.13979408 0.18096788 -0.16897231 0.041137867 0.09049395 0.13650425 -0.014536688
-0.019432293 0.026705846 -0.1410489 0.07569167 0.07009032 -0.06613651 -0.17373797 -0.12546086
0.04493559 -0.020455249 -0.1755011 0.033123646 -0.10380746 0.09514395 -0.044176467 0.11561679
-0.14965905 0.0020361508 -0.14869277 -0.025797188 -0.11513033 -0.1712981 -0.14633165 -0.013936498
-0.03341481 -0.16016228 -0.019827241 -0.15122883 0.16912942 0.035642095 0.17389931 -0.05291585
0.09698249 -0.1301967 0.073293224 -0.17524268 0.15173255 -0.10579187 -0.09821354 0.06697238
-0.046580996 -0.0871811 -0.050302047 0.14895467 -0.11725557 -0.10611767 -0.03060857 0.117977284

lin2.bias f4 [32]
00000000: 2430 f8bd 62a0 10be 692d b73d 6da1 19be
00000010: 8544 eebd 9f9a 223e 53e2 b8bd d7e4 11be
00000020: 5af7 c63d 5155 4b3c 51c5 c5bd 7d3c 15be
00000030: c543 a63d 8e7d dbbd b298 283e cc4d 923d
00000040: 1181 24be bcb5 14be 6bf5 4d3d 8b64 1e3c
00000050: 4f51 1bbe 18ba b1bd 32ba 05be 439c 38bc
00000060: 8b8c b2bc 22cb d8bd 304a 063e 694b 65bd
00000070: 03fe 1b3e 56f7 ec3d 1f45 fabd 3440 04be
-0.12118557 -0.14123681 0.08944208 -0.15002985 -0.11634163 0.15879296 -0.09027543 -0.14247452
0.09715147 0.012410478 -0.09656776 -0.14573856 0.08118395 -0.10717307 0.16464499 0.07143745
-0.1606486 -0.14522451 0.050282877 0.009667526 -0.15167736 -0.08678073 -0.13059309 -0.011267724
-0.021795532 -0.105856195 0.13114238 -0.05598012 0.15233617 0.11570613 -0.12220215 -0.12915117

lin2.parametrizations.weight.original0 f4 [32, 1]
00000000: a11f 0f3f 90da 0b3f 620f 283f fb41 0d3f
00000010: 5ffe 093f 6bb0 1a3f 30bd 103f 799c 133f
00000020: 57a0 0c3f 717b 113f 291b 0b3f 9f88 203f
00000030: 0489 1a3f 4cb1 183f 4fd8 173f 4401 183f
00000040: 85ed 1a3f 194c 0d3f afab 0a3f e0f9 f53e
00000050: f0a9 033f 6b5a 0f3f 4206 133f 78f4 083f
00000060: 5748 0c3f 429c 333f 114f f23e 33ca 113f
00000070: f14d 153f 55de 083f 1843 0a3f 0455 153f
0.55907637 0.54630375 0.6564847 0.55178803 0.53903764 0.6042544 0.5653868 0.57660633
0.5493216 0.5682898 0.5433832 0.6270847 0.6036532 0.59645534 0.59314436 0.5937693
0.60518676 0.5519424 0.5416822 0.48042202 0.5143118 0.5599734 0.57431424 0.5349803
0.5479788 0.70160306 0.47325948 0.56949157 0.58322054 0.5346425 0.54008627 0.5833285

lin2.parametrizations.weight.original1 f4 [32, 32]
00000000: 84ac 0c3e 43ae d03d 7999 a8bd 0a24 89bc
00000010: 084c 053e f63b 01be 7dbb a7bd 8137 7cbc
00000020: 0a69 ddbd 6de7 3ebd 30b5 e13c c378 d4bd
00000030: db71 eabd 8222 5e3d 6eaf ba3b 14b4 2fbd
00000040: 1787 e33d 69c5 043e 1c07 063e fc1e a2bd
00000050: b0ca 34be f5cc 043e cee5 c6bc c029 10bc
00000060: d3b1 25bd 18a9 0a3e f320 2b3e 5b29 0e3e
00000070: 38c6 903d 7dd2 db3c 1aef 963c e1b9 2d3e
00000080: c058 fcbd 60db 393e 340b 803d 8d58 49bc
00000090: f557 7d3c ba3a f6bd 0c49 d1bd 6237 c43d
000000a0: 7037 d3bd 1854 f23d ff8c 353e 1416 223e
000000b0: eadb 4c3b 6dd3 ab3d ed64 1e3d 1852 92bd
000000c0: 0c19 24be 5d85 8fbd d0b2 adbb 6cc8 023d
000000d0: 28b0 54bd 9ee8 903d 1372 9dbd b510 c2bb
000000e0: f1fc a0bd 009e 26be f786 333e 0041 c1bd
000000f0: be07 0ebe 04cf dd3b 945c 823d 956b b8bb
00000100: ebea 26be d32e da3d 8854 473d 338f 213e
00000110: f7aa 84bd 3246 adbd c8bc 043e 59fd 25be
00000120: 4090 17be 3cdb 29be f0e6 dcbd 6a44 34be
00000130: 4f1b db3c c75a 353e abd5 fe3d 1b6d 853d
00000140: f99a 6b3b 066b fe3d 89ef 263e 409c 1dbc
00000150: f97f 1ebe c9af 273b a746 a23c 5add 2abd
00000160: 864c 3d3e 5208 073e 9bcb c13d 1ce2 bbbb
00000170: 2d7a 00be 4c3d c43d 248f 02be a8fe 233e
00000180: bf99 87bd 83d6 823d 560c 25be de68 863d
00000190: f85d fbbd 380c b93c 3e14 f2bd b75e ecbd
000001a0: d581 ac3d 6b45 9f3d 6ca1 623d 2790 1e3d
000001b0: 2773 8bbd a576 813c 3858 7bbd 772e a4bd
000001c0: 5e49 2c3d bf15 0dbe 2f26 5dbc 04e1 a1bd
000001d0: a898 983d 46ca 9e3d 9e2f dd3d 35c4 f73d
000001e0: b51d cdbd 0330 223e c378 a83d 4150 233e
000001f0: b8c2 24be 7e72 f03c 61e4 19bd 97d1 6bbd
00000200: 9306 153d b4b8 743d b3b1 df3d cb96 18be
00000210: b795 ccbd d054 833d 6740 2b3e 0276 193b
00000220: 8305 023d 0f07 ce3d 2701 a6bd 0a94 183e
00000230: 76e3 9f3d 6073 ca3d 7015 083c 4991 c03d
00000240: e0ad 983d f1a8 763d 6d8b 2dbe f945 813d
00000250: e92e 2fbc 1c07 303d d2cf 393d 9f1e 1fbe
00000260: 58b7 f1bd b9ca c03c 61a4 b2bd 4e24 9f3d
00000270: 4d67 2abe 25a8 203e 4e61 fe3b 8139 cabd
00000280: 517b debc b7d9 1cbe 3c3b ccbc 2b57 42bd
00000290: 3334 2fbc 0413 023e 367c 133e 8e8c 183e
000002a0: 13a0 923b 0fef c53c 87b1 46bd 2dc4 0bbe
000002b0: 47df ed3b 0c24 22be e28d 153e 9c4a 24be
000002c0: cfe9 b7bd 0ee3 00be 12fb 7539 f12d 18be
000002d0: 7fc8 ee3d 80fd db3d 9895 bcbc dbf0 e03d
000002e0: 61f0 6f3c 5fe7 2c3d b950 4f3c 88d3 ac3d
000002f0: 90e1 ef3d faf9 dcbd 0b3c cbbd cbc5 323e
00000300: 0e43 cd3d 4872 fa3d 44c4 883d 2659 123e
00000310: 2920 69bd 87a7 00be 0174 1c3d 3e53 09bc
00000320: c425 24be 03ab 583d a8f4 873d f6e7 84bc
00000330: 1b10 153e 9b90 f8bd 7632 c1ba efe9 bbbd
00000340: d471 2d3e 5e8f c9bd 1d08 6d3c fa8e ecbd
00000350: 3d0f 15be a22f 68bd 3e4b 8abd 9ebe 203d
00000360: a913 933c 0fe7 7cbd adb5 17be ab59 21be
00000370: 794b b4bd 0e7a f1bc eca1 05be c2db ebbd
00000380: b258 673c ac6d 0ebe 8f4c 21bd 7d89 153e
00000390: d01a 353d 3e9f 30be 3fa5 e7bd 61db d73b
000003a0: ca52 5fbd 5785 08be c4b7 d33b 95b7 9bbd
000003b0: 9ab6 263e bc17 cbbc 3c5f 753c e552 1f3e
000003c0: 2ba1 103e 6a75 743d 8fc1 40bb ab96 01be
000003d0: f25c 353e d0c5 913c 534f cc3d 1c4c 823d
000003e0: d239 75bd 6812 1abd b026 82bd dca8 043e
000003f0: 86aa 2b3e 3634 f4bc 9bc8 ccbb 5a97 cebd
0.13737684 0.10189488 -0.082323976 -0.016740818 0.13017285 -0.1262053 -0.081900574 -0.015394093
-0.1081105 -0.046607424 0.027552217 -0.10374596 -0.114474975 0.054232128 0.0056971824 -0.042896345
0.11109751 0.12965931 0.1308865 -0.07916066 -0.17655444 0.1296881 -0.024279501 -0.0087990165
-0.04045279 0.13541067 0.16711788 0.13882963 0.07069057 0.026833767 0.01842456 0.16965438
-0.12321615 0.18150091 0.06252137 -0.012289179 0.015462865 -0.1202292 -0.10219011 0.09580876
-0.10313308 0.11832446 0.17729567 0.15828735 0.0031259009 0.08389936 0.03867047 -0.071445644
-0.1602518 -0.07007859 -0.005300857 0.03192942 -0.05192581 0.07075618 -0.076877736 -0.005922402
-0.07860745 -0.1627121 0.17531954 -0.09436226 -0.13870141 0.006769063 0.06365314 -0.005628059
-0.16300552 0.10653462 0.0486646 0.15777282 -0.064779215 -0.08460654 0.1296264 -0.16209926
-0.14801121 -0.16587538 -0.10786235 -0.17604223 0.02674642 0.1771041 0.12443098 0.06514951
0.0035950525 0.12422757 0.16302313 -0.009619772 -0.15478505 0.0025586954 0.01980908 -0.041715004
0.18486223 0.13186768 0.09462663 -0.0057337414 -0.12546606 0.09582004 -0.12749916 0.16015112
-0.066211216 0.06388571 -0.16117987 0.065629706 -0.122737825 0.022588834 -0.11820267 -0.11541503
0.08423201 0.07776912 0.055329725 0.038711693 -0.06809073 0.015803644 -0.06136343 -0.08016675
0.042062156 -0.13777827 -0.013497873 -0.079042464 0.07450992 0.07753424 0.10800098 0.120979704
-0.10015432 0.15838628 0.082261585 0.15948583 -0.16089904 0.02935147 -0.037571315 -0.057572927
0.036383223 0.05974646 0.10922565 -0.14901273 -0.09989493 0.06412661 0.16723786 0.0023416285
0.031743538 0.1005994 -0.081056885 0.14900222 0.078070566 0.09885287 0.008305892 0.09402711
0.07455039 0.06021971 -0.16947718 0.06312174 -0.010692337 0.04297553 0.04536421 -0.15539025
-0.11802548 0.023534166 -0.08722759 0.077705964 -0.16640969 0.15689142 0.0077630645 -0.09874249
-0.027158411 -0.15317427 -0.024930589 -0.04744641 -0.010693598 0.12702566 0.14402851 0.14897367
0.0044746487 0.024161844 -0.048509147 -0.13649054 0.0072592827 -0.15834063 0.14604905 -0.16044086
-0.08980142 -0.12586614 0.00023458552 -0.14861275 0.11659335 0.10741711 -0.02302055 0.109834395
0.014644713 0.04221284 0.012653523 0.08438784 0.117129445 -0.10789867 -0.09923562 0.17458265
0.10022555 0.12228829 0.0667806 0.1429182 -0.056915436 -0.12563907 0.038196567 -0.008381663
-0.16030031 0.052897464 0.06638461 -0.016223889 0.14556925 -0.12136956 -0.001473977 -0.09175479
0.16937953 -0.09841798 0.014467266 -0.11550708 -0.14556594 -0.05668605 -0.067526326 0.039244287
0.01795371 -0.061743792 -0.14815398 -0.15756862 -0.08803458 -0.029477146 -0.1305005 -0.11516525
0.014120268 -0.13909024 -0.039379653 0.14603229 0.044215024 -0.17248246 -0.11310815 0.0065874313
-0.054522313 -0.13332115 0.0064611156 -0.07603375 0.16280594 -0.02479159 0.014976319 0.15558966
0.1412398 0.059682287 -0.0029412245 -0.12655132 0.17711237 0.01779452 0.099760674 0.06362173
-0.059869595 -0.03761521 -0.06355035 0.1295504 0.16764268 -0.029810052 -0.0062495 -0.10087462

lin3.bias f4 [32]
00000000: cbf4 e8bd 096e 003e 9456 bbbd 018d 2b3c
00000010: ed48 1a3c 0ffc 0ebd f625 a7bd 04fb 293e
00000020: 8a36 8a3d cbd1 1e3e 3f4f 143e 7e1c b13d
00000030: e521 323c dd80 96bd e871 90bd 90ac c73d
00000040: 909a 263b 7d4c 8cbc 2b2d d6bd d036 2e3e
00000050: 467e 9e3b 4a94 203d 45c8 11be 3b23 1cbe
00000060: 0ff8 06be d8cb 1b3e 8c70 fa3c 5cac 1d3e
00000070: 3493 71bd 5d4e b5bd 404f 7fbc 9b1c e93c
-0.113748156 0.12541975 -0.09147373 0.01047063 0.009416801 -0.03490835 -0.08161537 0.16599661
0.06748684 0.15509717 0.14483355 0.086480126 0.010872339 -0.073487975 -0.07052976 0.097497106
0.0025421716 -0.017126316 -0.10457834 0.17013097 0.0048368303 0.03920392 -0.14236553 -0.15247814
-0.13180564 0.15214479 0.030571245 0.15397781 -0.058978274 -0.08852837 -0.0155828595 0.028456023

lin3.parametrizations.weight.original0 f4 [32, 1]
00000000: 2ef3 303f 2593 1b3f c841 1b3f d5ae 193f
00000010: dd42 213f 406c 083f ad5d 273f 8776 173f
00000020: 56d8 0d3f cd50 093f f967 073f 86c1 1d3f
00000030: fbf5 263f befb 1e3f 46f9 1f3f fd66 0d3f
00000040: c2a4 113f c48a 073f df6f 1b3f a28e 283f
00000050: 9e01 fd3e 0c37 063f 6f54 1b3f 75c6 f73e
00000060: 9ec5 0e3f a2d1 153f e5f0 123f 71c8 223f
00000070: d10d 1f3f be5a 203f 4b61 173f cac4 0d3f
0.6912106 0.607714 0.6064725 0.600324 0.6299265 0.53290176 0.6537731 0.59165233
0.5540823 0.5363892 0.52893025 0.6162342 0.65219086 0.6210288 0.62489736 0.5523527
0.56892025 0.52946115 0.60717577 0.6584264 0.49415296 0.52427745 0.6067571 0.48393598
0.5577029 0.58523 0.57398826 0.635871 0.6213046 0.6263846 0.5913283 0.553784

lin3.parametrizations.weight.original1 f4 [32, 32]
00000000: 8611 19be cca7 683c eb07 5cbb 43ef 07be
00000010: 4128 ce3d 00a6 b4bd a030 debc 3ac7 fbbd
00000020: 41f3 053e 8531 0f3e 4d2f 14be 3738 84bd
00000030: f161 12be bf62 2bbe a9aa 153e 5964 0e3e
00000040: 1b93 33be b38a cebd a7a8 e83d 8e40 143e
00000050: 1507 15be b608 1c3e 1d68 893c 67de d0bd
00000060: 5a50 173e a366 20be ef87 f9bd 2fbe febd
00000070: b9c7 24be f655 833d 695d 1b3d 6a7e 11bc
00000080: 74f7 163e 30db 363d 2dde a83c 2d2a e8bc
00000090: 47bf 09bd a8c7 c93c d173 f8bd eb39 52bd
000000a0: f14a 923d 2da8 543c ff08 12be e1f1 203e
000000b0: 9a82 bf3d f2c2 23be 8dd9 c8bd 25ae 253d
000000c0: 2cef e63d d8af e13d 3ed4 a1bc 7b16 093e
000000d0: a0c1 343d 6a1d 983d c2cc af3d fd3d 17be
000000e0: 1713 7dbd 18c1 f4bd e373 343e 56e1 88bd
000000f0: 2cb0 3a3e 6d3b 093e 2709 01be 91ce 43bd
00000100: 56d2 033e c564 f5bd 953e a1bd 3740 e43d
00000110: 507b ce3d 664a 273d 74d6 e83d 5c2e e3bd
00000120: 6f6d d7bd 9e45 a13d 7cc8 353e 9db0 febd
00000130: aa2f 21be 48a1 ec3d 4e16 0fbe ca84 08bd
00000140: 6873 ee3d 10c9 d83d c199 13bd b912 e63d
00000150: 85e1 fcbc face 1c3e 5dd9 023d 8c8a 243c
00000160: 21ca 133e 904d a03c 2419 1bbe c0c3 943d
00000170: 9221 23be e6fa 00be 2916 52bc 7e32 c93d
00000180: ad30 92bd 10aa 07be e400 c2bd 7715 d1bd
00000190: 7824 aa3d 85f6 1bbe 8cc5 fc3c 1d7a abbd
000001a0: 5cfe 8c3d 6632 15be 4cea bb3d 7593 103e
000001b0: 8cb8 0e3e 4da2 05be 64f1 9ebc 41e5 253e
000001c0: ef5f fabd f7b7 6cbd 279d dc3d 34f4 d93d
000001d0: 970c 1e3e 575e 38bc ecfc b43d 737c 99bd
000001e0: ebbe d1bd b62a 15be 4119 a7bd 7cce c03d
000001f0: f0b4 103b c3d7 a5bd fca5 36be f2f2 79bc
00000200: b247 bab9 5722 d63d bbfc 0cbe e7e7 0d3e
00000210: e547 8fbd 0f1d 893d 706f 01be 3116 273e
00000220: 1832 153e 3542 2f3e 4b62 2dbe 9fd0 f93d
00000230: 0629 21bc b2ce 21be 6f86 893d 87e2 f3bd
00000240: d89e be3c 95b7 f1bc 20b2 e73d 6b62 0abe
00000250: 3dbb 00be 6df7 08bd 78fe bebd c5f2 0fbc
00000260: 0e74 0e3e e0bf 42bd 1785 183e 8ab4 11bd
00000270: ea95 c63d 70df 923d d290 16be 7356 fa3d
00000280: 487a 27be 8198 b4bd e429 d13d 7138 c5bb
00000290: 7859 903c 2198 d9bd d512 8c3c cbf0 b73d
000002a0: 6ac8 8cbd 1666 a13d 1876 67bd 822a 08bd
000002b0: c0de 2335 7cce 51bc 8008 4dbc 2073 073d
000002c0: 50ec 0abe 22e0 63bd 88fa 223d 86ed 15be
000002d0: be60 133d 3232 03be 2591 ad3c ddb0 0a3e
000002e0: 2513 e7bd b18b 17be 3bc0 513d f204 373e
000002f0: 8f1f 083e 3818 903d 0fdd b7bd dd22 2f3e
00000300: 930c 54bd e336 b7bd 9dc6 f43c f80a 14be
00000310: fd33 1f3e 23fc adbd 4823 a53d ee55 2cbe
00000320: dd4f 19be b71f 6bbd 7ed8 2cbe 7638 013e
00000330: 79d4 cd3c ae08 f0bd 688c 183d 301c 2dbe
00000340: 91f6 2b3e 48a0 c9bd 16aa fa3d da97 94b9
00000350: a0c9 c4bd 590f 2cbd af43 b73d d9e2 2c3e
00000360: e4f3 75bb 039b 0fbe c616 15be b7f1 ee3d
00000370: 8ea0 6f3c deea 4ebd 0159 7c3d 05de 1dbe
00000380: 87c2 b93c bb2c b43b 7508 11bd 8780 08be
00000390: d6df 23be ca67 0fbe f51e 2ebd 4f85 25bd
000003a0: f085 983d 9f03 c43d c711 58bd eefc 943d
000003b0: f37a d33d 0847 ddbd b4f9 103e 2dca 73bd
000003c0: 8632 35bd 8d36 1f3b 1fdd 383d 66d7 0e3e
000003d0: 06bf 963d 81a0 0c3e e5e3 62bd 6b5d 07be
000003e0: b0ca 203e c3e5 97bd 4b6d 0ebd ad44 0dbe
000003f0: ca14 2b3e b52a aebd 5288 f83d dd5b 24be
-0.14948091 0.014200162 -0.0033574055 -0.13274865 0.100662716 -0.088207245 -0.027122796 -0.12293859
0.13081075 0.13983734 -0.14471169 -0.06456035 -0.14295174 -0.16736887 0.14615883 0.13905467
-0.17536585 -0.100850485 0.11360293 0.1447775 -0.14553483 0.15237698 0.016773278 -0.1019867
0.14776745 -0.15664153 -0.121841304 -0.124386184 -0.16091813 0.0641288 0.03793088 -0.008880237
0.14742833 0.044642627 0.020613754 -0.028340423 -0.033629682 0.024631336 -0.12131465 -0.051324766
0.071432 0.012979549 -0.14261244 0.1571727 0.09351082 -0.15992334 -0.098071195 0.04044928
0.11276087 0.11019868 -0.019754525 0.13387482 0.044129968 0.07427485 0.08583976 -0.1476974
-0.061785784 -0.11950892 0.17622332 -0.066836044 0.18231267 0.13401575 -0.12601148 -0.04780442
0.12873206 -0.11982111 -0.07873265 0.111450605 0.10082114 0.040842436 0.11369029 -0.11092827
-0.1051892 0.078746065 0.1775226 -0.1243603 -0.15740839 0.115541995 -0.13973352 -0.033329763
0.11643106 0.10585225 -0.036035303 0.1123404 -0.030869255 0.1531333 0.031945575 0.010042798
0.14432575 0.019568235 -0.15146309 0.07263899 -0.15930775 -0.1259571 -0.012822666 0.09824084
-0.071381904 -0.13248467 -0.09472826 -0.10209172 0.08307737 -0.15230758 0.030855916 -0.08372901
0.06884453 -0.14570007 0.09175548 0.1411875 0.13937587 -0.13050194 -0.019402213 0.16200735
-0.12225329 -0.05779263 0.10772162 0.10642281 0.1543449 -0.011252961 0.088373035 -0.0749444
-0.10241493 -0.14567074 -0.08159114 0.09414384 0.0022080503 -0.08097794 -0.17836756 -0.015255677
-0.00035530102 0.104557686 -0.13768284 0.13857995 -0.06996135 0.066949956 -0.12640166 0.16317059
0.1456989 0.171151 -0.16932027 0.121979944 -0.009836441 -0.15801504 0.06715094 -0.11908441
0.023269102 -0.029506484 0.113132715 -0.13514106 -0.12571426 -0.03343909 -0.0932588 -0.008785908
0.13911459 -0.047546268 0.1489452 -0.035572566 0.096965626 0.071715236 -0.14703682 0.1222352
-0.1635524 -0.0881815 0.10213068 -0.006018691 0.017620787 -0.106247194 0.017098824 0.089814745
-0.068741634 0.078807995 -0.056509107 -0.033243664 6.1046376e-07 -0.012805577 -0.012514234 0.033068776
-0.13566709 -0.05563367 0.039789706 -0.14641389 0.035980932 -0.12812117 0.021187374 0.1354403
-0.112829484 -0.14799382 0.051208716 0.1787298 0.13293289 0.07035869 -0.089777105 0.17103143
-0.051769804 -0.08946016 0.029879862 -0.14457309 0.15547176 -0.08495357 0.0806337 -0.16829655
-0.14971872 -0.057403293 -0.1687946 0.12619194 0.025125729 -0.117204055 0.037243277 -0.16905284
0.16793276 -0.09845024 0.122394726 -0.00028341898 -0.096087694 -0.042006824 0.089484565 0.1688341
-0.0037529403 -0.14023976 -0.14559469 0.11667197 0.014625682 -0.050516956 0.06160832 -0.15416725
0.022675766 0.0054984963 -0.035408456 -0.1333028 -0.16003355 -0.14004436 -0.04250999 -0.040410336
0.074474216 0.09571003 -0.05275133 0.07274805 0.10326185 -0.10804564 0.14157754 -0.05951898
-0.044237636 0.002429399 0.045132753 0.13949355 0.073606536 0.13733102 -0.05539312 -0.1321923
0.15702319 -0.074168704 -0.0347722 -0.13795729 0.16707149 -0.085042395 0.12135376 -0.16050668

lin4.bias f4 [32]
00000000: 214d 3a3c 4ebb 0f3e 3899 4abc 28ac 82bc
00000010: ab38 7cbd 495c 213d 5e94 90bd 58a8 0bbe
00000020: e1d1 d63d 2cb2 ab3d 3fd3 cfbd 82ae 173e
00000030: 83e3 80bd e81a 14be fe9a 933c 1565 983d
00000040: be47 293c ed0e d23d 044f 4f3d 2e05 4f3c
00000050: 612e 583d bf96 6f3d ca1f 28be aec0 7e3d
00000060: 3af9 c33d f89a ac3d 9701 dabd 846f b73d
00000070: c99d fcbd 2a57 093c 5af6 033e be7b 083e
0.011370928 0.14036295 -0.012365632 -0.015951231 -0.06157748 0.03939465 -0.07059549 -0.13638437
0.1048925 0.08383593 -0.10147714 0.14812663 -0.062933944 -0.14463389 0.018018242 0.07441155
0.010332046 0.10256753 0.050612465 0.012635512 0.052778605 0.058493372 -0.16418377 0.062195472
0.095690206 0.084279954 -0.106448345 0.08956817 -0.12334783 0.008382598 0.12886944 0.13328454

lin4.parametrizations.weight.original0 f4 [32, 1]
00000000: 9a74 1b3f 83d9 1a3f 33ba 173f 7506 083f
00000010: f5b9 1e3f 66c3 043f 455f 0a3f 28f7 1f3f
00000020: aec1 193f a758 1b3f ba05 1e3f 77d3 173f
00000030: affd 183f 0e79 003f 8528 153f 785e fa3e
00000040: 7814 1a3f b094 143f 7d50 093f 714c 113f
00000050: 3f25 123f 070f 083f 286f f03e f100 063f
00000060: e319 133f 5781 073f 0f56 013f f8a5 083f
00000070: 5e9c 163f 7c2f 193f 342c 183f 61db 283f
0.60724795 0.60488147 0.5926849 0.5313485 0.620025 0.51860654 0.5405162 0.62486506
0.60061157 0.6068215 0.6172749 0.59307045 0.5976209 0.50184715 0.5826495 0.489002
0.6018748 0.5803938 0.5363844 0.56757265 0.57088083 0.5314793 0.46959805 0.52345186
0.57461375 0.5293173 0.5052194 0.5337825 0.5883235 0.5983808 0.5944245 0.65959746

lin4.parametrizations.weight.original1 f4 [32, 32]
00000000: 673b 20be 6ca9 6abd 4a2b c23b 81ba 21be
00000010: 9846 ebbd 91fd 893d 5f8a 07bd 3b3b 363c
00000020: 482a 82bd c6ac cbbd 886a 403c 3ac3 d6bd
00000030: 91af 0dbd 8855 edbd af05 e43d 28dd 2dbe
00000040: 44d6 c53c 892d 803d 855f 063d c68b c73d
00000050: 0043 f83d 6752 d1bd f0ff 2dbe a8c4 0fbe
00000060: 7f54 313e 11bb 16be dfe3 dc3d cc4c 39be
00000070: 62cf c73d 9a14 203d f305 a4bc 6078 0ebe
00000080: e75c 49bc a185 18bd a2cd 39bd 6fe3 0dbe
00000090: b6c3 0dbe 9fbd bd3d 6346 f7ba 2670 2bbe
000000a0: 814b df3d fd29 ae3d 4dde 2ebd 5f33 7f3d
000000b0: bf3d 1cbe 8586 003c 3334 d7bb de1d 2ebe
000000c0: cb71 ee3d e98e 2f3d 23e5 d1bd ccb2 ad3d
000000d0: ce21 e1bc 74ac 2fbe 4acb 0ebe 8266 c0bd
000000e0: b45a 0ebe 216f 2bbe 05a7 f23d 2f35 a6bd
000000f0: 1d63 30bd d3fc e4bd 3bdf 88bd 12f4 c03d
00000100: 8b36 1dbe 6acf 40bc e6ac 363d 9b0c aabd
00000110: 8f4f 293e c30a 813c cd1d 953c 3e5c 32bb
00000120: f7b2 2d3e c51e 183e 00a6 1e3e b746 913d
00000130: 2d14 9abd 5aed 39bd 9056 ad3c 3920 d93d
00000140: b7b1 153e c15a 2f3e b787 60bd 1420 0e3e
00000150: 1503 ba3c 3bb5 fdbd 6812 1ebe 1767 9d3d
00000160: 289c 95bb e987 06be ca63 02bd 1a1a b73d
00000170: 0587 c9bd 958d 093e eb04 e13a 6893 10bd
00000180: 47dc fd3d 53e6 b2bd d3d5 1fbe da07 93bd
00000190: 8968 b63d 4dad 833c 814b eb3d abdc 0f3e
000001a0: 8527 f5bd 165c f8bc 829b b7bc 427c 60bd
000001b0: f725 8fbd 4525 afbd 361e d83b eaf4 2bbe
000001c0: 6517 0ebe 226b 76bd 247e 873d 0697 6dbd
000001d0: 31a6 f53c 20c3 253e db54 16bd c274 7fbd
000001e0: c867 0cbe aebd 28be 30de 073e 5ec1 02be
000001f0: 47f6 8dbd 27fb 983d 0403 933c b337 ed3b
00000200: 680f 0fbe 05b8 9abb 2a6e e03d 911f f1bc
00000210: 24d0 19be f1fc 00be 2ca0 f53d 2871 cebd
00000220: 21a4 edbd 405c d13d a6d5 313e 460b 273b
00000230: d032 173e fa18 03be 7256 a2bd 2123 db3d
00000240: 5f73 2bbe 6c90 f53d 9d52 7c3d aea1 8b3d
00000250: 04a3 d9bd d384 c33c 33eb 2abe 56a8 9fbd
00000260: d88e 1abd 4f2f 2c3e 76a4 283d aea0 493d
00000270: 791d fc3d 2087 d73c fbdb b03c 2a16 34be
00000280: 22d7 bf3d e0be 55bd 0106 ab3d 8890 9b3d
00000290: 1b3b 5d3b 750a 263e 27ae 1abe bee3 b2bd
000002a0: e928 76bd c850 3a3d 02e3 113e d1a1 70bc
000002b0: 85bb 21bd b498 27be 379f ecbc b9b7 15bd
000002c0: 7d6e 523d db2c f6bd 7171 cabd c527 a63c
000002d0: e1d7 0d3e bca9 ff3d 50ee 3a3d 00d4 a83c
000002e0: c4ae f2bd 3ad6 163e 2bda c1bd 1b53 1b3e
000002f0: d093 44bd 9d1c 5bbd 4054 a0bd 0e26 b83c
00000300: dc15 1ebe c038 23be fb62 2abe 3c2c d4bd
00000310: 8aa6 da3d 9f18 433d b948 da3c f317 67bb
00000320: 2dd6 0fbe 8b65 ca3c 10d9 4dbc 7c48 3cbd
00000330: a292 6e3d 51c6 143e f9f0 41bd 4171 07bc
00000340: 79eb 4cbc 990c ce3c 2001 bc3d 9b15 2f3d
00000350: 4f83 c9bd a692 e6bd 937f 0d3e 77bc 0cbe
00000360: 14ef 3fbd 410e 063e 0d4b 2b3e db24 9a3b
00000370: 9b40 b73d 6475 6c3d 8c2b 263e 2f34 9f3d
00000380: a27f 0a3d 797c 223d eea7 043e 0602 b33c
00000390: a38e 6f3d f2e8 1e3e 2a4f 18be e6c3 b93d
000003a0: fdd6 b53d b3ac 3c3d 87d7 0d3e 13fb a03d
000003b0: c620 0fbe 03aa 193e adfe 003e d3d6 083e
000003c0: 5d74 f43d 2934 b5bd 4795 193b 68ee 15be
000003d0: 1220 8bbd d723 11be 4090 b9bd 6953 023e
000003e0: 2eb2 323d 23dc 02be 0a08 303e eefe 193e
000003f0: fea2 b5bd 8eeb c7bd ff3d 01bc 967f 8ebc
-0.1564766 -0.05729048 0.0059255706 -0.15793802 -0.11488074 0.06737817 -0.033090945 0.01112252
-0.06355721 -0.09945063 0.011744149 -0.10486455 -0.03459126 -0.115885794 0.111338966 -0.16978896
0.024150021 0.06258685 0.03280594 0.097434565 0.12122154 -0.10220795 -0.16992164 -0.14039862
0.17317389 -0.14719798 0.107856505 -0.18095702 0.09756352 0.039082147 -0.020022368 -0.13913107
-0.012290216 -0.037236813 -0.045362122 -0.1385629 -0.13844189 0.09264683 -0.0018865581 -0.16742
0.10903073 0.085041024 -0.04269247 0.06230485 -0.1525793 0.007844572 -0.006567502 -0.17003581
0.11642798 0.0428609 -0.102487825 0.084813684 -0.02748194 -0.1715563 -0.13944736 -0.09394552
-0.13901788 -0.16741611 0.11848263 -0.08115613 -0.04306327 -0.11181035 -0.06683203 0.09421553
-0.15352838 -0.011768201 0.044598483 -0.083031856 0.16534255 0.015752202 0.018202687 -0.0027215625
0.16962801 0.14855488 0.15493011 0.07093566 -0.075233795 -0.04539237 0.02115944 0.10601849
0.14618574 0.17124464 -0.054816928 0.13879424 0.022706548 -0.123880826 -0.15436709 0.076856785
-0.0045657344 -0.13137783 -0.031833448 0.08940525 -0.09840206 0.13432916 0.0017167603 -0.035296828
0.1239553 -0.08735337 -0.15608911 -0.07179232 0.08906657 0.016073847 0.114890106 0.14049022
-0.119704284 -0.030317347 -0.02241302 -0.054806 -0.06989663 -0.085520305 0.0065953983 -0.16792646
-0.13876112 -0.060160764 0.06615856 -0.058005355 0.029986473 0.16187716 -0.03670202 -0.06236721
-0.13711464 -0.16478607 0.13268352 -0.12769076 -0.06931739 0.074697785 0.017945774 0.007239306
-0.13970721 -0.004721644 0.10958512 -0.029433997 -0.15020806 -0.1259649 0.11993441 -0.100801766
-0.11603571 0.102226734 0.17366657 0.0025488897 0.14765477 -0.12802497 -0.079266444 0.1070006
-0.1674323 0.11990437 0.061602224 0.06817947 -0.10626796 0.023867046 -0.16691284 -0.077957794
-0.037733883 0.16814922 0.041172467 0.0492255 0.12310309 0.02630955 0.02158927 -0.1758658
0.09367205 -0.052183986 0.083507545 0.075959265 0.0033757153 0.16214927 -0.15105496 -0.087348446
-0.06009761 0.045487195 0.14246753 -0.014687018 -0.039485473 -0.16366845 -0.028884513 -0.036552165
0.0513749 -0.12020274 -0.098849185 0.020282635 0.13851883 0.12483546 0.04563743 0.020608902
-0.1184974 0.14730158 -0.0946544 0.15168421 -0.047992527 -0.053494085 -0.078285694 0.022479083
-0.15438026 -0.15939617 -0.1663932 -0.103599995 0.10676296 0.047630902 0.026646005 -0.0035262078
-0.14046545 0.024706623 -0.012563959 -0.045967564 0.05824531 0.14528777 -0.04734895 -0.008266748
-0.012507313 0.025152491 0.09179902 0.042745214 -0.09839498 -0.1125844 0.13818197 -0.13743769
-0.046858862 0.13091375 0.16727848 0.0047041005 0.089478694 0.05772914 0.1622755 0.07773625
0.033813126 0.039669488 0.12954685 0.02185155 0.05848564 0.15518549 -0.14873949 0.09070568
0.088788964 0.046063136 0.13851748 0.078603886 -0.13977346 0.1500626 0.12597151 0.13363199
0.11936257 -0.088478394 0.0023434923 -0.14641726 -0.06793226 -0.14173828 -0.09060717 0.12727131
0.043626957 -0.12779288 0.17190567 0.15038654 -0.08868979 -0.09761725 -0.007888316 -0.017394822

lin5.bias f4 [32]
00000000: 70df fbbd a44e 99bd 9f14 c83c 9557 2a3e
00000010: ca68 08be 1c44 353d 3f0d b8bc 45a3 1dbe
00000020: 09cc c53c 3733 23be ac20 9abd b70f e0bc
00000030: c5f4 ce3d 8e15 31be d05f 1b3e b9bd 25be
00000040: d8c7 9b3d 21b0 c5bb e2d0 1cbe 1958 b43d
00000050: 167c dcbb 6663 9f3d 29c9 223e de3a 23be
00000060: fb8b 583c 9fb2 b5bd 1bb2 af3d d7ed a4bd
00000070: 43d2 f9bc cd44 bbbb a426 6d3d f5af 70bd
-0.12298477 -0.07485703 0.024423895 0.16634972 -0.13321224 0.044254407 -0.022467254 -0.15394314
0.024145143 -0.15937506 -0.07525763 -0.027351243 0.1010528 -0.17293379 0.15173268 -0.16185655
0.076064765 -0.006032959 -0.15314057 0.08805866 -0.0067286594 0.077826306 0.15897049 -0.15940425
0.013216968 -0.0887196 0.08578893 -0.08053177 -0.030495768 -0.005714989 0.05789818 -0.058761556

lin5.parametrizations.weight.original0 f4 [32, 1]
00000000: 22c6 063f 4534 1e3f 5c54 0b3f 1047 ed3e
00000010: 8cd4 163f 6298 143f 0e00 253f 0b65 1e3f
00000020: 870b 1d3f 0cd2 1a3f 1ea7 1f3f 136a f83e
00000030: ecfc 0c3f 5827 0f3f 44de 1a3f c4a5 053f
00000040: e857 1a3f 8978 0c3f 3f52 063f 9319 123f
00000050: 97ce 033f 2883 0d3f f761 043f 45ca 083f
00000060: 193c 0b3f cfbd 103f 0faa 0e3f 1453 173f
00000070: 073c 233f 374d 0b3f 2732 fd3e 71a2 1c3f
0.52646077 0.61798507 0.544256 0.4634328 0.5891807 0.5804502 0.6445321 0.6187293
0.61345714 0.60476756 0.62364376 0.48518428 0.5507343 0.5591941 0.604954 0.52206063
0.60290384 0.5487142 0.5246925 0.57070273 0.51487106 0.55278254 0.5171198 0.5343364
0.54388577 0.56539625 0.5572824 0.5911114 0.6376347 0.54414696 0.49452326 0.61185366

lin5.parametrizations.weight.original1 f4 [32, 32]
00000000: 4c6f 09be f168 dbbd b303 e2bc 2129 bdbd
00000010: 93ec c8bd 2a61 0f3d da61 12be 1cbc 0ebe
00000020: 006c fb3d 1185 6d3c b060 b53d a2d6 cd3d
00000030: 0175 fabd 533f 2dbd 703d d83d 8c88 593d
00000040: e4e7 1cbc c031 ca3d 5d13 33bd 289c efbd
00000050: 25c0 0ebe ea05 fdbd d30c e13d 8834 1e3d
00000060: a8d2 b9bc a625 2abd 310f 9d3d e4bd 4d3d
00000070: 48c1 f5bc a5b4 24be d9b7 b53d 68ea a93d
00000080: 906a 8a3c 4512 3abd 32fb 083e d25a 093e
00000090: 7059 e7bd 79c1 eabd 32fb 78bd 5316 c4bd
000000a0: 896b 873b 2219 ecbd 1196 17be 0725 953d
000000b0: 22ae 183e 5a24 59bd ab41 c0bd 2609 0ebe
000000c0: 5aab a2bd ce39 1ebe 1929 4c3d 24e3 10be
000000d0: 37e8 a9bc 073d 0ebe efec 03be f795 743d
000000e0: acea 2e3e 9bbe 26be 9336 e9bc 3c46 9cbc
000000f0: ce72 e53d 6e93 6abd ab9c 0f3e f7bf da3d
00000100: 71a8 e13d 302e e6bd 4ae1 81bd e948 d7bd
00000110: 213c 013e 4b3b f4ba 1d43 ccbd 654c 0bbd
00000120: e244 60ba 20de 1fbe 7b88 f73d 2bb0 043e
00000130: 5431 1abd a61b febd 613a c33d 09ad 54bd
00000140: 22e3 b3bd 9792 01bd 2aa0 7bbc 44cc 2f3e
00000150: b1ba 1abe df4e e83d b810 5bbd a07b ae3d
00000160: cde3 cfbd 092d f0bc 849c 1ebe b6aa 643d
00000170: eb9f bbbd b039 fbbd ad87 8a3d 163f ac3d
00000180: 7435 cabd 52ff c93c 343f 5bbd 9652 3fbb
00000190: 37c2 e93d 7c65 a7bd 89e9 cc3b 876b 473d
000001a0: f865 f2bd c765 fd3d 9997 abbc 7ef5 24be
000001b0: 558a 173e a51f 7f3d 4a6a 503d a074 82bc
000001c0: b25f e43c dc96 543d 9195 e63c 1759 2fbe
000001d0: b87e 453c 010e 3d3d 657f 043c c105 d13c
000001e0: fd54 0d3e e77e 97bc 14a2 1b3c 5fc0 04be
000001f0: 52ff cebd 7e7c 393d 5cd9 a83c 3030 a7bd
00000200: 5099 20be 5fb2 a7bd 6a4a 87bd 9f46 223e
00000210: 7851 193e c6c9 28be a609 6b3b 1152 1cbc
00000220: 756c f83d 981e 81bc 2473 853c e429 d1bd
00000230: 3004 31bc 535b 1cbe f343 283e 73c1 02be
00000240: eae7 323e 0c10 4dbd cc26 db3c 2c1b 093e
00000250: f867 2e3e 401c 53bd e334 87bc 87df b03d
00000260: cde0 a4bc ddc7 973c 7476 9cbd 1df0 ad3d
00000270: 8b78 d1bd 3250 98bd e51c 073e c480 b93d
00000280: 8d9b c03d 4f68 cd3d 8065 16be b6ea a33d
00000290: 83f5 9a3d 4cdd 8dbd df80 133e 9e00 223e
000002a0: 4267 e03c 053e 04be 4f1e c0bd cc00 80bd
000002b0: 4ff9 353e 41b6 993d c645 1c3d 1c15 39be
000002c0: df22 203c 1ca8 90bd 10e0 18be aae9 1c3e
000002d0: b878 653d 4fcb a4bd 2d97 23bd a20e c03c
000002e0: 826b a6bd c1db d0bd 398e f23d 3b78 d1bd
000002f0: 03d7 02be 78dd 64bd 578c 913d eed0 033e
00000300: fcb4 9a3d 1d41 d5bc 806d 233e e567 153e
00000310: 8f7a 26be c535 b63d 1570 383e 6b79 08be
00000320: b719 333c 3676 033e 4863 ad3d 50eb f23d
00000330: 9b81 98bd f506 e9bd 0d7a 04be ae77 2d3e
00000340: d4d6 27be ab05 203e 608e 283e 867d 343e
00000350: e61f ed3d dc59 abbd f4b8 07be f419 33bd
00000360: a0d5 5d3d 08b2 983c 3f5c 523d f895 ec3d
00000370: 0e46 afbd 160b b73d 05bb 90bc 259c 05be
00000380: b866 0a3e 789c d9bd fcdd ecbc 63c2 0cbe
00000390: df3d 09be 467c 933c 41e6 a83d 6d23 193e
000003a0: 2a54 fd3c 1367 2ebb 0cd7 813d 8ee3 2cbe
000003b0: 3265 2e3e 6314 c5bd 96ab 41bc 6b48 093e
000003c0: efad e43d bfd2 cfbd 3e46 a1bd 4654 68bd
000003d0: c55f 0fbd 541f 28be f14b 34be e0cd cd3d
000003e0: ac1d 94bd 4d85 b73d a50f b7bd 7ab2 873c
000003f0: 8b84 20be 1a24 cf3d 211f f33d 5bbc 1fbe
-0.13421363 -0.10713375 -0.027589655 -0.0923636 -0.09810748 0.035004772 -0.1429514 -0.13938946
0.12276459 0.014497058 0.08856332 0.100507036 -0.12229348 -0.04229672 0.10558593 0.053108737
-0.009576771 0.0987277 -0.04371964 -0.11699706 -0.13940485 -0.12354644 0.10988774 0.038624316
-0.022683457 -0.04153981 0.07668913 0.050229922 -0.02999939 -0.16084535 0.08872957 0.082966626
0.016896516 -0.04542758 0.13377073 0.13413551 -0.11296356 -0.11462683 -0.060786434 -0.095745705
0.0041326922 -0.11528231 -0.1480334 0.07282453 0.14910176 -0.053013183 -0.09387525 -0.13870677
-0.07942839 -0.15451738 0.04984388 -0.14149147 -0.020740611 -0.13890468 -0.12883352 0.05971333
0.17081708 -0.16283648 -0.028468406 -0.01907646 0.11203538 -0.057269506 0.14024608 0.10681146
0.11018456 -0.11239278 -0.063417986 -0.105119534 0.12620594 -0.0018633393 -0.09973738 -0.034008402
-0.0008555186 -0.15612078 0.120865785 0.12957828 -0.0376447 -0.12407617 0.09532619 -0.05192283
-0.087835565 -0.03163394 -0.01535801 0.17167765 -0.1511028 0.113431685 -0.05348274 0.08519673
-0.101508714 -0.02931835 -0.15489393 0.055826865 -0.09161361 -0.122668624 0.06764159 0.0841047
-0.098734766 0.024657879 -0.053527072 -0.0029193512 0.11413997 -0.081736535 0.0062534255 0.04868653
-0.11835855 0.12372928 -0.02094631 -0.16109273 0.14798863 0.062286038 0.050882615 -0.015924752
0.027877662 0.051901683 0.02814749 -0.17123829 0.012054138 0.046155933 0.008087014 0.025515439
0.13801952 -0.018493129 0.009499092 -0.12964009 -0.10107292 0.04528474 0.020611458 -0.08163488
-0.15683484 -0.081883185 -0.0660599 0.15847252 0.14972484 -0.1648322 0.0035863905 -0.0095410505
0.121300615 -0.015761659 0.016290255 -0.10213068 -0.010804221 -0.15269212 0.1643217 -0.12769108
0.1747128 -0.05006413 0.026751898 0.13389271 0.17031848 -0.051540613 -0.01650471 0.086363845
-0.020126725 0.01852792 -0.07639781 0.084930636 -0.1022807 -0.07437171 0.13194616 0.09057763
0.09404669 0.10029661 -0.14687157 0.08003752 0.07566359 -0.06926975 0.14404629 0.15820548
0.027392987 -0.12914284 -0.09380781 -0.06250152 0.17770885 0.07505465 0.03815248 -0.18074459
0.009773939 -0.07063314 -0.14929223 0.15323511 0.05602333 -0.080465905 -0.039939094 0.023444477
-0.08125974 -0.10198165 0.11843533 -0.1022801 -0.12777333 -0.05587527 0.07106846 0.12872669
0.07554051 -0.026032025 0.1595974 0.14590414 -0.1625769 0.088969745 0.18011506 -0.13327567
0.010931424 0.12838063 0.08466202 0.118612885 -0.07446595 -0.1137828 -0.12937184 0.16940185
-0.16390544 0.15627162 0.16460562 0.17626008 0.1157835 -0.08366749 -0.13254148 -0.043725923
0.054158807 0.01863958 0.051357504 0.11552042 -0.08558284 0.08937661 -0.017667303 -0.13047846
0.13515747 -0.10625547 -0.028914444 -0.13746028 -0.13402508 0.018003594 0.082470424 0.1495492
0.030923922 -0.002661173 0.06339845 -0.1688368 0.1703079 -0.09623029 -0.011820694 0.13406532
0.11165988 -0.101476185 -0.07874726 -0.056720994 -0.035003442 -0.164182 -0.17607094 0.10049033
-0.07232222 0.08960972 -0.08938531 0.016564596 -0.15675561 0.10114308 0.11871172 -0.15599196

lin6.parametrizations.weight.original1 f4 [1, 32]
00000000: e9d5 5f3c 4cde 1ebe 6bd7 d53d 3001 bb3d
00000010: 9bcb 1c3e 0fa0 2e3e b4eb 82bd e36a 7fbd
00000020: 9ff1 d63d ff8c 323e a697 553d 93ed 3abe
00000030: 1680 8abd 6a57 8e3d ffb5 973d f450 07bd
00000040: a36a 943d dcb8 dfbd ad43 0e3e 2bb3 bcbc
00000050: d4cf 61bd 332c dc3c ed11 06be f6c8 8b3d
00000060: 9834 00bd 2e61 acbd 6d4d 7b3d 48e3 bcbd
00000070: b58a 5bbd d0f9 be3d 3c6e 26bd e6d3 b3bd
0.01366184 -0.15514487 0.10441478 0.09131086 0.15312044 0.17053245 -0.06392613 -0.062357794
0.10495304 0.17436598 0.052146576 -0.1825469 -0.06762712 0.06950267 0.0740776 -0.033036187
0.07246902 -0.10923931 0.13893004 -0.023034653 -0.05512984 0.026876545 -0.13092776 0.0682544
-0.031300157 -0.08416973 0.061353136 -0.09223038 -0.05359908 0.09324992 -0.04063247 -0.08780651
