DeepSDFStruct/trained_models/test_experiment/ModelParameters/latest.pth (torch, 29438 bytes, 19 tensors)

module.lin0.bias f4 [32]
000000 5c d4 b0 bd a3 9c ed be cf 9c 45 be 77 9f c1 3e
       -0.08634254 -0.46408567 -0.19298099 0.37816975
000010 45 3a 99 3e 7f 5c 4d bb 2e 5c 1b be 9b ed bb 3e
       0.2992727 -0.003133565 -0.15171883 0.36704716
000020 fe 01 30 be ef 5f d4 3e 25 03 30 3e c7 a1 cb 3d
       -0.1718826 0.41479442 0.171887 0.09942966
000030 f9 45 d9 3e d1 11 8b 3e 5a ea d9 3e 0c e5 31 3e
       0.42436197 0.2716203 0.4256161 0.1737253
000040 a1 5c 30 be 24 65 57 be bb f0 32 3d f8 e9 73 3e
       -0.17222835 -0.21034676 0.04368661 0.23819721
000050 d4 14 f9 3e ed b0 73 be df 28 88 be 09 9a 19 be
       0.48648703 -0.2379796 -0.26593682 -0.15000166
000060 66 26 c3 3d 2f ae dd ba a9 ec 30 3e 52 9a 98 3e
       0.09528808 -0.0016912873 0.17277779 0.29805237
000070 8d 1d fd 3e 0d a1 79 be 62 a1 3c be 8e 3d ab 3e
       0.49436608 -0.24377842 -0.18420938 0.334454

module.lin0.parametrizations.weight.original0 f4 [32, 1]
000000 23 ec 0b 3f 4c b5 b7 3e 59 51 08 3f fd 11 2e 3f
       0.5465719 0.35880506 0.53249127 0.679962
000010 44 17 25 3f 4f e6 28 3f 03 60 00 3f 37 5c 2d 3f
       0.64488626 0.65976423 0.501465 0.67718834
000020 ee 2c 3e 3f 64 c0 05 3f ef 9a f7 3e a3 1e 35 3f
       0.7428731 0.5224669 0.48360392 0.7074987
000030 3a 55 df 3e 67 41 fb 3e a9 3a a7 3e e8 5c 33 3f
       0.4361971 0.49073336 0.32661942 0.7006364
000040 b9 03 ea 3e 7a a9 4e 3f e2 95 d7 3e c8 1f 2c 3f
       0.45705965 0.8072735 0.4210654 0.67235994
000050 f3 d7 d3 3e 4c 1e 03 3f 2c 50 e3 3e 4a 94 ef 3e
       0.41375694 0.51218104 0.44397104 0.46792823
000060 0c 7a 06 3f 3e a6 05 3f 1f 72 0d 3f 0d d1 2b 3f
       0.5252998 0.5220679 0.5525226 0.6711586
000070 15 b7 db 3e a1 aa 13 3f 8f 48 2f 3f 0c 1a 11 3f
       0.42913118 0.57682234 0.6847009 0.5668037

module.lin0.parametrizations.weight.original1 f4 [32, 4]
000000 82 02 c3 3e d3 34 63 3e 04 55 82 3e 39 54 2c be
       0.3808785 0.2218812 0.25455487 -0.16829003
000010 92 8a 3c be 91 da 0b be 09 35 32 be 76 be 45 3e
       -0.18412235 -0.13657595 -0.17403044 0.19310936
000020 36 dd f7 be 5c ae 95 3c ff 53 3d be 29 55 12 3e
       -0.48410958 0.018271618 -0.18489073 0.14290299
000030 b0 8b 2c bd f7 34 d5 be e7 73 c7 be 5b 3c c4 3e
       -0.042125404 -0.4164197 -0.38955614 0.38327298
000040 79 14 f2 3e 13 18 3f be d1 b0 8c 3c 69 5b cc 3e
       0.47281244 -0.18661527 0.017174156 0.3991349
000050 da 31 0a be 15 d2 38 3d 7b a8 d8 be 9e 09 f7 3e
       -0.1349558 0.045122225 -0.4231604 0.48249525
000060 33 ed 39 3e 3d 7b 84 3e d0 61 bc 3e de 2f c7 bd
       0.1815689 0.25875273 0.36793375 -0.09725927
000070 20 05 d8 bd c3 7b d6 be a6 d1 be be 6c 59 c3 be
       -0.105478525 -0.41891298 -0.37269324 -0.3815416
000080 e8 b0 8f 3e fa 13 ce be fb 00 be 3e 67 d5 d6 be
       0.28064656 -0.40249616 0.37110123 -0.41959688
000090 ce be 89 3e 5b 3d 10 3e 41 24 b0 3e a5 6d 71 3e
       0.26903385 0.14085905 0.3440266 0.23576982
0000a0 ec f6 db be d4 de 01 3d f8 95 b8 bd 42 0d 2d 3e
       -0.42961824 0.031706646 -0.09012979 0.16899589
0000b0 25 d6 b0 3e 51 50 cb be bd 64 ea 3e 6b aa 1d 3d
       0.3453838 -0.39709714 0.45779982 0.0384926
0000c0 48 83 ac be dd 5d ef 3d 32 ee 82 3e d9 4c 9d bd
       -0.3369391 0.11687825 0.25572354 -0.07680673
0000d0 df 5e 30 bd 24 83 a5 3e e5 ff b7 3e c9 b6 d7 3d
       -0.043059226 0.32326615 0.3593742 0.105329104
0000e0 76 df 23 3c 76 37 3d 3e 61 eb 80 3e f5 ca 3b 3d
       0.010002008 0.18478188 0.2517958 0.04584785
0000f0 b3 0d d7 be 6b 40 b0 be 64 d6 65 3e 87 72 b8 be
       -0.4200264 -0.34424147 0.22445065 -0.36024877
000100 01 4a 55 3d 3e f9 86 be 70 f9 9a 3e c7 a7 44 3e
       0.05207253 -0.26362032 0.3026843 0.19204627
000110 01 ea c4 3e 0f 6e f6 be 41 f9 67 3e dd bb f7 be
       0.3845978 -0.48130843 0.22653677 -0.48385516
000120 87 c7 8a bd 2c 5e 40 be de 41 8f 3e 40 9a 78 be
       -0.06776338 -0.18785924 0.2797994 -0.24277592
000130 a6 13 d3 be ef 6f 6c 3d 5f 06 d8 3e 0f 6c a2 be
       -0.41225928 0.057723936 0.4219236 -0.31723067
000140 2d 06 93 bc d2 92 c2 be 84 a4 cf bd e0 44 23 be
       -0.01794728 -0.3800264 -0.10138801 -0.15944242
000150 7d 0f bd 3c 5f c4 95 3c ab ca d3 3d 16 b0 f6 be
       0.023078674 0.018282114 0.1034139 -0.48181218
000160 b7 44 4f 3d ed 0f 55 3e 01 18 2e be d1 33 a8 3e
       0.05060264 0.20806856 -0.17001344 0.32852033
000170 7b 78 d8 be d3 29 cb 3d 2d 61 03 3e 07 39 b7 3c
       -0.4227942 0.09920087 0.12830038 0.02236606
000180 ea 0d 82 3e c3 bf bf 3a 7b cd de be 6a 68 43 be
       0.2540124 0.0014629293 -0.43516144 -0.190828
000190 8b b8 b4 3d f9 30 8d be 2d ee ad 3e 32 84 83 3e
       0.08824261 -0.27576426 0.33970776 0.25686795
0001a0 68 2d f9 be 4a 79 f6 3d 8e a6 7a be 72 0d 4c 3d
       -0.48667455 0.12034853 -0.24477598 0.04981751
0001b0 3c 13 d7 3d 9a c5 0c 3e 60 43 d4 be 4e 30 fc be
       0.105017155 0.13747254 -0.41457653 -0.49255604
0001c0 37 2e 37 be 66 43 a2 3c 77 6c 53 be b6 ff 9f be
       -0.17888723 0.019807529 -0.20646845 -0.3124978
0001d0 e2 cd 38 3e 15 b8 a4 3e bd 91 b8 3e e6 58 78 be
       0.18047288 0.32171693 0.3604869 -0.24252662
0001e0 a1 f6 a9 3e 20 51 d2 3d 51 3b ae be 18 7a fb 3e
       0.33195975 0.102693796 -0.3402963 0.49116588
0001f0 1c d9 e4 3e 70 ac 6a 3d a7 1c e2 3d f3 6a ae 3e
       0.4469689 0.057293355 0.11040621 0.3406597

module.lin1.bias f4 [28]
000000 fa d4 f8 bc 4c 13 26 3e 20 4f 2b bd c2 56 ce 3d
       -0.030374993 0.16218299 -0.041823506 0.100751415
000010 55 ca 04 3e 2d 16 d8 3c 4c 72 ed 3d 04 32 cd 3d
       0.12967809 0.026377762 0.11594066 0.10019305
000020 76 70 3a 3e c1 30 b0 bd c8 16 b8 bd 2f c2 29 3e
       0.18206963 -0.08603049 -0.0898872 0.16577981
000030 4a 07 81 3d df 6f e3 3d c3 7b 99 bc 48 99 2d be
       0.063002184 0.11105322 -0.018735772 -0.16953003
000040 e8 4e a6 3d ba a6 d2 bd a8 4c 9d bd a8 e5 ef 3c
       0.08120519 -0.10285707 -0.07680637 0.029284313
000050 8f e6 1c bc e0 3c 7c 3c 5f 9d cd 3d b7 5b 18 be
       -0.009576454 0.015395373 0.10039782 -0.14878736
000060 79 4c e3 3d de b6 26 be 47 e4 e7 3d 6d 0a 7f 3d
       0.110985704 -0.16280696 0.11322837 0.062265802

module.lin1.parametrizations.weight.original0 f4 [28, 1]
000000 56 94 1e 3f 34 b7 01 3f 52 58 10 3f ef fb 28 3f
       0.6194509 0.5067017 0.56384766 0.6600942
000010 e4 73 21 3f b3 21 0b 3f 05 be 20 3f 3e e7 0f 3f
       0.6306746 0.54348296 0.62789947 0.5621222
000020 4b d0 08 3f 22 4b 24 3f 48 2c 0b 3f 33 bc 19 3f
       0.5344283 0.64177144 0.5436444 0.60052794
000030 03 1e fa 3e e9 f1 0c 3f 51 d8 1b 3f 3c e4 05 3f
       0.48851022 0.55056626 0.6087695 0.52301383
000040 86 00 1b 3f 31 ed 00 3f 8b 14 14 3f d1 a3 09 3f
       0.60547674 0.50361925 0.57843846 0.5376559
000050 fb 78 f0 3e e3 16 12 3f 0d e5 13 3f 77 e5 18 3f
       0.469673 0.5706617 0.5777138 0.59725136
000060 97 09 0f 3f ef 13 16 3f 67 ad 20 3f 71 0d 12 3f
       0.5587401 0.58624166 0.6276459 0.5705176

module.lin1.parametrizations.weight.original1 f4 [28, 32]
000000 61 c4 02 3e d4 84 02 be 65 18 af 3d e2 c3 aa 3c
       0.12770225 -0.12745982 0.08549575 0.020845357
000010 06 d6 09 be 7e 33 cb 3d f9 e6 ad bd d9 45 a0 3b
       -0.1346055 0.09921931 -0.0849132 0.004891139
000020 57 94 0f 3d 08 d6 24 3e 09 5a 06 3d 06 d1 32 3e
       0.035053577 0.16097271 0.032800708 0.17462549
000030 1c ed f9 3c 2a 77 2e 3e 5a ee 5d bd 20 21 01 3e
       0.03050857 0.17037645 -0.054182388 0.12610292
000040 56 2b 11 3e 65 d9 f1 bc 8f e3 23 be a2 b7 8d bd
       0.14176688 -0.029522607 -0.16004775 -0.06919791
000050 f1 88 1c be 9a fc 1f bd 24 7a 91 bd 2c a5 7c 3c
       -0.15286614 -0.03905926 -0.071033746 0.015420239
000060 74 fd b5 bd 0d ab 1b 3e 56 53 62 bd 88 ff 19 be
       -0.08886233 0.1520197 -0.055255257 -0.15038884
000070 57 7f 0b bd bd a6 3e 3e dc d7 8d 3d 65 f6 e9 3d
       -0.034056988 0.18618293 0.069259375 0.11423949
000080 f2 df 44 3d 28 ae c9 bd 12 b0 29 3d f6 eb 47 bd
       0.048065133 -0.09847671 0.04142768 -0.048809014
000090 a0 b1 02 bc bc d4 c8 bb 4c 6b c7 3b e3 96 38 bd
       -0.007976919 -0.0061288755 0.006085789 -0.04506577
0000a0 63 07 2c 3e 58 8e c9 3d 58 50 27 3c ce 89 81 3c
       0.16799693 0.09841603 0.010212027 0.01581278
0000b0 16 e4 4a bc f6 7e e7 bd 10 87 16 be 4b c3 a9 3c
       -0.0123834815 -0.11303513 -0.1469996 0.020723006
0000c0 a9 fb 0a be 94 fb 41 3d 0b c6 ed bd 03 a0 66 bb
       -0.13572563 0.047359064 -0.11610039 -0.003519059
0000d0 65 b1 db bc 33 07 26 3e 90 22 eb bd 55 44 75 bc
       -0.026817987 0.16213684 -0.11481202 -0.014969905
0000e0 ba c6 2e 3e 31 4f 83 bd 6e 77 c6 3d 64 35 0f 3e
       0.17067996 -0.06411589 0.09690748 0.1398521
0000f0 ad 7c 2a 3d 99 92 64 3d 8b c4 cd 3d 65 75 4e 3d
       0.041622806 0.05580387 0.10047253 0.050404925
000100 8f 71 b6 bd be f3 8d 3d 16 f0 32 3e b3 12 c4 3c
       -0.08908378 0.06931256 0.17474398 0.023934698
000110 07 44 c9 bc 1b db dd bc 37 34 eb bd 4c ef 51 bd
       -0.02456857 -0.027082017 -0.114845686 -0.051253602
000120 48 98 86 bc c5 32 35 3d 98 2b 05 be 86 35 b1 3d
       -0.016430035 0.04423787 -0.13004911 0.08652787
000130 8e 43 02 be 4a 6b fb 3d 27 b1 8a bd 3c ed 91 3d
       -0.12721083 0.12276323 -0.067720704 0.07125327
000140 43 c0 09 be e7 f6 22 be 1e 83 bf bd 87 3a db 3a
       -0.13452248 -0.15914498 -0.093511805 0.0016725817
000150 b5 e9 ec 3d d4 d7 db 3d c8 8b be 3c 0d 70 04 be
       0.115680136 0.10734525 0.023260012 -0.12933369
000160 29 9f 81 bc 8c c9 16 be 0f 8a 17 be 6f 6a 40 3c
       -0.015822964 -0.14725322 -0.14798759 0.011744126
000170 ed 07 69 bd fc 4b b4 3d e4 42 04 be 65 44 f9 bd
       -0.056892324 0.08803555 -0.12916142 -0.12171248
000180 21 90 ee bd 6b 83 a8 3b 19 92 1d 3c 5a d9 ec 3d
       -0.11648584 0.0051426194 0.009617352 0.11564894
000190 4e 1a 21 be e4 5b 1e 3e 53 bd ac bd 44 51 10 be
       -0.1573269 0.15464741 -0.08434548 -0.140935
0001a0 15 06 b9 bd 73 8c e4 bd d7 73 4c bc 63 71 fb 3d
       -0.09034363 -0.11159601 -0.01247879 0.12277486
0001b0 a8 74 8e bc 90 2c d5 bd e3 bb 14 3d f5 ad 32 be
       -0.01738961 -0.1040889 0.036311995 -0.17449172
0001c0 f4 f1 22 3e 6b 8b 00 be c8 bb 03 3e 35 fa b4 3d
       0.1591261 -0.12553184 0.12864602 0.08836786
0001d0 d1 49 0a be a6 e2 0b bd 01 47 14 be 8a d8 79 bd
       -0.13504721 -0.034151696 -0.14480211 -0.060997523
0001e0 69 f8 14 be fe 61 82 bd 24 84 3a 3e 3f c4 1a be
       -0.14547886 -0.06366347 0.1821447 -0.15113924
0001f0 09 69 b9 bd 57 d4 73 3d eb 97 fb 3d ae f5 97 bd
       -0.09053237 0.059528675 0.122848354 -0.074199066
000200 0f 7c 4d bd 76 6d 3f bd 21 d4 0c be bc f0 06 3e
       -0.05016714 -0.04673525 -0.13752796 0.1317777
000210 dc bb 68 3c 3d b9 f8 bd 31 3c 22 3e 82 13 34 3e
       0.014204945 -0.121447064 0.15843274 0.17585567
000220 86 36 69 3d a6 cd 25 3e ed fb b5 bd 25 ec 8b 3d
       0.056936763 0.1619173 -0.08885942 0.0683215
000230 25 db 63 3d 4e 28 93 3d 49 cb c4 bd c1 65 87 3d
       0.055628914 0.07185422 -0.09609086 0.06611205
000240 f4 14 ee bd 70 d2 17 3e 2a 34 b6 3c 2c 95 21 be
       -0.1162509 0.1482637 0.02224167 -0.15779561
000250 36 17 12 3e 7e 73 eb 3c b6 78 e9 3d c5 19 09 be
       0.14266667 0.028741594 0.11399977 -0.13388737
000260 07 95 a2 bd 24 bc 20 3e 8a b2 28 be 37 40 20 bd
       -0.07938581 0.1569677 -0.16474357 -0.03912374
000270 8c 48 17 be 08 6d 0f 3e 3c 75 0f 3e 81 2f 9b bc
       -0.14773768 0.14006436 0.14009565 -0.01894355
000280 7d e6 cd bc 88 75 83 bc 77 ad 84 bd 68 03 97 3d
       -0.02513432 -0.016047254 -0.06478398 0.073736966
000290 88 3b c4 3d d5 b5 32 3b f8 9f e8 bc 9f 21 91 3d
       0.09581667 0.0027269025 -0.028396592 0.07086491
0002a0 e0 d0 00 3e 97 2a 8d 3d 16 ec ce 3d 0b 03 6c 3d
       0.1257968 0.06892889 0.101036236 0.05762009
0002b0 06 28 e3 3c 7d 8a 3e bd a5 b6 37 3e 2b a8 46 3d
       0.027729046 -0.04651879 0.17940767 0.04850022
0002c0 ff 51 9a 3d 6a df e3 3d 04 0f e3 3d 71 7f 05 3e
       0.07535171 0.11126597 0.110868484 0.13036896
0002d0 b2 66 8d bd 38 d8 0a be 2e 39 62 bd 32 fc dd 3d
       -0.06904353 -0.13559043 -0.055230312 0.10839118
0002e0 97 85 a9 3d fc 05 35 3e 02 86 15 be be fe 87 3d
       0.08277433 0.17678064 -0.14601901 0.06640385
0002f0 4c 48 14 3b 5b a3 dd 3d c2 8f 99 bd 4d 32 1e be
       0.00226261 0.10822173 -0.07498123 -0.15448876
000300 4f 88 83 bd f4 64 f0 3d 3f 23 02 bd e4 1c 7a bd
       -0.06422483 0.11738005 -0.031771895 -0.06106271
000310 64 31 fd bd 6b 43 19 3e c1 8d 97 3b 61 12 fb 3d
       -0.12362936 0.14967124 0.0046250527 0.12259365
000320 71 36 5a bc 3e 9a 0f 3e bd 71 11 bd 48 ba 89 3d
       -0.013318644 0.14023682 -0.03550886 0.067249835
000330 65 55 e3 3d 6a fa 05 3e 29 fd 2e be 99 08 21 3d
       0.11100272 0.13083807 -0.1708876 0.03931484
000340 1c d3 01 3e ea 4e 24 be f9 6b f4 bd 66 41 7f bc
       0.12678188 -0.16045728 -0.11934657 -0.015579557
000350 68 16 a8 bd 96 ee 55 3d 85 e3 42 3b 72 0c 03 be
       -0.08207399 0.052229486 0.0029737663 -0.12797716
000360 1e 86 85 bc 78 b9 11 be 6a b6 28 be 13 95 70 bd
       -0.016299304 -0.14230907 -0.16475835 -0.05873592
000370 dd d0 37 3e 17 26 2d 3e 9a c0 21 3e c8 33 8f bc
       0.17950769 0.16909061 0.15796128 -0.017480746
000380 3f 5a 0c 3c c2 2e 38 be a1 e2 88 bc 06 37 c8 bd
       0.008566438 -0.17986587 -0.016709628 -0.0977612
000390 cc dc 9d 3d c4 c7 1e bd 50 5e 15 be 70 32 19 3e
       0.07708129 -0.03876473 -0.14586759 0.14960647
0003a0 b0 71 f8 bd b1 1a a5 3d cd cd 11 be 1c 57 03 3e
       -0.12131059 0.080617316 -0.14238663 0.12826198
0003b0 56 02 5e bd f3 16 0f 3e 1c 9f 7d 3d b1 83 48 bd
       -0.054201446 0.13973598 0.061919317 -0.048953716
0003c0 c4 cb b9 3d 29 89 30 3e 2b 36 1d 3e 2c c3 3a 3d
       0.09072068 0.17239822 0.15352695 0.045596287
0003d0 2b a2 a7 bd 74 8b b6 3d 41 92 9f bd 84 50 11 be
       -0.08185228 0.08913317 -0.077915676 -0.1419087
0003e0 14 65 90 3d e1 43 06 bd 9b d8 c1 bd ba 10 26 3e
       0.07050529 -0.032779578 -0.09465142 0.16217318
0003f0 4b a9 62 bc e9 d5 21 3d e5 74 04 bc d2 61 a7 bd
       -0.013834308 0.03951064 -0.00808451 -0.081729546

module.lin2.bias f4 [32]
000000 0b 22 d2 3d 89 06 9a bd 0b 52 9c 3d 21 6c 79 3d
       0.102603994 -0.07520778 0.07632836 0.060894135
000010 5c b4 84 bd 69 f8 0e be 66 9b da bd 4d c6 58 3d
       -0.06479713 -0.13961948 -0.10674171 0.05292349
000020 a3 d0 c0 3c 57 52 b5 bc e9 1a f6 bd 5f 94 99 bd
       0.023536986 -0.02213399 -0.120168515 -0.07499003
000030 d6 5c 02 3e a2 b7 e9 bd c6 f4 0f be dd d2 43 bd
       0.12730727 -0.11411978 -0.14058217 -0.047808517
000040 0f 0d c2 bd 07 cd 0e be ef 55 a6 3b b2 03 ee 3d
       -0.09475147 -0.13945399 0.005076162 0.116217986
000050 2b 52 00 be b4 a1 80 3c 10 72 09 3e 14 db 1d be
       -0.12531345 0.015702106 0.13422418 -0.15415603
000060 6d c0 06 be ca 72 a3 3d de 4d 07 3e f2 b1 2a 3e
       -0.13159342 0.07980879 0.13213298 0.16669443
000070 5e 63 c5 bc 4c 32 7d bd 72 db 96 bd d9 71 de bd
       -0.024095234 -0.061815545 -0.073660746 -0.108615585

module.lin2.parametrizations.weight.original0 f4 [32, 1]
000000 5f 66 01 3f c0 51 17 3f 8a 50 13 3f 7e 45 0d 3f
       0.5054683 0.59109116 0.5754477 0.5518416
000010 86 ec 0f 3f c0 13 0d 3f d6 da 15 3f 1d 5b 13 3f
       0.5622028 0.5510826 0.5853704 0.575609
000020 c0 95 14 3f 9b 3e 11 3f 64 7d 1d 3f 1d 2f 06 3f
       0.58041 0.56736153 0.61519456 0.5241564
000030 ef 42 00 3f 0b 4a 09 3f 5c ef 15 3f 4c d5 18 3f
       0.5010213 0.53628606 0.5856836 0.59700465
000040 79 28 19 3f da 40 0c 3f c3 3d 0b 3f 24 56 05 3f
       0.5982738 0.54786456 0.54391116 0.52084565
000050 70 bd 0c 3f 8c c4 0f 3f 21 47 12 3f 4c c9 0f 3f
       0.5497656 0.5615928 0.57139784 0.5616653
000060 8c 89 0f 3f 74 5a 25 3f dc b7 0f 3f 96 bd 0b 3f
       0.56069255 0.64591146 0.5613992 0.5458616
000070 32 7c 1e 3f be c9 15 3f d4 0f 1b 3f ae 6f f2 3e
       0.61908257 0.5851096 0.60571027 0.4735083

module.lin2.parametrizations.weight.original1 f4 [32, 32]
000000 06 e5 0d 3d 75 d6 f7 3c 44 c5 17 be 66 c2 db bd
       0.034642242 0.030253628 -0.14821345 -0.10730438
000010 e3 d1 ad bd 50 84 a4 3c 21 33 3d 3d 78 74 ce 3d
       -0.08487298 0.020082623 0.04619134 0.100808084
000020 1f ff 6e 3d 9d 10 15 be 94 10 92 bd c1 36 19 3e
       0.05834877 -0.14557119 -0.07132068 0.14962293
000030 d2 e6 18 3d 8a 78 28 be 96 c3 18 be 37 30 d6 bd
       0.037329502 -0.16452232 -0.1491836 -0.10458415
000040 9a cf 05 3e 31 75 28 be 99 64 38 3b 18 a1 ef 3c
       0.13067475 -0.16450955 0.0028136133 0.02925162
000050 61 eb 28 bd c9 c0 a6 bd 80 7f d1 bd 7e 58 51 3d
       -0.0412401 -0.081422396 -0.10229397 0.051109783
000060 27 7a 22 bd 79 a5 f0 bd 0f 7f 6e bd 00 d3 33 bd
       -0.039667275 -0.117503114 -0.05822664 -0.043902397
000070 39 ad 11 bc 9d 0c 0b be 9e 6c ab bd 4a d8 82 3d
       -0.008891397 -0.1357903 -0.083703265 0.0638891
000080 3a 8f 68 bb e7 2f 1b 3d e0 bb 28 be 2d 76 0d be
       -0.003548576 0.03788748 -0.16477919 -0.13814612
000090 87 70 ba 3d 33 24 0e be 51 ca 02 3e 8b 13 4e 3c
       0.09103494 -0.13880996 0.1277249 0.012577902
0000a0 05 12 85 bd e7 72 fc bd db a8 cd bd 56 ac 11 be
       -0.064975776 -0.123266034 -0.10041972 -0.14225897
0000b0 e5 89 96 3d 38 57 48 bd 38 96 fb 3d 7f 8f 11 bd
       0.0735052 -0.048911303 0.12284511 -0.03553724
0000c0 f9 b6 4c bd 94 87 72 3d 58 66 00 3d e3 c6 22 be
       -0.049979184 0.05921133 0.031347603 -0.15896182
0000d0 a9 1d b2 3d 04 aa a0 bd bf ae 24 3e 1a c9 07 be
       0.086970635 -0.07844928 0.16082285 -0.13260308
0000e0 71 45 2b 3d d2 dd 12 be 8c 56 20 be 07 c6 0f be
       0.04181427 -0.1434243 -0.15658015 -0.14040385
0000f0 b1 78 99 3d 38 eb 10 3e ae 13 16 3e 45 0c c8 bc
       0.07493723 0.14152229 0.14655945 -0.024419913
000100 11 90 7c 3b 53 fb d4 bd 13 3e 89 3d 6f 8c d8 bd
       0.0038538019 -0.10399499 0.06701293 -0.105736606
000110 35 db 37 be 58 b6 c6 bd ae 3e 20 3e 63 f4 b4 bd
       -0.17954715 -0.09702748 0.1564891 -0.088356756
000120 7f 74 cf 3c 9b 25 85 3d 60 a1 cb bd d8 27 03 be
       0.025324104 0.06501313 -0.09942889 -0.12808168
000130 7b ce 02 3e 89 35 e9 bc 8d c1 11 3d 5a e7 1a be
       0.12774079 -0.02846791 0.035584975 -0.15127316
000140 0d 61 a4 3c 1a df 77 bd ed ea b8 3d 5a 30 2b bd
       0.020065809 -0.0605155 0.090291835 -0.04179416
000150 f5 4c 0b 3d 9d 5a a7 bd ac 06 9c bc f7 e9 df 3d
       0.03400894 -0.0817158 -0.01904615 0.10933297
000160 11 c0 26 be 36 9e d5 bc e9 0f 36 be b9 b4 28 3e
       -0.16284205 -0.026076417 -0.17779507 0.1647519
000170 12 f4 fd bd 38 9e e5 3d 8d 91 25 be 33 df bb 3d
       -0.12400068 0.112118185 -0.16168804 0.09173431
000180 a9 7b f6 bd ec 27 08 be 0f 98 b0 bc 0a 95 df bd
       -0.12035305 -0.13296479 -0.021556882 -0.10917099
000190 6f 33 66 bd e0 91 20 be 83 12 ea bd 28 98 bd 3d
       -0.056201395 -0.15680647 -0.11429312 0.09257537
0001a0 fb 89 5d 3d 75 dd 67 bd f4 a1 bc 3d 32 f4 91 3d
       0.054086667 -0.056607682 0.092105776 0.07126655
0001b0 07 78 db 3c ac f1 26 bb c1 f4 1b be cd 0f f8 bd
       0.026790632 -0.0025473638 -0.15230085 -0.12112389
0001c0 2f bb 17 3e 06 3d 16 3e fb a6 20 be 98 a7 74 bd
       0.14817499 0.14671716 -0.15688698 -0.059730142
0001d0 d3 4c d1 ba d7 8e 0d 3e 84 aa 30 be 70 1e a7 bc
       -0.001596833 0.1382402 -0.17252547 -0.020400256
0001e0 c4 d2 26 3e 5f 72 cd 3d 38 63 47 3d 8a f5 9d 3d
       0.16291338 0.1003158 0.048678607 0.077128485
0001f0 01 74 84 bc 17 99 66 3d 46 f6 01 bd 37 c0 ff bb
       -0.016168596 0.05629834 -0.031729005 -0.007804896
000200 c9 3e 3b 3e 33 be 98 bb e7 b6 a1 bd 79 ae 17 3e
       0.1828567 -0.0046613454 -0.07896214 0.1481265
000210 36 81 24 be 5c ac 98 bd de 94 93 bc e0 eb 15 3e
       -0.16064915 -0.0745475 -0.018015321 0.1464076
000220 57 57 a9 bd 50 73 e3 bd fd b2 ef bb b9 66 f1 3d
       -0.08268612 -0.111059785 -0.0073150382 0.11787171
000230 cb 35 11 be 65 83 99 bd b5 9e 52 3d 17 fc 3d 3e
       -0.14180677 -0.07495765 0.051420886 0.18553196
000240 1f b8 89 bc 3d af 1d 3e 67 c2 ae 3d 6d 8f 37 be
       -0.016811429 0.1539888 0.08533173 -0.17925806
000250 47 4f e6 bd dd 0b 8e bd f6 ba 8e bc 8e d3 20 bd
       -0.1124559 -0.069358565 -0.017423134 -0.039264254
000260 bf 35 bb 3d 1a 62 4f 3d ef f6 99 bc b2 cd b4 bd
       0.09141111 0.050630666 -0.018794505 -0.08828296
000270 40 6b 45 3d bf ec f2 bc af 74 07 be 31 53 dc bd
       0.048197985 -0.029653905 -0.13228105 -0.10758055
000280 00 a3 b4 bc ba e0 a5 bd 77 c1 aa 3d d2 29 84 bd
       -0.02205038 -0.08099504 0.08337682 -0.06453289
000290 92 a9 21 3e c1 a7 1c 3e 72 d9 86 3d 04 ad 2e 3e
       0.15787342 0.15298368 0.06584443 0.17058188
0002a0 d4 14 00 3e b8 5b d9 3d 0d f0 77 3d 6b 0d 91 3d
       0.12507945 0.10613197 0.060531665 0.070826374
0002b0 cb 5f c4 3d 94 57 ba 3d 56 be dc 3d ee 90 d4 3c
       0.095885836 0.090987355 0.10778491 0.025948014
0002c0 0c 29 e2 3c 48 f2 ff bc 34 47 f2 3c 7a ee 45 3d
       0.027607463 -0.031243458 0.029574968 0.048323132
0002d0 cc b4 27 bd 95 0c b6 3d 4e 40 5f 3c 77 8e 2b be
       -0.040943906 0.088891186 0.013626171 -0.16753565
0002e0 76 d7 7a 3d 7d 7d 14 be 42 1c 39 be a4 fe 25 3e
       0.061240636 -0.14500995 -0.18077186 0.16210419
0002f0 c8 b2 95 3d dc d2 65 3d 72 eb 12 3c db cf 11 3e
       0.073094904 0.056109294 0.008967267 0.14239447
000300 7a dd f0 bd c8 84 26 3e c6 79 47 bd 3e 06 5d bd
       -0.11760993 0.1626159 -0.048700117 -0.05396103
000310 96 59 d7 bd 0e ce 29 3e 6b d1 c7 bd 76 b6 82 3d
       -0.10515134 0.1658251 -0.0975674 0.06382458
000320 ee ac 1e bd 21 39 bb bd de a2 db 3d a1 d6 2a 3e
       -0.038739137 -0.09141756 0.10724424 0.16683437
000330 b6 5a 9f 3d a3 08 ac 3c 31 39 1e 3e 3b 42 22 3e
       0.077809736 0.021000212 0.15451504 0.15845577
000340 2e 27 37 be fa 10 68 bc 6f a7 99 bd 77 56 8c bb
       -0.1788604 -0.014164204 -0.075026385 -0.0042827684
000350 c3 a4 b5 3d b2 04 ba 3d 4b 4d d0 bd 38 80 95 bd
       0.088693164 0.09082927 -0.101709925 -0.072998464
000360 d9 f7 20 3e 2b 72 b3 3d ed 64 2f be 08 03 2a be
       0.15719546 0.0876201 -0.17128344 -0.16602719
000370 b1 e2 03 3d 3d 62 64 bc bb a8 dd 3c 2c d6 c3 bc
       0.03219861 -0.013939437 0.027057996 -0.023905836
000380 78 d5 17 bd 05 35 0a be 40 3c 4e 3c 67 fa ea 3c
       -0.037068814 -0.13496788 0.012587607 0.028683854
000390 35 58 57 bc 04 9d 3c 3d 96 22 1b be 4b 05 b0 3d
       -0.013143589 0.04604818 -0.15149912 0.085947596
0003a0 a7 c4 3c be 77 8c fb bd d3 63 cb 3d 10 1c 8e bd
       -0.18434392 -0.12282651 0.09931149 -0.06938946
0003b0 2f 58 13 3e 9a 67 c2 3d 38 22 ce 3d 71 65 10 3e
       0.14389108 0.09492417 0.100651205 0.14101197
0003c0 46 0f 22 bd 2d a4 63 bd 47 e3 0b 3e b1 47 27 3e
       -0.039565347 -0.055576492 0.13660918 0.16335942
0003d0 5c e5 8f 3d 6f 55 0f be 5f ad 93 3d 30 d6 0f 3e
       0.07026169 -0.13997434 0.07210802 0.1404655
0003e0 a1 1f 9e bd a2 0a df bd 09 10 22 bd 34 47 17 3e
       -0.077208765 -0.108907 -0.039566074 0.14773256
0003f0 db 43 c5 3d 1c 4f 86 3d f6 69 c5 3d 6a 97 f3 bd
       0.09632083 0.06558058 0.09639351 -0.11894114

module.lin3.bias f4 [32]
000000 3c 22 31 be f9 30 a5 bc da 2f 2e 3e 70 ef f8 3d
       -0.17298216 -0.020164954 0.17010441 0.12155044
000010 32 6e 2e bc 11 34 12 be 3a ab 6d bd 24 a8 bc 3c
       -0.01064639 -0.14277674 -0.058024622 0.023029394
000020 62 c1 23 be 34 13 1e 3e 70 45 05 be d4 ed 0f 3e
       -0.15991738 0.15437013 -0.1301477 0.14055568
000030 a9 a2 27 bd 81 e9 10 bd f8 f3 b1 bd 11 30 81 3c
       -0.04092661 -0.035378937 -0.086891115 0.01576999
000040 38 86 a5 3d 29 f7 79 bc b0 db 2e be e4 ce 35 bb
       0.08082241 -0.0152566815 -0.17075992 -0.0027741725
000050 76 68 b1 bd e8 27 9c 3d db 69 fb bd 54 e5 44 bd
       -0.086625025 0.07624799 -0.1227605 -0.048070267
000060 e4 3a 1f bd 03 c3 c8 3c fa 76 b1 3d 75 e1 8f bd
       -0.03887452 0.024507051 0.08665271 -0.070254244
000070 d5 05 b4 3d 14 3f 6b 3d d5 ea 86 bc df 33 48 bd
       0.08790175 0.057433203 -0.016469399 -0.048877593

module.lin3.parametrizations.weight.original0 f4 [32, 1]
000000 ca e4 05 3f a1 1a 25 3f 7b 4b 1c 3f 3b f1 0f 3f
       0.5230223 0.6449376 0.61052674 0.56227463
000010 80 2d 0b 3f 1f b3 12 3f dc 51 11 3f a2 26 18 3f
       0.543663 0.5730457 0.5676553 0.5943395
000020 56 c2 10 3f 8a 04 11 3f 9f 85 1d 3f ac e6 09 3f
       0.56546533 0.5664755 0.61532015 0.538676
000030 5f 38 17 3f 20 f8 15 3f 09 4d 13 3f bf b2 15 3f
       0.5907039 0.58581734 0.5753942 0.5847587
000040 3a d1 0d 3f 94 6b 1f 3f 6f f8 1e 3f 22 b4 13 3f
       0.5539738 0.62273526 0.6209783 0.57696736
000050 62 71 1b 3f a7 f8 18 3f 2d 42 11 3f d9 27 0e 3f
       0.60719883 0.59754413 0.567416 0.5552955
000060 82 49 12 3f 3e 2b 05 3f e7 7e 15 3f ab d2 0a 3f
       0.57143414 0.5201911 0.5839676 0.54227704
000070 8f 80 27 3f 95 03 16 3f ab 10 13 3f 88 91 31 3f
       0.6543054 0.58599216 0.5744731 0.6936269

module.lin3.parametrizations.weight.original1 f4 [32, 32]
000000 59 71 d5 3a f7 a9 bb bc cf c0 2b be a6 04 8a bd
       0.0016284391 -0.022908194 -0.1677277 -0.06739168
000010 2e 53 a3 bc 43 89 d6 3d 78 b5 25 3d 66 02 5c bc
       -0.019937124 0.10475399 0.040456265 -0.013428306
000020 21 96 da bd 23 f4 62 bc c5 f8 38 3e d8 68 ba bd
       -0.10673166 -0.013852152 0.18063648 -0.091020286
000030 9b 13 e1 3d 2a e7 17 bd f5 de 16 3e 40 51 7d 3d
       0.109900676 -0.03708569 0.14733489 0.061845064
000040 ff 17 ef bd b9 cb 10 be 9f 04 62 3c 59 28 34 be
       -0.11674499 -0.14140214 0.013795047 -0.17593516
000050 bf e6 d2 bd 77 f9 7c 3d 6e a9 95 bd 2a ac d5 bb
       -0.102979176 0.061761346 -0.07307707 -0.0065207677
000060 7a 78 19 3e 43 38 6b 3c db 45 0e be 18 f6 b3 3d
       0.14987364 0.014356676 -0.13893835 0.08787173
000070 74 15 20 3d 37 f0 8b bc b8 d1 4c bd fb 41 2c 3e
       0.03908296 -0.017082317 -0.05000469 0.16822045
000080 67 87 ee bd b2 47 71 3d 48 61 2c be 4e ce ce bd
       -0.1164692 0.058906265 -0.16833985 -0.10097943
000090 28 9a 95 bd 1b ba 21 be c9 71 2a be ea e9 1e 3e
       -0.073047936 -0.1579365 -0.16644968 0.15518919
0000a0 c2 4a 0a be 2f 78 3a 3e dd 70 d2 3d 9d 79 86 bd
       -0.1350508 0.18209909 0.10275433 -0.06566165
0000b0 52 30 bf 3d 63 b7 93 bc ed 8e 75 3c 8e c6 ce 3d
       0.09335388 -0.018031782 0.014987689 0.10096465
0000c0 bc c4 ba bc eb b5 d9 bd 41 49 13 3e 01 1a cb 3d
       -0.022798888 -0.10630401 0.14383413 0.09917069
0000d0 f1 fd e8 3d f3 c7 19 be fb 3b a0 3d 97 5a fb 3d
       0.113765605 -0.15017681 0.0782394 0.12273138
0000e0 08 99 d1 bc 05 22 a9 bc 7c e2 25 be b0 b3 91 bc
       -0.025585666 -0.020646105 -0.16199678 -0.017785877
0000f0 ab c9 09 be 20 73 14 be a5 1d 65 bd 33 b9 cd bc
       -0.13455836 -0.14497042 -0.055936474 -0.025112724
000100 fe a8 2a be 2d b9 f6 3d 66 3c e4 bd 62 e0 12 3e
       -0.16666028 0.12047038 -0.111443326 0.14343408
000110 0f ae cd bc 4d 52 a4 bd 0c 86 e2 bd 38 e0 c5 bd
       -0.025107412 -0.0802351 -0.11060724 -0.09661907
000120 5d 27 88 3d 62 d9 11 bd d8 73 e3 bc f3 c3 33 be
       0.06648133 -0.035607703 -0.0277652 -0.17555217
000130 b3 6b 08 be 39 31 0c 3e 1f f5 47 3d 75 c7 bc bd
       -0.13322334 0.13690652 0.04881775 -0.09217731
000140 02 74 e3 3d ed d9 4f 3c bf 04 e3 bb 23 5f e6 bd
       0.11106111 0.012686235 -0.006928056 -0.11248615
000150 b1 07 28 3e ee 0a 39 3e 19 d9 23 be 20 ab c0 3d
       0.16409184 0.18070576 -0.16000785 0.094076395
000160 f9 5f a8 3b 13 26 9c bd e1 c8 5e bd cb 81 3a 3e
       0.005138394 -0.076244496 -0.05439079 0.18213575
000170 1b 4e 96 3d b6 78 2c bd cd 3b b0 bb a3 aa 1a 3e
       0.07339116 -0.042107306 -0.0053782226 0.15104155
000180 fe b1 9c 3c 04 f6 3c 3d 48 eb 71 bb 35 22 82 bd
       0.019127842 0.046133056 -0.003691392 -0.06354181
000190 d2 7f 12 3d be d5 91 3d b8 dc f4 bd 67 4d 6e 3d
       0.03576643 0.07120846 -0.11956161 0.058179285
0001a0 07 03 0c be ea ba cb bc f1 11 49 3b 93 c3 a4 bd
       -0.1367303 -0.024869401 0.003068086 -0.08045115
0001b0 ae 0d 22 be 46 90 15 3e fa 3d 79 bd 05 f2 77 bd
       -0.15825531 0.14605817 -0.06085012 -0.060533542
0001c0 b9 eb 8d 3d 8b a3 9e 3d 97 64 0d be 8a 58 56 bd
       0.06929726 0.07746037 -0.13807903 -0.05233053
0001d0 c0 82 18 3e 8e 15 b8 bd bd be c2 bc 29 9a b8 3d
       0.14893627 -0.08988486 -0.023772592 0.09013779
0001e0 c1 83 1a 3e 8b d2 31 3e d9 29 05 3e a5 4b 1a 3e
       0.15089323 0.17365472 0.13004245 0.15067919
0001f0 97 58 7c bd a4 d6 79 3c c6 35 18 be 34 c3 1a be
       -0.061607923 0.015248928 -0.14864263 -0.15113527
000200 48 56 e2 bc cf 90 9b bd 89 cf bd bd 89 f6 19 3b
       -0.027629033 -0.075959794 -0.092681 0.0023492894
000210 a1 b0 25 be 6b 52 31 be 41 c8 ec 3d 56 be dd 3d
       -0.1618066 -0.17316596 0.11561633 0.10827319
000220 69 73 a6 bd d2 0e ce 3c db 1d ca bd c8 42 19 3e
       -0.081274815 0.025153551 -0.09868976 0.14966881
000230 ce 40 89 bd ce 42 01 3e 55 e3 a2 3d 51 e0 a9 3d
       -0.06701814 0.1262314 0.079535164 0.08294738
000240 30 2a a8 3c d2 0c cd 3c 51 c6 0d be 89 42 19 be
       0.020527929 0.025030527 -0.13845183 -0.14966787
000250 c9 ee 3c 3e 6f b9 07 3b a3 57 55 bd 17 48 34 be
       0.18450464 0.0020709892 -0.05208553 -0.17605625
000260 34 d5 83 3d fb 89 9b bd 8c dd 19 3d 4a d5 92 3d
       0.0643715 -0.07594677 0.0375648 0.07169588
000270 41 4d 52 bd 60 70 b5 bd a5 20 c5 bd ac 18 a1 bd
       -0.051343206 -0.088593245 -0.09625367 -0.07866034
000280 11 a1 3c 3c a0 ad bd 3c d1 15 df bd bc 33 f4 bd
       0.011513011 0.02315408 -0.10892833 -0.1192393
000290 62 99 1b be c5 20 07 3e 32 b6 8e 3b 19 31 16 3e
       -0.1519523 0.13196094 0.0043552155 0.14667167
0002a0 09 bc 24 3e 83 64 31 3d 1a c4 20 3e 0a 57 b9 bd
       0.16087355 0.043308746 0.15699807 -0.090498045
0002b0 70 0e e6 3d 39 fd 21 3e 07 54 86 3d 16 88 81 bd
       0.112332225 0.15819253 0.06558996 -0.063247845
0002c0 99 1b f5 3d a0 74 37 3e e4 74 0e be ce 2b 06 3e
       0.119681545 0.17915583 -0.13911778 0.13102648
0002d0 b7 ca 10 3e 6d ee bf ba 06 fa f0 bb 06 e5 43 bd
       0.1413983 -0.00146432 -0.007354024 -0.047825836
0002e0 c3 d0 9f 3d c4 68 da 3d b4 04 1d 3c 26 58 80 3d
       0.0780349 0.10664514 0.009583641 0.06266813
0002f0 a7 3c 81 bd a5 0b 81 bd e0 61 3c bd 70 03 0d be
       -0.06310397 -0.06301049 -0.04599178 -0.13770843
000300 45 c0 07 3e 9f bb 17 3e 50 9b 28 3e 31 9e f8 3d
       0.13256939 0.14817666 0.16465497 0.121395476
000310 a8 d0 a2 3c 71 fd 06 3e b4 a2 2a 3d b8 5e 0a 3e
       0.019874886 0.13182618 0.041659072 0.13512695
000320 b5 fd 84 3c 17 54 09 bd 59 87 93 3d 55 8b 08 bc
       0.016234258 -0.03352746 0.0720355 -0.008334001
000330 d5 f2 db bd 57 d7 ac 3c f8 c6 0d 3e c4 2f 2f 3d
       -0.10739676 0.021098776 0.13845432 0.042770162
000340 23 6b fe 3d 6f e6 aa 3d 82 31 0c 3d 2e d3 06 3e
       0.124227785 0.08344733 0.0342269 0.13166496
000350 89 07 81 3d 77 e8 25 3e cf a2 ab bd d2 24 58 3d
       0.06300265 0.1620196 -0.08380663 0.05276949
000360 de ba aa 3d d6 d2 2c be 9a e0 38 be 98 ce a0 3b
       0.08336423 -0.16877303 -0.18054429 0.0049074404
000370 e3 03 a2 bd 3c 2b 19 3d 70 c2 b7 bc 6b 74 e3 bd
       -0.079108976 0.037394747 -0.022431582 -0.11106189
000380 90 73 3a be 08 3f 03 bd f0 69 1b be b2 5d e2 3d
       -0.18208146 -0.032042533 -0.1517713 0.11053027
000390 d1 2d 62 3d bb b0 0d 3e cc db bc bd f6 f0 94 3d
       0.055219475 0.13836949 -0.092216104 0.07272522
0003a0 4f c4 38 be 95 ff 0a 3e 1b ec 6d ba bc 66 1f 3e
       -0.18043636 0.1357406 -0.0009076015 0.15566534
0003b0 da 82 00 be e9 4b 3a 3c d0 a1 a4 bd 56 ab ea bd
       -0.12549916 0.011370637 -0.08038676 -0.11458461
0003c0 a5 c8 33 be 39 8c 2e 3e e9 de 0a be 53 2b 27 3d
       -0.17557009 0.17045678 -0.13561596 0.0408128
0003d0 ac 55 31 bb 9d 2e 14 be 51 33 b4 3c 1f 47 dc 3c
       -0.002705912 -0.14470907 0.021997126 0.026889382
0003e0 2d ba f1 bc 63 69 f6 3d f4 d4 4b 3d 81 4c 9e 3d
       -0.02950772 0.1203182 0.049763635 0.07729436
0003f0 85 e1 fd 3d c3 3c 04 bd c6 fe 4f 3d 8a 71 eb bd
       0.1239653 -0.03228451 0.05078008 -0.11496265

module.lin4.bias f4 [32]
000000 0f 23 d4 bd 2c 34 e9 bd 6f 3c 80 bd ff 62 45 bd
       -0.103582494 -0.11386904 -0.06261527 -0.048190113
000010 b5 48 04 be 82 5b 8a bd a6 2c 65 3b 06 bc 83 bd
       -0.1291836 -0.06755735 0.003496924 -0.06432347
000020 b4 6a 03 be aa 2f 7b bc ce 15 68 bd dc 81 0c 3e
       -0.12833673 -0.015331188 -0.05666142 0.13721412
000030 af be 41 bd 77 ee 1f 3d a1 4f e9 bd b5 89 97 bc
       -0.04730099 0.039045777 -0.11392141 -0.018498281
000040 bb 1d 55 3d 89 a0 e4 bd 7c 74 d2 3b d4 3e 56 3c
       0.052030306 -0.11163432 0.0064225774 0.013076503
000050 9f 53 d4 3a 77 09 cc bd ac 6f 19 3e a9 9c df bc
       0.0016199237 -0.09962743 0.14984006 -0.027296381
000060 d9 dc 9b bd a0 6a a1 bb 2c ac 5d 3c 72 f9 a2 3c
       -0.07610483 -0.004926041 0.0135298185 0.019894335
000070 00 89 ea bd 3d 54 de bc dc 0b 03 3e 03 d3 12 3e
       -0.11451912 -0.027139777 0.12797493 0.14338307

module.lin4.parametrizations.weight.original0 f4 [32, 1]
000000 e0 94 0c 3f b2 5c 05 3f b7 37 0f 3f 31 73 19 3f
       0.54914665 0.52094567 0.5594439 0.59941393
000010 a0 58 02 3f 29 6b f5 3e bd 09 0b 3f c3 18 20 3f
       0.5091648 0.4793332 0.54311734 0.62537783
000020 9b b5 1d 3f 13 75 24 3f 4a de 0f 3f 6d c8 29 3f
       0.6160523 0.6424114 0.5619856 0.6632145
000030 ef 80 06 3f ec 72 1e 3f 1b e0 05 3f 67 41 1b 3f
       0.5254049 0.61894107 0.5229508 0.6064667
000040 fa 94 05 3f 16 ea 11 3f a7 58 12 3f ae 51 06 3f
       0.52180445 0.5699781 0.5716652 0.52468383
000050 67 54 0f 3f c4 e6 07 3f c6 9e 24 3f a6 26 04 3f
       0.5598816 0.53086495 0.6430477 0.5162147
000060 f6 70 1a 3f 43 a9 06 3f 60 79 26 3f dd e7 1b 3f
       0.60328615 0.5260202 0.65028954 0.6090067
000070 10 49 10 3f c8 b9 1e 3f d9 2f 04 3f b2 37 20 3f
       0.56361485 0.6200223 0.5163551 0.62584984

module.lin4.parametrizations.weight.original1 f4 [32, 32]
000000 81 63 52 bd 67 84 31 bd 70 9a 29 be b8 91 33 bb
       -0.051364426 -0.04333916 -0.1656282 -0.0027400088
000010 61 42 ec bc 0c 3f 86 bd 2f 0d 30 be 6d 8b e0 bd
       -0.028840246 -0.06554994 -0.17192529 -0.10964093
000020 82 6d 79 3c d1 6e a2 bd 0f aa 34 3e 15 00 a3 3d
       0.015223863 -0.07931293 0.17642997 0.07959
000030 ba 52 8c bd 65 be 73 bd 6b b9 2c bd 11 db 2d bb
       -0.06851716 -0.059507746 -0.042169016 -0.0026528279
000040 50 dc b0 bd 7d 7c 1b be a7 c1 a1 3d 08 e6 aa 3d
       -0.08635771 -0.15184207 0.078982644 0.08344656
000050 c3 2f 8f bd b2 e9 f5 bd 77 4b 80 3d 11 1e ed bd
       -0.06991532 -0.120074645 0.06264394 -0.11578
000060 06 7b 40 3d d3 9f be bd 29 c7 f2 3d d5 6f 21 be
       0.046992324 -0.09307828 0.11854393 -0.15765317
000070 b0 31 ae 3b 0a ae 19 be 8b 1f b3 bd a5 7d bd 3d
       0.005315982 -0.15007797 -0.08746251 0.092524804
000080 f0 e8 00 3e 68 6b 31 be 28 dc 7c 3d 49 26 65 bb
       0.12588859 -0.17326128 0.061733395 -0.0034965447
000090 d3 38 00 be 8b 76 bd bd f6 aa 85 bd 9b 84 bb bd
       -0.12521677 -0.09251126 -0.06526749 -0.09156152
0000a0 b7 c9 aa bd 9d 3b 60 bd 47 2c 71 bd 11 eb c2 3c
       -0.08339255 -0.05474435 -0.058880117 0.023793729
0000b0 5d 16 28 be b5 ed 72 bd d3 09 bd bd 14 a6 bc 3d
       -0.16414781 -0.059308726 -0.092303894 0.092113644
0000c0 90 df 55 3d ce 19 96 bd be 66 86 3d d9 5f 37 3d
       0.05221516 -0.073291406 0.06562565 0.04476914
0000d0 82 25 9a bd 75 39 0f be 41 91 c0 bd 2e a1 6f 3d
       -0.07526685 -0.13986762 -0.09402705 0.058503322
0000e0 af 1a 0d be 02 99 ff 3d eb c8 61 bd 00 c6 44 bd
       -0.1377971 0.12480356 -0.05512325 -0.04804039
0000f0 10 51 6e bd 93 aa a9 3d 1c 71 15 be 44 5c f6 3a
       -0.058182776 0.082844876 -0.14593929 0.0018795808
000100 22 bd cb 3d 0d 00 1d 3e 15 44 84 bd c8 5a 0c 3c
       0.099481836 0.1533205 -0.06458298 0.008566566
000110 4f d5 0c 3e ed 76 b4 bd e1 25 0a be 1e 84 1b be
       0.13753246 -0.08811746 -0.13491012 -0.15187117
000120 16 d3 12 3e 6f 17 c2 bd c6 a1 35 3e f1 df e3 3d
       0.14338335 -0.09477126 0.17737493 0.11126698
000130 77 3e 6f 3d b1 25 cb bd db 50 e3 bd bf 40 0f bd
       0.05840918 -0.099192984 -0.11099406 -0.034973856
000140 df ca 7b bd cf cf b6 bb 52 37 7e 3c 09 ba 54 bc
       -0.06147277 -0.005578972 0.015516119 -0.012983807
000150 08 97 32 be 1c e7 20 3d ba 2e 16 be 64 a6 a8 3d
       -0.17440426 0.039282903 -0.14666262 0.082348615
000160 3d 1a 8c bd 5e 42 7e 3d ae c7 1f 3e d6 07 0f 3e
       -0.06840942 0.06207501 0.15603516 0.13967833
000170 d9 1a b7 3d 6e 63 8d bd e6 52 22 3d 89 23 d8 3d
       0.08940668 -0.0690373 0.03962984 0.10553653
000180 e9 02 97 bd 3e db 19 be 94 d3 87 3d 5c 9c 13 be
       -0.07373602 -0.1502504 0.06632152 -0.14415115
000190 76 66 c6 3d ff 64 60 bd 33 c5 22 be ac 38 91 bc
       0.096875116 -0.054783817 -0.15895538 -0.017727219
0001a0 19 0a 55 3c c9 96 63 bd 4a 1e 22 bb 7d 44 db 3d
       0.013002896 -0.05556372 -0.0024737292 0.107064225
0001b0 40 a6 80 bd 71 a0 4b bd f3 00 12 be 35 3a ad 3d
       -0.0628171 -0.049713556 -0.14258175 0.08458368
0001c0 ac d7 60 3d 65 12 52 3d 15 3e f3 3d c0 45 f6 3d
       0.05489318 0.051287074 0.118770756 0.120250225
0001d0 6d 5c 1a be dd 9a a3 3d 97 c1 06 3e 2e b2 2a 3d
       -0.1507432 0.07988522 0.13159786 0.04167383
0001e0 27 f6 22 be 8a e0 dc 3d 59 f3 27 3d e5 b7 21 3e
       -0.15914212 0.10785015 0.04100356 0.15792806
0001f0 b3 80 b3 3d fb ca c7 3d f0 44 1c be 1c aa c1 bc
       0.08764782 0.09755512 -0.15260673 -0.023640685
000200 5f cc 23 be d8 8d 31 be 36 0d c6 3d e0 e5 d5 bd
       -0.1599593 -0.17339265 0.096704885 -0.10444236
000210 68 bd f6 3c e9 fb c5 bc 9c b3 99 3d 09 07 44 3d
       0.030119613 -0.024167972 0.07504961 0.04785827
000220 05 66 03 bd e7 ae 33 3e 6c 60 a2 3c 53 c3 ab bd
       -0.032079715 0.17547189 0.019821368 -0.083868645
000230 c3 52 12 bd db 4e 04 be f8 13 4b bd 34 6f b5 3d
       -0.03572346 -0.12920706 -0.04957959 0.08859101
000240 de 10 00 3e 39 d8 e9 3d 2a d2 fd bc 64 3e 9a bd
       0.12506434 0.11418194 -0.030984003 -0.07531431
000250 4c 2a 84 3d ff 5a 28 bd 43 02 ea bd 32 56 4b 3d
       0.0645338 -0.041102406 -0.11426213 0.04964275
000260 e7 e3 d8 bd 0d ba f5 bd 1a 67 10 3d 3f 7c 3a 3d
       -0.10590344 -0.11998377 0.035254575 0.045528647
000270 e2 ba fb ba 89 40 48 3c 85 f6 5e bd ef 1e 08 be
       -0.0019205476 0.012222418 -0.054434318 -0.1329305
000280 8c ec 94 3d ec e3 0d be eb fc a9 3d 12 dd 93 3c
       0.0727168 -0.13856477 0.083001934 0.01804975
000290 a1 b2 32 3d 9a 05 1a 3e d7 ad 25 bd db 27 9d bb
       0.043627385 0.150412 -0.04044899 -0.004796011
0002a0 be 66 e8 3d 7d a0 f0 3d fb 9c e2 3d dc 34 13 be
       0.113477215 0.11749361 0.11065098 -0.14375633
0002b0 44 c7 14 3e 6c a3 11 3d e2 12 9a 3d 7e a5 30 3e
       0.14529139 0.035556242 0.07523133 0.1725063
0002c0 8a c5 c8 bd 42 35 a1 bd b6 31 b4 3d 7c 9b ba bc
       -0.098033026 -0.07871486 0.08798544 -0.022779219
0002d0 9d 6f f0 3d f9 14 d4 3d 96 44 90 bd 69 dc 63 bc
       0.117400385 0.10355563 -0.07044332 -0.01390753
0002e0 15 10 70 bd 4f af d1 bd 30 99 88 3c f4 7d 29 bd
       -0.058609087 -0.102385156 0.016674608 -0.041379884
0002f0 1c 42 a3 bb 92 f3 5b bd da f2 85 3b 47 5b b8 38
       -0.004982246 -0.053699084 0.004087788 8.7908054e-05
000300 25 6b 77 3d c7 7f 50 bc 19 81 ce bd 20 32 68 ba
       0.060404915 -0.012725777 -0.10083217 -0.0008857567
000310 bb fc 31 bd d1 ac e8 bd 50 71 20 3e e8 d7 f6 bd
       -0.043453913 -0.11361087 0.15668225 -0.120528996
000320 78 7e ec 3d 00 80 c7 3c e7 1a 57 3d f0 c6 d1 bc
       0.115475595 0.024353027 0.05251589 -0.025607556
000330 06 cf a0 3d fd c2 67 3d 72 ee df bd 31 68 4d bd
       0.078519866 0.05658244 -0.10934152 -0.050148193
000340 ba 9a 2d be 5e f9 2a bd 5d 5e b0 3d ff f9 11 be
       -0.16953555 -0.04174172 0.08611748 -0.14255522
000350 6c ce 15 3e 7c c6 f4 3d 64 d8 65 bc ec 3f e5 3b
       0.14629525 0.119519204 -0.014028642 0.0069961455
000360 12 ae 01 be b3 6d 12 be 36 af dd bd d1 8f 39 be
       -0.12664059 -0.1429966 -0.108244345 -0.18121268
000370 c3 df c6 bd bc ac c0 3d 23 78 a5 bc 5d bb 0b be
       -0.09710648 0.094079465 -0.020198887 -0.13645692
000380 2c 43 dd bc 61 00 18 3e 2e d0 f8 3d 8d 67 8c bd
       -0.02700957 0.14843895 0.12149082 -0.06855688
000390 47 3a f0 bd 37 10 e0 bd 42 3f 02 3e 08 69 b4 3d
       -0.117298655 -0.10940593 0.12719443 0.088090956
0003a0 0e 90 c6 bd 00 41 70 bd b7 d2 f6 bd 67 56 9b 3d
       -0.09695445 -0.05865574 -0.120519094 0.07584839
0003b0 81 b9 b2 b9 56 c8 ba bd d7 f1 24 3e 65 8d 4e bd
       -0.00034089017 -0.09120242 0.1610788 -0.050427813
0003c0 79 60 b9 3d be 1d 94 bc b9 7d ac 3d 46 13 b2 bd
       0.09051604 -0.018080588 0.08422417 -0.08695082
0003d0 bc f3 10 be 72 a1 01 be b7 20 7a 3d b1 68 f0 3d
       -0.14155477 -0.12659243 0.061066356 0.11738718
0003e0 04 7c 4b bd 22 70 22 3e 61 fc 17 be 9d ab 1c be
       -0.049678817 0.15863088 -0.14842369 -0.1529984
0003f0 7f 6e 80 bd 3c b6 ba 3d 65 30 23 3e fc 2c 27 bd
       -0.062710755 0.0911679 0.1593643 -0.040814385

module.lin5.bias f4 [32]
000000 7b f3 0c be bb ce fc bd 2f 13 d8 bd 24 47 c6 bb
       -0.13764755 -0.12344118 -0.10550534 -0.006050961
000010 ae d0 a8 3d 96 cd 15 3e 3a 3d 7a 3d 94 73 2b bd
       0.082429275 0.14629206 0.061093546 -0.04185827
000020 01 37 c7 3c f4 fb 09 3e a0 f1 25 be 3f f8 55 bd
       0.02431822 0.13475019 -0.16205454 -0.0522387
000030 76 8d 79 3d 41 97 d4 3c f4 d9 2c be 34 3b cf 3d
       0.060925923 0.02595103 -0.16880018 0.10118714
000040 05 76 e3 3d 51 22 d5 3c 52 05 d2 bc 72 38 cc 3d
       0.11106495 0.02601734 -0.025637303 0.099717036
000050 3f 69 35 ba 48 1b 15 be 71 86 0f 3e 92 3a c2 3c
       -0.0006920285 -0.14561188 0.14016129 0.02370957
000060 17 68 be 3d 93 09 ba 3c 9f 43 e0 bd 87 96 1b be
       0.09297197 0.022709643 -0.10950398 -0.1519414
000070 07 e5 d6 bd 16 b7 b8 bd 1f 1e 2a 3e 4b 04 0b be
       -0.10492902 -0.09019296 0.16613053 -0.13575856

module.lin5.parametrizations.weight.original0 f4 [32, 1]
000000 fc 61 1b 3f 4c fc 18 3f 34 fc 1c 3f 81 b0 25 3f
       0.6069639 0.59759974 0.6132233 0.6472245
000010 cd 11 1b 3f a4 a0 12 3f 26 10 35 3f 20 c0 04 3f
       0.60574037 0.5727637 0.70727766 0.5185566
000020 96 fc 17 3f ed 94 19 3f 37 00 ee 3e 52 0f 1e 3f
       0.5936979 0.5999287 0.4648454 0.61742127
000030 aa 73 1d 3f ee 61 00 3f dd e6 24 3f 78 f4 0d 3f
       0.61504614 0.5014943 0.6441477 0.55451155
000040 f4 7e 2e 3f b0 9c 18 3f a1 3a 23 3f d0 ef 15 3f
       0.68162465 0.59614086 0.63761336 0.5856905
000050 50 67 0a 3f 30 1f 15 3f 88 52 19 3f 6b 9a 18 3f
       0.5406389 0.58250713 0.5989156 0.59610623
000060 ef 50 1d 3f b2 fc 33 3f 46 b7 21 3f 84 73 19 3f
       0.6145162 0.7030746 0.6317028 0.5994189
000070 36 77 10 3f c5 31 0d 3f 3b a3 24 3f f7 67 1c 3f
       0.564319 0.5515407 0.6431157 0.6109614

module.lin5.parametrizations.weight.original1 f4 [32, 32]
000000 ff 78 fe 3d 72 9c 20 be 51 16 d7 3c 92 26 09 be
       0.12425422 -0.15684679 0.026255758 -0.1339362
000010 cd 2f 1f 3d f9 2f ce bc 14 64 32 be b8 2a 0d be
       0.038863946 -0.02516936 -0.1742099 -0.13785827
000020 b9 f0 e4 bc 0f 2f d8 bd 81 60 f7 bd fe 32 d4 3c
       -0.027946817 -0.10555851 -0.120789535 0.025903221
000030 9a 10 66 3c a0 07 7c bd 2c b8 31 be d0 de 7f bd
       0.014042044 -0.06153071 -0.17355412 -0.06246835
000040 48 59 01 3c 34 ef e5 3d 59 b1 f7 3d 4e a5 19 3e
       0.007894821 0.11227265 0.12094373 0.15004465
000050 c8 8f f7 3d d5 8d 95 3d 5c 3d 25 3e c0 5c 27 be
       0.12087971 0.07302443 0.16136688 -0.16343975
000060 01 e4 c0 3d bb 71 1d be e5 2e 45 bd 30 0d 8c 3c
       0.09418488 -0.15375416 -0.048140425 0.017096132
000070 96 1f af 3c aa 33 8d bd 83 ac fa 3d 67 be fc bd
       0.021377366 -0.0689462 0.12239935 -0.12341004
000080 a3 e9 b4 bc 85 bf 2c be 28 8c 0b 3e 42 fa 12 be
       -0.022084063 -0.16869934 0.13627684 -0.14353278
000090 cf df 22 3d 86 7f 27 3e 2d b5 56 bd bf 0d e7 bc
       0.03976422 0.1635724 -0.052418876 -0.028204797
0000a0 e7 fa 15 bd 65 fe 43 bd 06 84 b2 3d 0c 82 0f 3e
       -0.036616232 -0.04785003 0.08716588 0.14014453
0000b0 8a 62 2c be ef 18 b1 3d f9 08 84 bd e9 49 cb bd
       -0.16834465 0.08647334 -0.06447024 -0.099262066
0000c0 a3 0c d9 3d 5f a1 be 3d 5f 4a 99 3d fc 1f 55 bd
       0.105981134 0.09308123 0.07484888 -0.052032456
0000d0 d7 36 b2 3c d5 9c 59 bd e9 d5 b3 bc e6 e8 25 be
       0.021754665 -0.053128082 -0.021952586 -0.16202125
0000e0 95 09 27 be 68 07 1f 3e ea b4 13 be 54 f1 49 bd
       -0.16312249 0.15530169 -0.14424482 -0.049302414
0000f0 1a f6 8e bd 9f 0b 04 be 96 53 19 3e eb f5 8f 3c
       -0.06980534 -0.12895058 0.14973292 0.017573318
000100 cf 05 14 be 66 66 93 bc e8 28 1f ba ea 3f ff bd
       -0.14455341 -0.017993163 -0.0006071464 -0.124633625
000110 90 7c 74 bd f1 3f fa 3d 67 8e d5 3d 66 40 a9 bd
       -0.059689105 0.12219227 0.10427552 -0.08264236
000120 38 1e 72 3d fa 83 d8 3d a1 1d 30 be a4 39 a2 3d
       0.05911085 0.105720475 -0.17198803 0.0792115
000130 1a ac 72 3c 04 d2 27 be 39 87 26 bd 9d 2f 34 be
       0.01481154 -0.16388708 -0.040656302 -0.17596288
000140 ff 51 1f be 50 63 ad 3d 8e f3 bd bb 68 c3 28 bd
       -0.15558623 0.08466208 -0.0057968562 -0.04120198
000150 6b ef e2 3d 30 f4 30 3e 6a 5d 8d 3d 47 f1 b3 bd
       0.110808216 0.1728065 0.06902583 -0.087862544
000160 60 47 1a 3e b1 6f e7 bd 90 1c fe 3d 57 21 e8 3d
       0.1506629 -0.113006 0.124077916 0.11334484
000170 40 61 0b 3d e1 53 23 be 76 91 d1 bd 1e 3f 87 bd
       0.03402829 -0.15949966 -0.102328226 -0.066038355
000180 a7 04 98 bd 4d f8 7d bd 67 bb d4 3d 78 d8 17 3e
       -0.07422762 -0.062004376 0.10387307 0.1482867
000190 b7 a0 b3 bd 2a 61 a2 3d 14 68 23 be ce c0 2a 3e
       -0.08770888 0.07928689 -0.15957671 0.16675112
0001a0 42 e6 d2 3d 57 11 cd 3d da e6 f0 3d 73 aa 0b be
       0.102978244 0.10013073 0.117627814 -0.1363924
0001b0 f5 aa 03 3e 4d b0 18 3e b8 ba 0d be be 60 a1 3d
       0.12858184 0.14911003 -0.13840759 0.0787978
0001c0 51 b8 1e be dc 7e 1e bd d8 26 67 bc f8 c4 53 bd
       -0.15499999 -0.0386952 -0.014108382 -0.051701516
0001d0 1c af 1e be de c9 a3 3d 63 a6 ec 3c a9 93 19 be
       -0.15496486 0.079974875 0.028887933 -0.14997734
0001e0 29 b1 bb 3d ba 22 34 3d ac 9e 18 3e 1a 2f 39 3d
       0.0916465 0.04397843 0.14904279 0.045210935
0001f0 cc 33 d1 bd c6 5a 0e be 67 b3 d5 3c 1d 02 22 3c
       -0.102149576 -0.13901815 0.026086522 0.009888199
000200 09 3e 4f bd 65 a9 1b be 2a 82 2e 3e c8 7b 02 be
       -0.05059627 -0.15201338 0.17041841 -0.12742531
000210 fd e1 8d bd 15 f5 78 bc 2f 77 82 bd 12 22 2a 3e
       -0.069278695 -0.015195151 -0.06370389 0.1661456
000220 13 2d 31 bd 4b 8d 9d 3d 68 02 ce 3d a2 57 af bd
       -0.043255877 0.07692965 0.10059053 -0.085616365
000230 f6 16 db 3d cb 8f 75 bc 68 fa 18 be 1d d1 2b be
       0.10697739 -0.014987896 -0.14939272 -0.16778989
000240 88 46 94 bc 61 9e d2 bd 88 bf 1d 3e ec bb 89 bd
       -0.018100038 -0.10284115 0.15405095 -0.067252964
000250 4e cc c5 3d c1 a8 1c bd 9d 0c 16 be 9e b7 c2 bc
       0.09658109 -0.038246874 -0.14653249 -0.023769196
000260 43 65 2f bc a7 a8 93 bc 44 02 ae 3d ca 30 a0 bd
       -0.010705295 -0.018024756 0.08496526 -0.07821806
000270 ab 8d 10 be de 17 05 be 13 6e 7a 3d 24 fb 1a be
       -0.14116542 -0.12997386 0.06114013 -0.15134865
000280 19 64 16 bc ef 8b 9b 3d da d6 1c bd 52 e7 01 bd
       -0.009179139 0.075950496 -0.038290836 -0.031714745
000290 f8 85 a6 3d a7 ea 18 be 3e 9e d3 3d 30 8d 55 bd
       0.08131021 -0.14933263 0.10332917 -0.0521366
0002a0 78 ba cf bd cc 19 0e 3e 7e 45 1f 3e 9e 31 fd bd
       -0.10142988 0.13877028 0.15553853 -0.12362979
0002b0 91 e2 15 3e 3f fa d9 bb 81 85 d7 3d aa ab 04 3e
       0.1463721 -0.006652146 0.10523511 0.1295611
0002c0 16 4b 05 bc 2f b0 84 3d 29 35 d6 bd fb df ce bd
       -0.008135578 0.06478917 -0.10459358 -0.10101315
0002d0 8b 9c 16 3e 2d 5c 01 be d0 9a 4a bd 2b 0f db bc
       0.14708154 -0.12632819 -0.049464047 -0.026740631
0002e0 70 4f 24 3e 73 ce 12 be 58 36 71 3d 0e 54 89 3d
       0.16045928 -0.14336567 0.058889717 0.06705485
0002f0 65 c9 57 3d 17 78 19 3c 7e 36 c7 bc 3a df 81 3d
       0.0526823 0.009367011 -0.024317976 0.06341405
000300 46 40 ac bc c6 40 20 3e 2e 2c f6 bd c3 a1 08 be
       -0.021026742 0.15649709 -0.12020145 -0.13342957
000310 52 0c 18 be ce 9b 31 be b6 99 83 3b d0 52 e0 bd
       -0.1484845 -0.17344591 0.0040161265 -0.10953295
000320 bd ec e1 bd f1 d4 bb 3d ab c1 be 3c 84 c9 09 3e
       -0.11031482 0.09171475 0.023285707 0.13455778
000330 92 01 21 3e f8 a0 25 be cd 59 2f 3e d1 91 1c be
       0.15723255 -0.16174686 0.171241 -0.1529
000340 10 9d 1f 3e 8a 84 15 3e 52 cf ab 3d da 6b 02 be
       0.15587258 0.14601341 0.083891526 -0.12736455
000350 d0 db e6 bc 19 01 fc 3d ac c9 c8 3c bd 17 bb 3c
       -0.028180987 0.12304897 0.024510227 0.022838468
000360 d4 5d 1a be 56 86 38 be e4 d6 e6 bd 23 0e ce 3d
       -0.15074855 -0.18019995 -0.11271456 0.1006129
000370 63 62 f6 bd 49 81 0e 3e 6b 64 24 3e 0b 25 37 3d
       -0.120304845 0.13916506 0.16053931 0.04471306
000380 18 78 8a bd 86 68 01 be 9d f5 80 3d d8 c1 69 bd
       -0.06761187 -0.12637529 0.06296847 -0.05706963
000390 07 8b ae 3c ac 54 a1 3c 5d 17 dd bc 93 e0 0e 3e
       0.021306528 0.019693695 -0.02698868 0.13952856
0003a0 5e 7a 3f bd 35 f9 d0 3d 1b 85 35 3b e4 07 1f 3d
       -0.046747558 0.102037825 0.0027697745 0.038825884
0003b0 6f 29 dd bd 8e d4 c1 3c 35 c5 4b 3d 4e 67 01 3e
       -0.107989185 0.023660924 0.04974862 0.12637064
0003c0 f8 58 cd 3c 77 0b c4 3d 61 59 3c bd 11 33 e1 3d
       0.025066838 0.09572499 -0.045983676 0.10996068
0003d0 fd 57 af bd af d5 78 3d c8 86 00 bd 38 fc 9b 3d
       -0.08561704 0.06075066 -0.031378537 0.07616466
0003e0 ca 5b 37 bd a0 0a 18 be 37 90 4f bd a5 54 dd 3d
       -0.04476527 -0.14847803 -0.050674643 0.1080716
0003f0 19 46 aa bd a2 f8 24 3e 96 cb d7 3c 99 01 1d 3e
       -0.08314151 0.16110471 0.026342195 0.1533264

module.lin6.parametrizations.weight.original1 f4 [1, 32]
000000 1c 6c 50 3c 01 01 11 bd 28 71 13 be 85 f6 13 3d
       0.012721088 -0.035401348 -0.14398634 0.03612377
000010 03 1f 21 bb a3 f1 39 bd 66 93 b9 bc 19 6d 00 3e
       -0.0024585135 -0.04539646 -0.022653293 0.12541617
000020 36 d7 20 be 20 e2 bc bd 0e 22 a2 bc 98 4c f0 3c
       -0.15707096 -0.092228174 -0.01979163 0.029333398
000030 3f 6b 09 be bd b1 f4 3d dd 55 08 3e e3 c5 ed 3d
       -0.13419817 0.119479634 0.13314004 0.116100095
000040 70 c2 e5 bd 7b 02 ef bd a6 a0 e2 3c ca ea 27 bd
       -0.11218727 -0.11670395 0.027664494 -0.040995397
000050 13 6f 2f be 6d c0 1c 3e 6d 74 ab bd 85 9d ae 3b
       -0.17132215 0.1530778 -0.08371816 0.0053288364
000060 7a a8 a6 bb 04 83 9a bb bb 95 9e 3c ef 09 9e 3d
       -0.005086002 -0.0047153253 0.019358506 0.077167384
000070 1f a9 2a be 30 30 18 3e a7 a6 dd 3d 2b 21 a4 3d
       -0.16666077 0.14862132 0.10822802 0.08014139
