DeepSDFStruct/trained_models/chi_and_cross/LatentCodes/latest.pth (torch, 2199 bytes, 1 tensors)

weight f4 [120, 2]
00000000: 9958 653e cda4 79bf bdac 98be f174 cb3d
00000010: a0b1 c23e deaf 5ebf ab65 edbd e43b 0a3e
00000020: d262 f9bc 4615 263e 26b3 693d 53db 433e
00000030: 4a73 163e c142 5b3e e378 6e3e 9a3f 723e
00000040: 2239 a33e 27f5 7e3e a6c9 c73e ff8b 8c3e
00000050: 112b 4e3e af30 6fbf 4dd1 c5be 09ea 223f
00000060: 6ce1 37be ea59 8f3d fbe3 a3bd 6ac6 953d
00000070: 1aa1 0d3c e370 c93d a5e5 bb3d 3209 043e
00000080: d61b 343e bdbb 243e 9734 823e 9bed 413e
00000090: 3c5c ac3e efa0 523e 5de1 d63e 0986 5a3e
000000a0: 98c4 b1be 4f4b 813c 3e4d 99be ceb3 dc3d
000000b0: 3535 05be 93f3 58bc 9a57 21bd 836a a23b
000000c0: 1e41 3b3d eb66 0c3d 07cc 4f3d d4ca 4d3e
000000d0: b3fd 563e b847 c83d 4b8e 933e 1700 003e
000000e0: f0d2 bb3e 9c18 143e 70aa e43e ae5c 1d3e
000000f0: 5d85 94be adbf a6bd 59dd 99be c5d7 e73d
00000100: efe0 bbbd a5cb 9fbd 99e9 55be a74c 113f
00000110: 5ea5 9e3d aa5a c7bc 1065 243e 86f4 113c
00000120: 09dc 723e 7042 313d e3b2 a13e f144 933d
00000130: b696 c83e 80c3 b33d 08cc f23e a20b c53d
00000140: b017 f5be f45b f33e 31c4 573e 7b85 42bf
00000150: e084 64bd 1df7 0abe 370c 08be ba52 2d3e
00000160: 0469 3abd b032 463e bde0 413e 4c68 38bd
00000170: b76b 883e cc43 51bc 454e 513e 6a74 873e
00000180: 4af2 d73e ce19 043d 6513 b13e 68a1 a13e
00000190: 9130 e23d 7c62 42bf 8712 cabe f846 de3e
000001a0: 7445 8fbc ae7d 4dbe e199 0dbe 23e1 393e
000001b0: 53fb 103e 148e 0dbe 2ddb 073d 2547 6b3e
000001c0: 6bb1 ec3d 5293 823e 0fcb bf3e d1b8 33bd
000001d0: a2d6 e73e 0ae2 eabc 25ed 073f e79a a0bc
000001e0: 928e 1abe 8ca7 96be 67ed 85bd d294 90be
000001f0: 0cff 6dbe a11d 363e 1480 d93d 5cdd 77be
00000200: 8764 383e ea74 4fbe 11ff 813e 0ee0 24be
00000210: f9f2 c53d fc2c 903e 32b7 2b3e 5793 9f3e
00000220: b04a f63e 5b5d b3bd 0c90 0f3f 5318 adbd
00000230: 45f7 e7be 3ebd 943e e585 63bc 66ef b7be
00000240: 0719 883d 2ada abbe 6854 29be ca81 6e3e
00000250: 3beb 5c3e 518a 87be 9de0 8abb 687e 933e
00000260: d3e4 b93e 8dce 44be 7d66 e03e 3e08 2fbe
00000270: 7a8f 043f 0278 24be fc1e 193f 03ae 2abe
00000280: f756 fabc d05c f2be d4cc babe 6628 913e
00000290: efbf 8bbe e51d 8a3e 9001 473e ef9f c6be
000002a0: 9be8 853e f19f afbe 2290 0cbd 2aaf ab3e
000002b0: cb36 1b3d a1f6 ba3e 8e09 d63d ad94 ca3e
000002c0: ac1d 113f 0128 84be 5628 263f c079 89be
000002d0: 9f12 c93c 3a1a 0bbf adb0 c43d e499 05bf
000002e0: 0acb 94be c5dc a73e 73c2 5ebe 6c89 b13e
000002f0: 4742 11be 7710 bc3e e3e9 c83e c06b d0be
00000300: 7bdd ef3e 5fe7 c4be 6ded 0b3f 4543 bdbe
00000310: bd1f 083e 6b08 f33e 1bf7 313f cb70 bebe
00000320: 62e2 69bf 5b1a bb3c dc0d 67bf 7089 6a3b
00000330: 4b05 5fbf 1d7e 4ebd 9b49 55bf c9bf eebd
00000340: 088d 4bbf cf4d 42be 2a26 71bf 11d3 4b3e
00000350: ef6f 3bbf 727a 9abe ecd9 31bf 62b5 b7be
00000360: 8262 2abf 7747 d4be 8a87 21bf 16f4 f2be
00000370: 1be1 72bf 5781 a13e ea86 11bf 1885 15bf
00000380: d93c 0abf d552 23bf d818 00bf 62e4 34bf
00000390: e895 f2be 4200 40bf a445 e8be c73f 4cbf
000003a0: 0733 d5be 9e7a 5abf 6633 c9be 148a 65bf
000003b0: 18d3 c3be 4899 6cbf c365 c3be 9cbf 6cbf
0.22397079 -0.9751709 -0.2981929 0.09934414 0.38026142 -0.869871 -0.11591657 0.13499409
-0.030442629 0.16219053 0.057055615 0.19126634 0.14692417 0.21412183 0.23288302 0.23657075
0.31879526 0.24898206 0.39021033 0.2745056 0.20133616 -0.9343366 -0.38636246 0.6363836
-0.17957085 0.069995716 -0.08002468 0.07313235 0.008644367 0.098359846 0.091746606 0.12894133
0.17588744 0.16087241 0.25430748 0.18938296 0.3366412 0.20569204 0.41968814 0.21340193
-0.34720302 0.01578298 -0.29941744 0.107764825 -0.13008578 -0.013241666 -0.039390184 0.004956545
0.045716397 0.034277838 0.050731685 0.20096904 0.20995216 0.09779304 0.28819498 0.12500034
0.3668437 0.14462513 0.44661283 0.15367386 -0.29007998 -0.08142028 -0.30051687 0.11320452
-0.09173762 -0.07802514 -0.20889892 0.5675759 0.07746385 -0.024335224 0.16054177 0.008908397
0.23716749 0.04327625 0.31581792 0.07190884 0.39177483 0.08777523 0.47421288 0.096213594
-0.47869635 0.47531092 0.21070935 -0.75984925 -0.055790782 -0.13570829 -0.1328591 0.16926089
-0.045510307 0.19355273 0.18933387 -0.04502134 0.2664468 -0.012772512 0.20440014 0.26456004
0.4217704 0.03225117 0.3458511 0.31568456 0.110444196 -0.75931525 -0.3946726 0.4341352
-0.017489173 -0.20067474 -0.13828231 0.18152289 0.14158373 -0.1382373 0.033168007 0.22976358
0.11557277 0.2550302 0.3745961 -0.043877427 0.4528094 -0.028672237 0.5309623 -0.019605113
-0.15093449 -0.29424703 -0.065394215 -0.2823854 -0.23241824 0.1778474 0.10620132 -0.24205536
0.18007098 -0.20259443 0.25389913 -0.16101095 0.09665484 0.2815932 0.16769102 0.311671
0.48103857 -0.087580405 0.56079173 -0.08451905 -0.4530584 0.2905063 -0.013886903 -0.35924834
0.066453986 -0.33564883 -0.16536105 0.23291698 0.21574108 -0.26472715 -0.004238202 0.28807378
0.36307392 -0.19219418 0.43828192 -0.17092988 0.5178143 -0.16061404 0.59812903 -0.16667943
-0.030559046 -0.47336435 -0.36484396 0.28351134 -0.2729487 0.26975933 0.1943419 -0.38793895
0.26154026 -0.34301713 -0.034317143 0.33532077 0.03789405 0.36516288 0.10451041 0.39566556
0.566859 -0.2581177 0.649053 -0.268507 0.024545012 -0.54336894 0.09604011 -0.52187943
-0.29061157 0.3278562 -0.21753864 0.34675157 -0.14185439 0.36731312 0.3924094 -0.40707207
0.46848664 -0.38457772 0.5465916 -0.36965385 0.13293357 0.4746736 0.6951768 -0.3719543
-0.9136106 0.022839716 -0.9025552 0.0035787486 -0.8711745 -0.05041324 -0.8331544 -0.11657674
-0.7951207 -0.18974994 -0.9419886 0.19904734 -0.7321767 -0.30171543 -0.6947315 -0.35880572
-0.6655656 -0.41460773 -0.6309744 -0.47451848 -0.94874734 0.3154399 -0.5684649 -0.5840621
-0.53999096 -0.63798267 -0.5003791 -0.70660985 -0.47379994 -0.75000393 -0.45365632 -0.79784817
-0.41640493 -0.8534335 -0.39297026 -0.89663815 -0.3824699 -0.9242139 -0.38163576 -0.9247987
