DeepSDFStruct/trained_models/chi_and_cross/ModelParameters/latest.pth (torch, 341630 bytes, 19 tensors)

module.lin0.bias f4 [128]
-0.12273049 0.10638269 -0.10508391 -0.39428663 0.046689052 0.009776861 -0.13416371 0.006650275
0.24306114 -0.2410601 -0.23785925 -0.25485212 0.23179162 -0.24496374 -0.1151597 -0.45920828
-0.25100127 -0.07792949 0.009890054 0.17051075 -0.40694192 0.0069985744 -0.38546032 -0.3324124
-0.24104528 0.04679837 -0.27980015 0.07718327 0.19921291 -0.2846654 -0.10747607 -0.21464029
-0.24944578 -0.33195323 -0.38315368 -0.26984438 -0.14627494 -0.25952902 0.111909725 -0.13911982
-0.22458799 -0.25126573 -0.4549488 0.08565339 0.06852876 -0.34278792 -0.14704545 0.032620702
-0.099291146 -0.39141414 -0.42893746 0.1814322 0.1763708 -0.23389062 -0.009260965 -0.100211665
0.08058815 0.20348744 -0.20860434 0.20475361 0.0013270432 -0.22856046 -0.345441 -0.33003744
-0.24996768 -0.14583403 -0.36865047 -0.17645183 -0.2869003 -0.16658726 -0.24378474 -0.16587001
-0.17365728 -0.19291978 0.13519461 -0.3043991 0.05604395 0.15335555 0.00073261285 0.119198196
-0.23844418 -0.11209615 -0.21297227 -0.34335575 0.10754356 0.23050681 -0.23561957 0.07991492
-0.2273245 -0.21304163 -0.15077229 0.030560482 -0.26096064 -0.23920788 -0.36377525 -0.17281894
-0.0021980826 -0.3680875 -0.12875378 -0.09947975 -0.43703458 -0.375169 -0.41025004 0.18324965
-0.34415513 -0.1994728 -0.036289353 -0.2269736 -0.4609019 -0.50520945 -0.06862031 -0.016506927
-0.014319558 -0.41020256 0.17991829 -0.2568485 -0.35146093 -0.029685207 -0.26079643 -0.29016894
-0.0039812424 -0.23373008 0.16483773 -0.31853896 -0.08399089 -0.32506448 0.20733456 -0.35337034
00000000: 205a fbbd 2bdf d93d 3c36 d7bd f0df c9be
00000010: 053d 3f3d 212f 203c 3662 09be 8dea d93b
00000020: 05e5 783e 75d8 76be 6091 73be fa7b 82be
00000030: c85a 6d3e c6d7 7abe d9d8 ebbd 591d ebbe
00000040: 3d83 80be 7f99 9fbd e509 223c 5f9a 2e3e
00000050: b15a d0be 4c54 e53b 0e5b c5be f531 aabe
00000060: 93d4 76be a6af 3f3d f741 8fbe 4312 9e3d
00000070: 78fe 4b3e aabf 91be 6a1c dcbd aaca 5bbe
00000080: b76e 7fbe c6f5 a9be b82c c4be 0b29 8abe
00000090: 19c9 15be fde0 84be ed30 e53d 6d75 0ebe
000000a0: 65fa 65be e7a5 80be 0def e8be 0b6b af3d
000000b0: ce58 8c3d e681 afbe 1593 16be 499d 053d
000000c0: 2859 cbbd 6f67 c8be b19d dbbe 5dc9 393e
000000d0: 8c9a 343e 0681 6fbe 4dbb 17bc c63b cdbd
000000e0: 660b a53d 035f 503e 609c 55be eeaa 513e
000000f0: 2ef0 ad3a c10b 6abe a5dd b0be abfa a8be
00000100: 87f7 7fbe 8455 15be c1bf bcbe caaf 34be
00000110: 99e4 92be da95 2abe b5a2 79be d4d9 29be
00000120: 37d3 31be c38c 45be 7570 0a3e 33da 9bbe
00000130: 578e 653d 3d09 1d3e d10c 403a 2f1e f43d
00000140: b62a 74be ab92 e5bd 6715 5abe 53cc afbe
00000150: cc3f dc3d fa09 6c3e 4246 71be 6faa a33d
00000160: c1c7 68be 9627 5abe 0d64 1abe fa59 fa3c
00000170: a29c 85be e9f2 74be c040 babe 73f7 30be
00000180: b50d 10bb f775 bcbe 08d8 03be 0abc cbbd
00000190: ffc2 dfbe 2716 c0be 4b0c d2be cca5 3b3e
000001a0: 1a35 b0be 9942 4cbe 25a4 14bd c46b 68be
000001b0: 55fb ebbe 6855 01bf ce88 8cbd 8939 87bc
000001c0: 949c 6abc 1206 d2be 803c 383e a681 83be
000001d0: b0f2 b3be 642e f3bc 1c87 85be 0691 94be
000001e0: 1575 82bb f056 6fbe 39cb 283e 8a17 a3be
000001f0: 6a03 acbd da6e a6be 834f 543e f5ec b4be

module.lin0.parametrizations.weight.original0 f4 [128, 1]
0.97455245 0.7183674 0.8063897 0.266957 0.6813261 0.50619745 0.7744344 0.6769278
0.6422213 0.6306031 0.7406297 0.761508 0.6543933 0.6027638 0.6293241 0.7340798
0.6741383 0.6202728 0.76764286 0.6910189 0.16897827 0.8335105 0.7007412 0.6265481
0.6138942 0.7599 0.72930765 0.8650336 0.53231686 0.7313933 0.7427438 0.6994089
0.56520927 0.6464915 0.83311045 0.8365079 0.7411891 0.8529434 0.7399413 0.8014416
0.46355367 0.82569826 0.7626594 0.7107265 0.8718705 0.70446944 0.85032994 0.88415384
0.9331966 0.8328557 0.6551216 0.41634962 0.61963356 0.50911427 0.8647292 0.8696429
0.5311032 0.6072518 0.5640587 0.5591498 1.0814734 0.94546723 0.6248576 0.7141117
0.55078864 0.68207085 0.6539458 0.7272751 0.62711763 0.5210005 0.82206887 0.7155754
0.6835442 0.6759378 0.4393702 0.570077 0.8528827 0.807754 0.87754273 0.671006
0.7627488 0.7185364 0.76405954 0.6548739 0.6544847 0.68774426 0.83803403 1.0204039
0.78723997 0.5169569 0.74595565 0.50502354 0.6960071 0.77259856 0.68083364 0.64529496
0.6710542 0.8829246 0.7436747 0.8643163 0.8108469 0.19374302 0.75279045 0.50850874
0.726513 0.692035 0.4660033 0.77167004 0.67484283 0.8491197 0.7361286 0.60481197
0.86254644 0.70424426 0.60340905 0.8708039 0.80816704 0.7088254 0.60417783 0.5412223
0.78998816 0.53300923 0.5908562 0.71915394 0.8883597 0.6962001 0.5543396 0.77425605
00000000: 457c 793f ede6 373f 8e6f 4e3f 97ae 883e
00000010: 636b 2e3f 2896 013f 5541 463f 244b 2d3f
00000020: 9d68 243f 346f 213f e899 3d3f 30f2 423f
00000030: 5286 273f ba4e 1a3f 621b 213f a7ec 3b3f
00000040: 5494 2c3f 33ca 1e3f 3e84 443f 9de6 303f
00000050: a408 2d3e f260 553f c663 333f 7565 203f
00000060: 2c28 1d3f ce88 423f e8b3 3a3f d872 5d3f
00000070: eb45 083f 973c 3b3f 7524 3e3f 760c 333f
00000080: 8eb1 103f 7880 253f ba46 553f 6225 563f
00000090: 92be 3d3f 805a 5a3f cb6c 3d3f 472b 4d3f
000000a0: e856 ed3e f660 533f a53d 433f 2cf2 353f
000000b0: e832 5f3f 1c58 343f 39af 593f e857 623f
000000c0: f9e5 6e3f 0836 553f 0db6 273f c72b d53e
000000d0: 4ea0 1e3f 5055 023f e55e 5d3f eba0 5e3f
000000e0: 61f6 073f db74 1b3f 2766 103f 7124 0f3f
000000f0: b86d 8a3f 240a 723f abf6 1f3f 06d0 363f
00000100: 7c00 0d3f 329c 2e3f fe68 273f b32e 3a3f
00000110: c88a 203f 4a60 053f 1b73 523f f32f 373f
00000120: c1fc 2e3f 420a 2d3f 21f5 e03e 91f0 113f
00000130: 8556 5a3f f7c8 4e3f a4a6 603f 0dc7 2b3f
00000140: 8143 433f 00f2 373f 6899 433f d1a5 273f
00000150: 4f8c 273f 0210 303f 6689 563f 989c 823f
00000160: 8f88 493f 4a57 043f f3f6 3e3f 3949 013f
00000170: 852d 323f 05c9 453f 1d4b 2e3f 0d32 253f
00000180: 35ca 2b3f 5907 623f 7761 3e3f d543 5d3f
00000190: aa93 4f3f 9264 463e e0b6 403f a12d 023f
000001a0: c2fc 393f 3529 313f fc97 ee3e 2b8c 453f
000001b0: 80c2 2c3f e95f 593f ed72 3c3f f5d4 1a3f
000001c0: d8cf 5c3f 5a49 343f 0479 1a3f 01ed 5e3f
000001d0: 09e4 4e3f 9575 353f 66ab 1a3f 8b8d 0a3f
000001e0: aa3c 4a3f 4b73 083f 5a42 173f 791a 383f
000001f0: 8b6b 633f 2b3a 323f 33e9 0d3f a535 463f

module.lin0.parametrizations.weight.original1 f4 [128, 5]
-0.4794649 -0.26415172 -0.41764092 0.0011076804 -0.33370447 0.15103225 -0.41216367 0.113522775
-0.00048036722 0.16271733 -0.3804624 -0.18841186 0.36384124 -0.0020855214 -0.34063336 0.06540055
-0.21618748 -0.019584948 -0.0055719647 0.2130478 0.3723232 -0.15193443 0.34920618 -0.001207168
-0.060338773 -0.16784535 0.18633631 -0.31369743 -0.0007572433 -0.0799076 -0.13029249 0.5055242
0.00053353247 4.937711e-05 0.0011238027 -0.23645353 -0.14519651 0.13171372 -0.0021866825 -0.2745688
-0.07429058 0.07082363 -0.26301897 0.0014757197 -0.66563046 0.023288136 0.012797368 -0.24074315
0.00081937405 -0.49818537 0.408044 0.27541304 0.33741993 0.0002177885 -0.053810075 -0.28339946
0.035563998 -0.4569697 0.00088480726 0.34389746 -0.04047122 -0.0066987164 0.2016691 -0.00065888365
0.49366376 0.08424577 0.10107179 -0.45067412 -0.00030805756 0.27512285 0.19316092 -0.32579362
0.287811 -0.0025639322 -0.2757267 0.3536179 0.19948581 -0.4096943 -0.0012871723 -0.4184857
-0.26057497 -0.14142324 -0.21229929 0.00069849857 -0.386241 -0.13977478 0.369146 0.38784546
-0.0007278317 0.13503744 0.19524732 -0.51375246 -0.34941566 0.00039020716 0.07243135 -0.28860682
-0.16188818 -0.0042330353 -0.00060161453 0.4576957 0.053827383 0.08551706 -0.12996148 -0.0035754235
0.037951756 -0.51550925 -0.44780162 -0.02912449 -0.0019075108 -0.0023902033 0.34018847 0.19519432
0.39849317 7.641438e-05 -0.3139465 0.25203615 0.20222478 0.119482525 -0.0014745708 0.45520383
0.008920352 0.001980703 -0.24111304 -0.00022280395 -0.48653212 0.2271197 -0.18716566 -0.06908487
-0.00016406328 -0.27539212 0.034221135 0.02000168 0.31762168 -0.00091452256 0.71333903 -0.38996682
-0.2103417 -0.36096916 -0.0013203014 -0.14067392 0.1707613 -0.23965284 -0.38467985 -0.00026787838
-0.22456664 -0.26491728 -0.27629036 0.22198363 -0.0012623639 -0.20811398 -0.3544372 -0.16575463
-0.33696967 0.00097553054 0.31127355 0.45887622 0.2413442 -0.06735311 -0.0009382982 -0.40096018
0.10045247 0.062415995 0.18642135 -0.0007735406 0.32841247 0.09757343 0.037020043 -0.32706973
0.00086323946 0.27438954 -0.3214661 -0.17743467 -0.48378786 -0.0007186026 0.21282771 -0.33871183
-0.1466501 0.49193555 0.00033547668 -0.32566068 0.34470102 0.54294306 -0.22698267 -0.0011525884
0.15058742 -0.3291118 -0.2192603 0.28844362 -0.0005062964 0.3486208 -0.3925178 -0.26001278
0.13415985 -0.0004898718 -0.4399003 -0.14431493 0.5629815 0.0014514287 0.00010040354 0.0011727528
0.09267829 0.06187872 0.1506338 -7.88324e-05 0.21621257 0.19254723 -0.3954467 0.39673454
0.00034014316 0.17247933 0.36355862 0.19010133 0.4538917 3.1201525e-05 -0.4328563 0.25261235
-0.70218277 0.31763116 0.0014668502 -0.12527469 0.21478878 -0.49460202 0.1627539 0.0010121507
0.2747415 0.33323923 0.2090688 -0.4958778 -0.0007856397 0.3242873 -0.13662371 0.5309353
-0.0008394185 1.8953875e-05 0.0013303586 0.053543914 0.042913068 0.4354362 0.00095529575 -0.39542443
-0.35197094 -0.2039898 -0.22009481 0.0008074679 0.34786582 -0.20310354 -0.6738537 -0.028597401
-0.0014287144 0.13304672 0.2251104 0.15183604 0.3293334 0.00041739515 0.24125013 -0.07630279
00000000: 6c7c f5be e53e 87be 08d5 d5be 962f 913a
00000010: 50db aabe 33a8 1a3e 1e07 d3be a17e e83d
00000020: ccd9 fbb9 5f9f 263e f8cb c2be 0aef 40be
00000030: 6649 ba3e 3ead 08bb 7f67 aebe b9f0 853d
00000040: 4060 5dbe 9d70 a0bc 0795 b6bb 3429 5a3e
00000050: 25a1 be3e b394 1bbe 27cb b23e d639 9eba
00000060: ca25 77bd a7df 2bbe f2ce 3e3e f39c a0be
00000070: bd81 46ba 99a6 a3bd 656b 05be 096a 013f
00000080: c2dc 0b3a 451a 4f38 904c 933a e020 72be
00000090: 65ae 14be f6df 063e 724e 0fbb 4894 8cbe
000000a0: a925 98bd fb0b 913d 6caa 86be f06c c13a
000000b0: c266 2abf c3c6 be3c 0dac 513c 5f85 76be
000000c0: 43cb 563a 2712 ffbe 25eb d03e f002 8d3e
000000d0: 4ec2 ac3e 285e 6439 f467 5cbd bc19 91be
000000e0: 8eab 113d eff7 e9be 69f2 673a 5413 b03e
000000f0: 26c5 25bd e880 dbbb 5882 4e3e efb8 2cba
00000100: 7fc1 fc3e 0c89 ac3d bafe ce3d c2be e6be
00000110: c982 a1b9 e7dc 8c3e facb 453e 6cce a6be
00000120: f75b 933e a507 28bb 0d2c 8dbe 680d b53e
00000130: 0246 4c3e 74c3 d1be 56b6 a8ba c243 d6be
00000140: 156a 85be 41d1 10be fc64 59be 721b 373a
00000150: 61c1 c5be 1f21 0fbe b400 bd3e ae93 c63e
00000160: f5cb 3eba 4147 0a3e eaee 473e 4885 03bf
00000170: 9ce6 b2be b894 cc39 e356 943d 46c4 93be
00000180: 04c6 25be 46b5 8abb abb5 1dba 1757 ea3e
00000190: 1a7a 5c3d 9123 af3d 9f14 05be a751 6abb
000001a0: 4d73 1b3d 6af8 03bf 4146 e5be 7c96 eebc
000001b0: 7105 faba f5a4 1cbb 2f2d ae3e 05e1 473e
000001c0: 4c07 cc3e a840 a038 98bd a0be e20a 813e
000001d0: 0314 4f3e 41b3 f43d 6346 c1ba 7a10 e93e
000001e0: ab26 123c afce 013b 56e6 76be 7ba0 69b9
000001f0: bd1a f9be 1192 683e 5ba8 3fbe 5e7c 8dbd
00000200: 6708 2cb9 3200 8dbe 762b 0c3d 90da a33c
00000210: 4f9f a23e 92bc 6fba 639d 363f bba9 c7be
00000220: d163 57be f3d0 b8be f70d adba d30c 10be
00000230: 0ddc 2e3e 8e67 75be c2f4 c4be 0772 8cb9
00000240: ccf4 65be 3da3 87be ee75 8dbe ad4f 633e
00000250: e775 a5ba d51b 55be cb78 b5be 95bb 29be
00000260: 4a87 acbe bfba 7f3a 3f5f 9f3e d3f1 ea3e
00000270: ef22 773e 6df0 89bd 20f8 75ba a74a cdbe
00000280: 06ba cd3d eaa7 7f3d 3de5 3e3e 6ec7 4aba
00000290: ae25 a83e 94d4 c73d 54a2 173d af75 a7be
000002a0: 054b 623a c97c 8c3e 3497 a4be 6fb1 35be
000002b0: 0bb3 f7be 9b60 3cba 82ef 593e a36b adbe
000002c0: 722b 16be fade fb3e ebe2 af39 ffbc a6be
000002d0: a77c b03e 51fe 0a3f 256e 68be 7312 97ba
000002e0: 9733 1a3e 5881 a8be c685 60be e2ae 933e
000002f0: fab8 04ba 6d7e b23e 18f8 c8be 6520 85be
00000300: 3361 093e bd6a 00ba 9d3a e1be 4bc7 13be
00000310: 8e1f 103f de3d be3a bd8f d238 0eb7 993a
00000320: 1ece bd3d 8a74 7d3d bf3f 1a3e d352 a5b8
00000330: d466 5d3e 1a2b 453e fd77 cabe ca20 cb3e
00000340: 3e55 b239 6c9e 303e 5b24 ba3e eca9 423e
00000350: 7e64 e83e 62de 0238 579f ddbe 6856 813e
00000360: 40c2 33bf 8da0 a23e 5343 c03a 0248 00be
00000370: 97f1 5b3e 7a3c fdbe f5a8 263e 24aa 843a
00000380: ebaa 8c3e 559e aa3e 2216 563e b2e3 fdbe
00000390: 63f3 4dba fc08 a63e 16e7 0bbe 60eb 073f
000003a0: 6c0c 5cba 23ff 9e37 6d5f ae3a dd50 5b3d
000003b0: 9dc5 2f3d 7ef1 de3e d06c 7a3a 1275 cabe
000003c0: 8935 b4be b4e2 50be 8960 61be 41ac 533a
000003d0: 781b b23e 60fa 4fbe ad81 2cbf 1945 eabc
000003e0: b343 bbba 663d 083e 5783 663e e87a 1b3e
000003f0: 639e a83e d4d5 da39 460a 773e a344 9cbd

module.lin1.bias f4 [123]
0.04177286 -0.13755761 -0.0017248358 -0.02679416 -0.027374888 -0.099461 -0.0030497136 0.010794213
-0.035731446 0.017894734 -0.010691659 -0.04502058 -0.0035748568 -0.018308988 -0.038758468 -0.013059021
-0.00521102 -0.021933442 -0.0056494637 -0.114771724 0.0035641405 0.015175748 -0.0017645893 0.047596995
-0.03394827 0.03386749 0.02752366 -0.0013457107 -0.011755229 0.008512279 0.0104031535 0.022745773
-0.00525974 -0.0040586838 -0.10924501 0.002477034 -0.05853555 -0.012245187 0.002312091 0.017407414
-0.13358858 -0.0073387204 -0.056860566 -0.021482727 -0.022369646 0.012762722 0.019227652 -0.0200735
0.06186417 0.01775926 -0.06744793 -0.0023466079 -0.0014248381 0.008284799 0.055919085 0.029914482
0.014940233 0.0009587482 -0.001232859 -0.016107682 0.016342243 -0.013649682 -0.050613105 5.4921806e-05
0.030286467 -0.00816267 -0.0016190552 0.0010662732 0.0038085694 -0.1278581 0.022140818 -0.018216552
-0.05425853 0.019964991 0.041890156 0.016086351 0.024398455 -0.0015847703 -0.021866113 0.033906788
-0.010242271 0.0119189015 -0.15622106 -0.0004029398 0.025830267 -0.11186771 -0.05562241 0.0014485479
0.027171392 -0.037559416 -0.039178487 -0.041661046 -0.023548288 -0.009791591 -0.036140855 -0.017780388
-0.12667441 0.028890047 -0.0034906757 -0.009953881 -0.0953281 0.006394368 0.03987472 -0.07861458
0.00035404915 -0.051219124 0.008811092 0.017777901 0.016709475 -0.0016103765 -0.022148564 0.009079402
0.014949364 0.03079194 0.038091615 0.014455032 0.010410599 -0.006035696 0.002067744 -0.10337565
-0.07404747 -0.013957893 -0.008619708
00000000: 051a 2b3d e7db 0cbe e313 e2ba 6d7f dbbc
00000010: 4d41 e0bc 35b2 cbbd b4dd 47bb 36da 303c
00000020: 235b 12bd fa97 923c 112c 2fbc 8067 38bd
00000030: 2548 6abb bbfc 95bc 33c1 1ebd 81f5 55bc
00000040: 34c1 aabb c3ad b3bc 231f b9bb 700d ebbd
00000050: 5b94 693b b3a3 783c cb49 e7ba 11f5 423d
00000060: 570d 0bbd a3b8 0a3d 4c79 e13c 8f62 b0ba
00000070: 0199 40bc 1677 0b3c fd71 2a3c 5855 ba3c
00000080: e659 acbb b5fe 84bb d9bb dfbd bc55 223b
00000090: f9c2 6fbd 09a0 48bc 7386 173b fe99 8e3c
000000a0: 72cb 08be a679 f0bb a0e6 68bd 8bfc afbc
000000b0: 8c40 b7bc bc1a 513c 4f83 9d3c 2e71 a4bc
000000c0: 4965 7d3d de7b 913c 2422 8abd 8cc9 19bb
000000d0: a2c1 baba f7bc 073c 690b 653d 370f f53c
000000e0: e1c7 743c 8154 7b3a e297 a1ba 42f4 83bc
000000f0: 2be0 853c eaa2 5fbc b04f 4fbd d75b 6638
00000100: 531b f83c b8bc 05bc 7a36 d4ba 31c2 8b3a
00000110: 3199 793b 3ced 02be a960 b53c e13a 95bc
00000120: 313e 5ebd 9f8d a33c 0395 2b3d 86c7 833c
00000130: 45df c73c 11b8 cfba 9020 b3bc d8e1 0a3d
00000140: 33cf 27bc 7f47 433c 6af8 1fbe aa41 d3b9
00000150: ff99 d33c e61a e5bd 53d4 63bd 34dd bd3a
00000160: 8a96 de3c e7d7 19bd 9f79 20bd c6a4 2abd
00000170: 57e8 c0bc e96c 20bc 6f08 14bd 2da8 91bc
00000180: f0b6 01be d2aa ec3c d2c3 64bb 9a15 23bc
00000190: 613b c3bd d987 d13b ad53 233d ae00 a1bd
000001a0: ac9f b939 25cb 51bd 665c 103c f6a2 913c
000001b0: 4fe2 883c 4513 d3ba e870 b5bc c6c1 143c
000001c0: 2dee 743c 613f fc3c f405 1c3d ccd4 6c3c
000001d0: 3891 2a3c 16c7 c5bb fd82 073b 9db6 d3bd
000001e0: 33a6 97bd a5af 64bc ad39 0dbc

module.lin1.parametrizations.weight.original0 f4 [123, 1]
1.2397383 0.54899436 0.7006271 0.76830566 0.79644895 0.55201477 1.1517123 1.0838591
0.5957356 0.63423383 0.84319824 0.8537069 1.087925 0.8536747 0.6660985 0.9095505
0.9853014 0.91420805 1.2103168 0.6196975 0.76856387 1.3286453 1.1302083 0.89436793
0.60538733 0.8915508 0.91609067 0.8924234 0.882998 0.9153502 1.0824662 1.1856754
1.1032071 0.7888491 0.6878405 0.87694883 0.68648016 0.7310693 0.8689033 1.1123562
0.5897294 0.916109 1.0541228 1.176008 0.8694596 1.2559003 0.80520993 0.84133
0.7649683 1.2028337 0.6778691 1.1575305 0.7104187 0.8825609 0.9491203 1.370396
1.0826944 0.6006446 1.0555334 1.2411621 1.1391218 1.0398332 0.715145 0.85716295
0.8267233 0.7988645 0.84126884 1.1641384 0.93038094 0.64696443 0.8921129 1.0042387
0.65876305 1.2317535 0.83638734 0.7454919 0.8044421 0.9321538 0.93876874 0.7889544
0.522118 1.207069 0.7217832 1.1719561 0.9261886 0.6017767 0.75014985 0.6178765
0.989971 0.72105324 0.94569016 0.80282897 0.73666316 0.8554935 0.7178698 0.7985807
0.5528402 1.2880929 0.7971181 0.71260977 0.5388555 1.0770175 0.86586744 0.5809449
1.0453378 0.7308313 1.6614709 0.9897202 1.0880674 0.71732205 0.85120666 1.0785574
0.93136275 0.81749046 1.0999008 1.374609 0.89203805 0.7679651 1.2754818 0.70669824
0.5445291 1.0944151 1.007039
00000000: bfaf 9e3f e58a 0c3f 4c5c 333f aeaf 443f
00000010: 14e4 4b3f d750 0d3f 4f6b 933f e5bb 8a3f
00000020: 2182 183f 265d 223f d7db 573f 898c 5a3f
00000030: 2041 8b3f 6d8a 5a3f 6e85 2a3f 4dd8 683f
00000040: b63c 7c3f 8a09 6a3f a9eb 9a3f 7fa4 1e3f
00000050: 9ac0 443f 0d11 aa3f aaaa 903f 4cf5 643f
00000060: aafa 1a3f ac3c 643f eb84 6a3f dc75 643f
00000070: 280c 623f 6454 6a3f 418e 8a3f 36c4 973f
00000080: e435 8d3f 04f2 493f 5116 303f b87f 603f
00000090: 2abd 2f3f 5c27 3b3f 7270 5e3f b061 8e3f
000000a0: 82f8 163f 1f86 6a3f 7fed 863f 6e87 963f
000000b0: e894 5e3f 57c1 a03f 3d22 4e3f 6761 573f
000000c0: f6d4 433f 74f6 993f d488 2d3f f629 943f
000000d0: 00de 353f 83ef 613f 8cf9 723f 2369 af3f
000000e0: bb95 8a3f d8c3 193f b81b 873f 66de 9e3f
000000f0: bece 913f 4119 853f be13 373f 086f 5b3f
00000100: 23a4 533f 6282 4c3f 655d 573f 7d02 953f
00000110: 722d 6e3f 769f 253f 8361 643f e58a 803f
00000120: b2a4 283f 19aa 9d3f 7b1d 563f 8fd8 3e3f
00000130: ebef 4d3f a2a1 6e3f 2653 703f eaf8 493f
00000140: 86a9 053f 3d81 9a3f c9c6 383f a802 963f
00000150: b21a 6d3f 0a0e 1a3f d209 403f 282d 1e3f
00000160: bd6e 7d3f f296 383f c018 723f 3386 4d3f
00000170: f595 3c3f 9f01 5b3f 51c6 373f c96f 4c3f
00000180: ef86 0d3f 3ae0 a43f ef0f 4c3f 986d 363f
00000190: 6ff2 093f b6db 893f 7da9 5d3f ceb8 143f
000001a0: a1cd 853f c317 3b3f 14ab d43f 4e5e 7d3f
000001b0: cb45 8b3f 6ba2 373f aee8 593f 2b0e 8a3f
000001c0: ca6d 6e3f 0e47 513f 8dc9 8c3f 30f3 af3f
000001d0: 9b5c 643f 5c99 443f fd42 a33f 2dea 343f
000001e0: 4266 0b3f cb15 8c3f a7e6 803f

module.lin1.parametrizations.weight.original1 f4 [123, 128]
-0.11184483 -0.021841178 -0.00253221 1.76369e-40 0.00391612 -0.15530618 -0.3412678 -0.00095174345
0.004633859 -0.079741545 0.019778015 0.00018563622 -0.001123397 -0.00019521535 -0.0028737981 -0.13118418
-0.46066576 0.0032755756 -0.28673413 -0.0065401937 -3.5058354e-12 0.012262738 0.057530787 0.1302856
-0.09147148 2.2395785e-05 0.0062374924 0.05475116 -0.0018554955 -0.09236678 -0.06752247 0.028585639
0.020438327 -0.00019612725 2.5467575e-09 -0.01080462 -0.019109458 -0.0655811 -0.000662545 -0.3310036
0.070910335 -0.05603041 0.021273315 -0.004346879 -0.024286816 -0.00037191398 -0.3452309 0.0025285534
-0.179895 -0.00885924 0.11385176 0.005323227 0.0020954139 0.056780584 -0.01591186 0.025975266
-0.18958902 0.0009903191 -0.070412934 -0.0003531927 -0.21656884 -0.059652623 -0.14054199 0.04367857
-0.12327899 -0.10967289 -0.00050331576 -0.13639797 -0.004607114 -0.04810342 0.020162618 -0.011262194
0.013656669 0.004217383 -0.0449406 -0.1301959 -0.09115462 -0.0021864001 -0.03912015 0.00227285
0.00016458305 0.03196923 -0.014969298 -0.2313994 -0.017240586 -0.08368174 -0.022813868 -0.010917972
-0.00060854066 -0.00012515867 -0.0056956965 -0.15456817 -0.031598967 0.008331094 7.0417644e-33 0.031977974
-0.16239779 -0.04985737 -0.349931 0.0015950407 -0.0082010245 -2.3259e-41 0.002294266 0.00069458823
-0.08136439 -0.2825491 0.016436264 -0.041687746 -0.00039742747 -0.024197198 -0.00397418 0.005497212
-0.3868976 0.08217893 0.0037214686 -0.18470295 -0.07033822 -0.018634472 0.026062561 -1.2505809e-15
-0.0011223613 -0.0015582329 -0.08643266 -0.031980533 -0.005482032 0.0003289531 0.004209751 -0.12391489
-0.012635889 0.025970537 0.0034556475 -0.057274163 0.029057266 -0.21919155 -0.020659454 0.012200903
-0.016723912 0.019812882 -0.19573121 -0.112379424 -0.010277968 -0.101914994 0.049378466 -0.06303363
-0.03940597 -0.0315022 0.03277138 0.006792859 0.1098236 0.034008205 -0.04520283 -0.122072615
0.043969035 0.039847165 -0.18231167 -0.00017685583 0.015543188 0.03953559 0.008761049 -0.18686901
-0.16340986 -0.21043368 0.00040442945 -0.035147894 -0.11920888 -0.22453491 0.00833682 0.07595309
-0.10891842 0.13736068 -0.02797932 0.033994157 0.027373051 -0.088590376 -0.012868714 -0.0100557925
0.01919439 0.1899073 -0.038837075 0.013032255 -0.012610585 -0.08444192 0.04599871 -0.036977235
0.031009441 -0.0040900297 0.030064577 -0.010810141 -0.008035983 -0.009213215 -0.034039337 -0.14947334
-0.07774967 0.12712297 -0.13113044 0.08484665 -0.032933768 0.021196153 8.166822e-07 -0.0037527098
-0.14984389 0.028801218 0.0062459237 0.059371382 0.02536046 0.0010629883 0.03735898 -0.008413493
-0.073061556 -0.110481165 0.031949747 -0.11631536 0.024879852 -0.00234505 -0.08887365 0.006949
-0.06346841 -0.05308161 -0.18854348 -0.003920567 -0.0878051 -0.009212391 -0.09889612 -0.13533534
-0.008399554 -0.19336203 1.6647283e-19 -0.048134953 -0.22378714 0.0786267 0.0027192202 -0.021048415
-0.13076708 0.14668898 -0.029402755 -0.1608716 -0.015962975 0.008373405 0.015174853 -0.015281858
0.031209767 -0.0601402 0.010144176 -0.09571201 -1.515285e-08 -0.16366993 -0.096712805 0.118823595
0.042487312 -0.021385202 -0.002804284 0.082692236 -0.0093390355 -0.19664797 0.0059348964 -0.20808442
00000000: e70e e5bd 45ec b2bc 6ff3 25bb a5eb 0100
00000010: cc52 803b 9508 1fbe a7ba aebe 6c7e 79ba
00000020: a0d7 973b 894f a3bd 8105 a23c 58a7 4239
00000030: f33e 93ba b9b2 4cb9 5556 3cbb 2555 06be
00000040: 62dc ebbe 0aab 563b d1ce 92be 1f4f d6bb
00000050: 84b3 76ac a7e9 483c 67a5 6b3d 9769 053e
00000060: 6655 bbbd 95de bb37 e163 cc3b c142 603d
00000070: 1934 f3ba cb2a bdbd 3949 8abd 6e2c ea3c
00000080: 476e a73c 82a7 4db9 0803 2f31 dc05 31bc
00000090: 708b 9cbc 624f 86bd a4ae 2dba 4e79 a9be
000000a0: 7039 913d 2580 65bd 6045 ae3c 4470 8ebb
000000b0: 25f5 c6bc 73fd c2b9 1bc2 b0be 16b6 253b
000000c0: 6536 38be 5926 11bc 1d2b e93d 776e ae3b
000000d0: 3653 093b c292 683d 9759 82bc 15ca d43c
000000e0: a023 42be 98cd 813a a834 90bd b92c b9b9
000000f0: 39c4 5dbe 4f56 74bd 3dea 0fbe 4de8 323d
00000100: b279 fcbd 2e9c e0bd f3f0 03ba e9ab 0bbe
00000110: 46f7 96bb 1708 45bd 132c a53c 1185 38bc
00000120: 39c0 5f3c f931 8a3b a213 38bd 1352 05be
00000130: 46af babd b549 0fbb 733c 20bd 18f4 143b
00000140: ed93 2c39 2bf2 023d c941 75bc f7f3 6cbe
00000150: 213c 8dbc 5561 abbd 26e4 babc 4be1 32bc
00000160: 7986 1fba 063d 03b9 f7a2 babb 1e47 1ebe
00000170: eb6d 01bd 247f 083c 7140 120a 56fb 023d
00000180: 9b4b 26be 3e37 4cbd 282a b3be af10 d13a
00000190: 975d 06bc d640 0080 655b 163b 0715 363a
000001a0: 60a2 a6bd 47aa 90be 58a5 863c c5c0 2abd
000001b0: d05d d0b9 3439 c6bc d739 82bb f521 b43b
000001c0: 7117 c6be 6d4d a83d e2e3 733b c522 3dbe
000001d0: 7c0d 90bd 52a7 98bc 2781 d53c 4b3a b4a6
000001e0: 321c 93ba 9f3d ccba 9b03 b1bd 05fe 02bd
000001f0: 9ea2 b3bb 5677 ac39 f3f1 893b 17c7 fdbd
00000200: c306 4fbc 2ac0 d43c 2578 623b 5098 6abd
00000210: 8109 ee3c c073 60be 043e a9bc 4ce6 473c
00000220: 9600 89bc a04e a23c c36d 48be 2f27 e6bd
00000230: ec64 28bc cfb8 d0bd 1341 4a3d c717 81bd
00000240: 2868 21bd 7308 01bd 483b 063d a296 de3b
00000250: 32eb e03d 304c 0b3d 9a26 39bd 3501 fabd
00000260: e018 343d c836 233d e9af 3abe 6072 39b9
00000270: dba8 7e3c 12f0 213d 818a 0f3c 975a 3fbe
00000280: ea54 27be ed7b 57be 9a09 d439 3df7 0fbd
00000290: c923 f4bd 7bec 65be 2897 083c 4b8d 9b3d
000002a0: 9f10 dfbd 47a8 0c3e e334 e5bc 753d 0b3d
000002b0: 733d e03c df6e b5bd 4cd7 52bc 0dc1 24bc
000002c0: 8e3d 9d3c 0f77 423e a013 1fbd 3d85 553c
000002d0: a19c 4ebc e3ef acbd 2569 3c3d 7175 17bd
000002e0: 8307 fe3c a805 86bb fd49 f63c 051d 31bc
000002f0: 5ba9 03bc 06f3 16bc d56c 0bbd 8a0f 19be
00000300: 383b 9fbd 862c 023e 0f47 06be 15c4 ad3d
00000310: 8fe5 06bd 8ea3 ad3c f939 5b35 06f0 75bb
00000320: ad70 19be 88f0 eb3c 9baa cc3b 682f 733d
00000330: bdc0 cf3c f853 8b3a bb05 193d bfd8 09bc
00000340: 4ca1 95bd f343 e2bd bddd 023d bf36 eebd
00000350: d5d0 cb3c 69af 19bb 6303 b6bd 70b4 e33b
00000360: bafb 81bd 1a6c 59bd 8b11 41be 1a78 80bb
00000370: 29d3 b3bd 92ef 16bc 0d8a cabd 5995 0abe
00000380: 489e 09bc b200 46be 5389 4420 2829 45bd
00000390: 7528 65be 0907 a13d f234 323b ba6d acbc
000003a0: cee7 05be a335 163e 0cde f0bc 86bb 24be
000003b0: c9c4 82bc 9b30 093c f29f 783c c260 7abc
000003c0: a0ab ff3c 9255 76bd c233 263c a904 c4bd
000003d0: 7829 82b2 1799 27be 5d11 c6bd c959 f33d
000003e0: 2d07 2e3d 0530 afbc 14c8 37bb 8c5a a93d
000003f0: c102 19bc 165e 49be 8579 c23b 1514 55be

module.lin2.bias f4 [128]
-0.08498518 0.018051358 -0.00346126 -0.14962913 0.005466493 -0.01184801 -0.00896465 -0.012245784
-0.11209631 -0.072438866 -0.033931132 0.019139113 -0.12418191 -0.08143914 -0.021515194 -0.11246425
-0.015041463 -0.0025126224 -0.16444552 -0.03053975 -0.09971198 -0.036120076 0.016369423 -0.0039478047
0.02329405 -0.099694505 -0.062169008 -0.013133147 -0.041927624 0.011696252 -0.19827938 0.013034345
-0.10508347 0.016691543 -0.011678345 -0.094627485 0.016600866 -0.11293723 0.012966489 -0.018727452
-0.15758526 0.009192329 -0.059742276 0.01165839 -0.11340927 -0.17958908 -0.12842064 -0.06538365
-0.033885416 -0.08658305 -0.068152726 -0.11723239 -0.07047612 -0.003362551 -0.073734045 -0.0059535485
-0.0624846 0.013194518 0.008807883 -0.008533372 0.013991513 -0.1072961 0.007817189 -0.04947038
-0.13089316 -0.05225229 -0.044247642 -0.008818987 -0.06127732 -0.08445084 -0.208622 0.013744963
-0.06297243 -0.14426251 -0.052905012 -0.02768403 -0.1437487 -0.037099022 -0.128525 -0.08132204
-0.15004408 0.008314051 -0.13957289 -0.0808589 -0.11964659 -0.06130787 -0.049066097 -0.07411545
-0.13659701 -0.04959048 -0.008761876 -0.07985189 -0.016421366 0.006962302 -0.085078314 -0.045693945
-0.11864411 -0.1018976 -0.10203162 -0.107630365 0.01404104 -0.10111553 -0.06520881 -0.05262043
-0.010571635 -0.0070973393 -0.0030988744 -0.019574458 0.0011501955 -0.037011642 -0.15361625 -0.05173325
-0.032885563 -0.19458553 0.019143682 -0.0449699 -0.09519725 -0.14475583 -0.07917953 -0.16334185
-0.13430049 -0.046454664 -0.07236182 0.014146747 0.0017294072 -0.06365974 -0.07570902 -0.014046014
00000000: b60c aebd 71e0 933c 4fd6 62bb 6138 19be
00000010: 4420 b33b 281e 42bc 78e0 12bc 8aa2 48bc
00000020: c092 e5bd d45a 94bd 5ffb 0abd a1c9 9c3c
00000030: 1653 febd 90c9 a6bd a240 b0bc a853 e6bd
00000040: 7870 76bc cfaa 24bb 6864 28be 7f2e fabc
00000050: cb35 ccbd a5f2 13bd 2b19 863c 965c 81bb
00000060: 2ad3 be3c a22c ccbd eea4 7ebd 692c 57bc
00000070: 4dbc 2bbd a3a1 3f3c c009 4bbe 018e 553c
00000080: 0136 d7bd b4bc 883c 8756 3fbc 0ecc c1bd
00000090: 8afe 873c a24b e7bd 6671 543c 506a 99bc
000000a0: 085e 21be 6c9b 163c 51b4 74bd d502 3f3c
000000b0: 1f43 e8bd 33e6 37be b380 03be dde7 85bd
000000c0: 6fcb 0abd 7452 b1bd a893 8bbd 8917 f0bd
000000d0: c955 90bd 3f5e 5cbb e001 97bd fc15 c3bb
000000e0: daef 7fbd d22d 583c f04e 103c 8ecf 0bbc
000000f0: a93c 653c 0fbe dbbd ab13 003c 74a1 4abd
00000100: db08 06be 7f06 56bd 043d 35bd 837d 10bc
00000110: edfd 7abd 90f4 acbd 01a1 55be 8e32 613c
00000120: b0f7 80bd 8db9 13be edb2 58bd 9ec9 e2bc
00000130: dc32 13be 25f5 17bd 0f9c 03be 2b8c a6bd
00000140: 28a5 19be a837 083c 32ec 0ebe 5a99 a5bd
00000150: 4509 f5bd f61d 7bbd 88f9 48bd d7c9 97bd
00000160: 16e0 0bbe 631f 4bbd f98d 0fbc 6389 a3bd
00000170: 1a86 86bc 0624 e43b 8a3d aebd 9329 3bbd
00000180: affb f2bd b0af d0bd f4f5 d0bd 4f6d dcbd
00000190: 640c 663c a915 cfbd 328c 85bd 8588 57bd
000001a0: a734 2dbc cc90 e8bb 7c16 4bbb 9d5a a0bc
000001b0: 28c2 963a 8599 17bd 944d 1dbe 3fe6 53bd
000001c0: 03b3 06bd 6e41 47be 36d3 9c3c 5c32 38bd
000001d0: c7f6 c2bd df3a 14be e128 a2bd 1643 27be
000001e0: 1186 09be 3f47 3ebd 6f32 94bd c2c7 673c
000001f0: 47ad e23a 0a60 82bd 550d 9bbd 4121 66bc

module.lin2.parametrizations.weight.original0 f4 [128, 1]
0.73903644 0.67141646 1.0338454 0.6581104 0.96364415 0.83628845 1.0681884 0.9482794
0.65107423 0.7428206 0.84285355 0.6611019 0.7369997 0.70443803 0.8776783 0.6882162
0.8651254 0.83588386 0.6387195 0.672262 0.6606591 0.8670889 0.8371202 0.9031233
0.57186586 0.70903194 0.660326 0.59639424 0.7182307 0.88758624 0.6498752 0.85860896
0.71982896 0.8201501 0.8129305 0.64124936 0.68831074 0.6194534 0.7836799 1.1455775
0.6644672 0.5365681 0.67817765 0.6592935 0.6339247 0.6575805 0.6033557 0.6925527
0.68712014 0.7034477 0.8280482 0.6824715 0.7085344 0.8087017 0.6311066 0.6933617
0.76159376 0.9919385 0.9076259 0.80152315 0.6087192 0.68886167 0.50335765 0.647983
0.71397245 0.6342834 0.6348273 0.98803294 0.69685364 0.6825996 0.6913964 1.010382
0.7627075 0.59677035 0.614042 0.6533224 0.5971117 0.8059375 0.6086324 0.632052
0.64633214 1.2693598 0.60777944 0.63492984 0.6340865 0.681507 0.9413941 0.74298465
0.6400126 0.742721 0.69523895 0.643127 0.68374366 0.77715796 0.60118425 0.7095277
0.5964682 0.6649343 0.69744956 0.8641027 0.7265481 0.73930836 0.69587535 0.64411855
0.79749966 0.9601244 1.438323 0.70672596 0.992853 0.6574353 0.62560326 0.8054425
0.7674631 0.68663687 0.8205216 0.6199183 0.6201049 0.58823764 0.76924753 0.63545156
0.6380249 0.75522536 0.7910301 0.76128703 0.74660707 0.62824106 0.6347548 1.0187516
00000000: 7e31 3d3f f3e1 2b3f 0c55 843f ec79 283f
00000010: 62b1 763f 0017 563f 66ba 883f 70c2 723f
00000020: cdac 263f 7e29 3e3f 40c5 573f f93d 293f
00000030: 03ac 3c3f 0d56 343f 86af 603f f02e 303f
00000040: dc78 5d3f 7cfc 553f 1f83 233f 5d19 2c3f
00000050: f420 293f 8af9 5d3f 824d 563f 1733 673f
00000060: cd65 123f 1e83 353f 200b 293f 4bad 183f
00000070: f8dd 373f da38 633f 395e 263f cccd 5b3f
00000080: b646 383f 5bf5 513f 371c 503f eb28 243f
00000090: 2235 303f 7f94 1e3f 3f9f 483f 49a2 923f
000000a0: 861a 2a3f 875c 093f 0d9d 2d3f 75c7 283f
000000b0: e448 223f 3257 283f 8575 1a3f 224b 313f
000000c0: 1be7 2f3f 2615 343f f8fa 533f 74b6 2e3f
000000d0: 8362 353f 1307 4f3f 3490 213f 2780 313f
000000e0: cff7 423f aeef 7d3f 2c5a 683f 9f30 4d3f
000000f0: 06d5 1b3f 3d59 303f 0cdc 003f 37e2 253f
00000100: e6c6 363f 6660 223f 0b84 223f baef 7c3f
00000110: 0065 323f d9be 2e3f 5bff 303f 3354 813f
00000120: cc40 433f f1c5 183f db31 1d3f 2340 273f
00000130: 50dc 183f ec51 4e3f 55cf 1b3f 29ce 213f
00000140: 0676 253f 627a a23f 6f97 1b3f c38a 223f
00000150: 7e53 223f 3e77 2e3f 34ff 703f 3e34 3e3f
00000160: ded7 233f f722 3e3f 2efb 313f f9a3 243f
00000170: d309 2f3f d3f3 463f 36e7 193f 9ba3 353f
00000180: 24b2 183f 2239 2a3f 0e8c 323f d635 5d3f
00000190: 0eff 393f 5043 3d3f e324 323f f4e4 243f
000001a0: f028 4c3f b6ca 753f f81a b83f feeb 343f
000001b0: 9d2b 7e3f ae4d 283f 8927 203f 7b31 4e3f
000001c0: 7678 443f 6fc7 2f3f b40d 523f f7b2 1e3f
000001d0: 32bf 1e3f be96 163f 68ed 443f f4ac 223f
000001e0: 9a55 233f 7356 413f f380 4a3f b5e3 423f
000001f0: a421 3f3f 68d4 203f 4a7f 223f 7466 823f

module.lin2.parametrizations.weight.original1 f4 [128, 128]
0.024041707 0.017694365 0.014912357 -0.0010367596 1.1586452e-05 0.007946956 -0.17981598 -0.003541863
-0.17767346 0.10918199 -0.00092633924 -3.1057823e-07 -0.0007118655 0.013359518 -0.010279443 -0.002306252
-0.0030067307 3.8345466e-10 -0.1541671 -0.0044599036 0.047849935 -0.026855737 -3.9595748e-06 -0.0057288427
-0.02064942 0.015169741 0.005338849 0.013751094 -8.812356e-06 0.01790478 -0.004419713 0.016552774
-9.934068e-15 3.916978e-05 3.902229e-05 0.00034573665 -0.03353803 -0.0030727624 -0.035484493 -0.10515165
-0.009142197 -0.10697235 -0.00048255417 -7.297e-42 -0.00022861513 -4.361567e-07 6.0315573e-32 -0.017473262
0.005763526 -0.00017062046 0.0024205053 -0.15480264 0.002377234 -0.10257165 0.00702304 -0.047339097
-0.0033283285 -0.1984626 -0.0026138243 -9.767742e-14 -0.007832653 2.1219293e-10 -0.01679149 -8.908061e-12
-2.7479403e-34 -2.9832e-41 1.4073812e-16 -0.0013917221 0.026584566 0.0001361743 0.021101933 -0.017806824
-0.045156788 1.48845e-06 0.017149746 -0.022509636 0.05201661 -0.0017410002 -0.17433895 -0.016093904
-0.18373027 -0.002274745 -0.10605534 -0.016014695 0.0104402285 -0.1430285 0.027523592 0.004830263
-0.016817069 -0.00014287466 -1.1324155e-18 -0.11908307 -0.009498652 -0.009598724 -0.012820429 -0.09244002
-0.007184886 0.01756791 0.06927713 0.017502986 -0.008638663 9.829439e-39 0.0009915837 -0.030743072
3.6653666e-11 -0.012511566 -0.0020345624 -0.05290966 0.00027418227 -0.011746765 -0.11860979 -0.00010153124
0.09975584 -0.001131717 0.0011642802 0.012026692 -0.0103897685 -0.013660368 -0.0024084023 -0.12228893
-0.007967276 -3.9765706e-38 -0.18848902 0.0011687877 0.0016803355 0.018794764 9.425059e-05 0.15065736
-0.046562 -0.013007338 0.019777566 0.024898648 0.025693046 -0.06560765 -0.0006326358 -0.124943025
-0.08203501 0.006186608 0.0014696721 -0.08001895 -0.09682278 -0.031030955 -0.0048628435 -0.051202472
-0.043413557 0.106139675 -0.00035228665 -0.056050323 -0.17499322 -0.070975505 0.011637575 -0.00965078
-0.072979756 0.015603352 -0.025695149 -0.057804376 0.23016809 0.05345966 -0.06302335 0.015607415
0.032745413 0.008743682 -0.04465662 -0.03010783 0.14953405 -0.03439028 -0.0017546198 -0.023995738
-0.15422243 -0.02849666 0.07618264 0.020830678 -0.07733467 -0.00029605866 -0.110412925 -0.022194296
0.01708443 -0.14980324 -0.12718447 -0.017053038 0.022224542 -0.019143727 0.054239135 -0.06683738
0.09163137 -0.031532645 -0.046863474 -0.028937744 0.0019278938 -0.070547536 -0.07126968 -0.005893985
-0.03877465 -0.04984129 -0.06869291 -0.13966258 -0.02810706 -0.070836216 3.6238227e-05 -1.5080674e-05
0.029803218 -0.110152654 -0.042078283 0.005777523 -0.019389622 -0.040982857 -0.017628076 0.012947854
-0.03989348 -0.041875836 0.023962572 -0.13259289 0.03286845 -0.07720532 -0.118497305 0.00915633
-0.06392971 -0.080111586 -0.088971764 -0.0078857215 -0.004560946 -0.1321368 0.05231691 -0.046245474
-0.023111122 0.04340688 -0.02942406 -0.04863117 -0.10629311 -0.0068464535 0.04199719 -0.022292316
0.0019332735 -0.055097137 -0.047601916 -0.043580092 -0.05819292 -0.01875058 -0.012145093 -0.02267316
-0.00307883 0.031675287 0.05747924 0.03644918 0.043561466 -0.054066252 -0.05420574 -0.0012018501
-0.102601886 -0.060862426 0.0025485263 -0.0021485088 -0.003181154 0.15750624 0.00012224169 -0.06987987
00000000: 1df3 c43c c6f3 903c f552 743c e1e3 87ba
00000010: 6f63 4237 f333 023c ae21 38be 9a1e 68bb
00000020: 08f0 35be cf9a df3d 93d5 72ba 8cbd a6b4
00000030: 7c9c 3aba e1e1 5a3c 1c6b 28bc 7d24 17bb
00000040: 920c 45bb 72ce d22f fbdd 1dbe 6224 92bb
00000050: 4bfe 433d 9000 dcbc 7ddc 84b6 04b9 bbbb
00000060: f928 a9bc 818a 783c 83f1 ae3b 454c 613c
00000070: c8d8 13b7 0cad 923c 3dd3 90bb af99 873c
00000080: cdf4 32a8 3b4a 2438 ddab 2338 fd43 b539
00000090: 2c5f 09bd 6660 49bb 3058 11bd c059 d7bd
000000a0: 27c9 15bc 5214 dbbd 53ff fcb9 5714 0080
000000b0: 68b8 6fb9 ec28 eab4 9396 9c0b 1624 8fbc
000000c0: f6db bc3b 95e8 32b9 57a1 1e3b 9584 1ebe
000000d0: 5ecb 1b3b 1611 d2bd 8821 e63b a4e6 41bd
000000e0: 1620 5abb c839 4bbe b24c 2bbb 33f3 dba9
000000f0: 8754 00bc 004f 692f 4f8e 89bc 57b6 1cad
00000100: c8a1 b687 2953 0080 9042 2225 726a b6ba
00000110: e0c7 d93c 03ca 0e39 f6dd ac3c 9edf 91bc
00000120: 53f6 38bd c1c6 c735 a07d 8c3c 2166 b8bc
00000130: 5e0f 553d 4632 e4ba e985 32be 5dd7 83bc
00000140: ca23 3cbe e313 15bb 8b33 d9bd 4031 83bc
00000150: 7e0d 2b3c 1076 12be 2879 e13c 2f47 9e3b
00000160: f3c3 89bc a0d0 15b9 731d a7a1 d3e1 f3bd
00000170: 3ca0 1bbc f743 1dbc c70c 52bc 3151 bdbd
00000180: 316f ebbb 94ea 8f3c 2be1 8d3d 6c62 8f3c
00000190: 2e89 0dbc 7a08 6b00 07f8 813a e5d8 fbbc
000001a0: 5c34 212e 50fd 4cbc 4b56 05bb cdb7 58bd
000001b0: 1fc0 8f39 8175 40bc b1e9 f2bd 2bed d4b8
000001c0: ca4c cc3d 1f56 94ba c39a 983a 9a0b 453c
000001d0: d939 2abc bccf 5fbc 49d6 1dbb 9e72 fabd
000001e0: 2d89 02bc 4e81 5881 4403 41be 0232 993a
000001f0: b43e dc3a 7af7 993c 66a8 c538 ec45 1a3e
00000200: ccb7 3ebd bb1c 55bc 9004 a23c 40f8 cb3c
00000210: 397a d23c 4e5d 86bd 78d7 25ba 21e2 ffbd
00000220: f901 a8bd 08b9 ca3b 03a2 c03a fae0 a3bd
00000230: 064b c6bd a134 febc 7d58 9fbb afb9 51bd
00000240: 6ad2 31bd c25f d93d 1db3 b8b9 0695 65bd
00000250: 6c31 33be 9b5b 91bd 87ab 3e3c 4e1e 1ebc
00000260: 6976 95bd 34a5 7f3c a27e d2bc 48c4 6cbd
00000270: 2fb1 6b3e 84f8 5a3d 6312 81bd 3eb6 7f3c
00000280: 0e20 063d a941 0f3c dce9 36bd b2a4 f6bc
00000290: 741f 193e d2dc 0cbd 45fb e5ba b692 c4bc
000002a0: 7cec 1dbe d471 e9bc a505 9c3d 19a5 aa3c
000002b0: a461 9ebd 5238 9bb9 2c20 e2bd d0d0 b5bc
000002c0: a6f4 8b3c 0566 19be a53c 02be d0b2 8bbc
000002d0: 3e10 b63c 4ed3 9cbc db29 5e3d 09e2 88bd
000002e0: 3aa9 bb3d 6028 01bd eaf3 3fbd d90e edbc
000002f0: 62b1 fc3a 3a7b 90bd d7f5 91bd 5422 c1bb
00000300: 2bd2 1ebd 6126 4cbd deae 8cbd b503 0fbe
00000310: c740 e6bc 9412 91bd 80fe 1738 0003 7db7
00000320: e125 f43c b797 e1bd 475a 2cbd 6051 bd3b
00000330: fcd6 9ebc a4dd 27bd c168 90bc 3c23 543c
00000340: 5867 23bd ff85 2bbd 284d c43c 6ec6 07be
00000350: 11a1 063d d31d 9ebd b7ae f2bd 6e04 163c
00000360: 94ed 82bd 8b11 a4bd d436 b6bd 1d33 01bc
00000370: fd73 95bb df4e 07be 424a 563d e56b 3dbd
00000380: 8953 bdbc 6acb 313d ba0a f1bc 7a31 47bd
00000390: 34b0 d9bd 3758 e0bb 3f05 2c3d 609e b6bc
000003a0: e565 fd3a 89ad 61bd 3afa 42bd 0a81 32bd
000003b0: b35b 6ebd d19a 99bc 36fc 46bc 10bd b9bc
000003c0: 32c6 49bb f2bd 013d 5a6f 6b3d bc4b 153d
000003d0: 826d 323d 9374 5dbd d706 5ebd 6687 9dba
000003e0: f020 d2bd e14a 79bd 2d05 273b ffcd 0cbb
000003f0: e87a 50bb 5149 213e 012e 0039 2d1d 8fbd

module.lin3.bias f4 [128]
0.0043140207 0.009022598 -0.005013997 -0.011316469 -8.0762904e-05 0.00082044816 0.0022715002 -0.0023053668
0.00054430304 -0.007028295 -0.0074715703 -0.010275957 0.0005349324 -0.001190891 0.00094260584 -0.0052863043
0.00052146614 -0.00019832114 0.006009825 -0.0013147439 0.0005083787 0.0030469573 -0.0020066747 0.00039677913
-0.0077082203 -0.0011024236 -0.007915905 0.0013594208 0.0033502118 7.353499e-05 -0.017799884 0.0011342054
-0.00096395484 -0.0012741552 -0.0006176717 -0.024142126 -0.0014463037 -0.090711616 -0.00072770374 -0.010632861
0.0013122725 -0.00051349826 0.0010062854 -0.0013045905 -0.00010429464 -0.0004708156 0.0012484104 -0.0025092755
-0.014063486 -0.0018616508 0.0011631979 -0.00040422133 -0.0034528002 -0.0033566507 0.0013791434 0.0050726957
0.0003536213 -0.011223718 -0.002420054 0.00013690609 -0.00084337324 -0.018279681 -0.0013135191 -0.007310956
0.0027273102 0.0063727153 0.0040858807 -0.009969497 -0.088382795 0.0020097755 -0.00028292742 -0.005484064
-0.022211134 -0.00012602456 0.0037288298 -0.0051390887 0.0039781714 -5.3258216e-05 -0.00048620402 -2.602038e-05
-0.0031447613 0.0022215326 0.0010801812 0.0019147072 -0.0015572147 -0.019129798 -0.06022933 -0.0095969895
-0.014003162 -0.0068244883 0.008056207 0.00015310259 5.8360692e-05 -0.0065481304 -0.0015971945 0.0007739679
0.006889641 0.001579615 -0.08581736 -0.0065748375 -0.010622652 -0.009136581 -0.006763534 0.0031926015
0.0011251366 -0.00427575 0.005707405 0.0015947185 -0.007400077 -0.0057791104 -0.0041248854 -0.008354695
-0.07916863 -0.0024190694 0.0016510236 -0.02167356 0.00023698935 -0.007857858 -0.09942362 0.0013434103
0.0013056459 -0.0060471725 8.1040766e-05 -0.0012166213 -0.0030249378 0.0006208714 -0.0010788447 0.0008232722
00000000: a15c 8d3b 85d3 133c 754c a4bb b668 39bc
00000010: 415f a9b8 5813 573a 73dd 143b a315 17bb
00000020: 8faf 0e3a 9d4d e6bb 13d4 f4bb 7d5c 28bc
00000030: b53a 0c3a ac17 9cba 3519 773a bc38 adbb
00000040: 00b3 083a 6df4 4fb9 11ee c43b 7c53 acba
00000050: b844 053a 76af 473b 6a82 03bb cb06 d039
00000060: 3d95 fcbb 337f 90ba b6b1 01bc 982e b23a
00000070: 3a8f 5b3b cc36 9a38 10d1 91bc 9ea9 943a
00000080: eab1 7cba 8e01 a7ba 3feb 21ba b5c5 c5bc
00000090: e691 bdba 03c7 b9bd 5fc3 3eba 7435 2ebc
000000a0: 8f00 ac3a 499c 06ba 56e5 833a cbfe aaba
000000b0: c2b8 dab8 cdd7 f6b9 b4a1 a33a a872 24bb
000000c0: 896a 66bc a302 f4ba 7276 983a abed d3b9
000000d0: 6048 62bb 41fb 5bbb 60c4 b43a db38 a63b
000000e0: 3f66 b939 afe3 37bc c599 1ebb 738e 0f39
000000f0: d215 5dba 45bf 95bc 632a acba be90 efbb
00000100: acbc 323b 36d2 d03b dae2 853b 1a57 23bc
00000110: 0a02 b5bd 70b6 033b e055 94b9 aab3 b3bb
00000120: 20f4 b5bc 7625 04b9 625f 743b cd65 a8bb
00000130: 525b 823b 9361 5fb8 33e9 feb9 5746 dab7
00000140: 5718 4ebb 2297 113b de94 8d3a eaf6 fa3a
00000150: 741b ccba 18b6 9cbc 08b3 76bd b13c 1dbc
00000160: 856d 65bc f59f dfbb 2efe 033c 2a8a 2039
00000170: 51c8 7438 b391 d6bb f458 d1ba 1be4 4a3a
00000180: 7fc2 e13b 160b cf3a 03c1 afbd bc71 d7bb
00000190: a20a 2ebc 99b1 15bc a3a0 ddbb f73a 513b
000001a0: 5279 933a 971b 8cbb 2f05 bb3b e005 d13a
000001b0: 587c f2bb b15e bdbb 0c2a 87bb 21e2 08bc
000001c0: 2a23 a2bd 4089 1ebb 2967 d83a c08c b1bc
000001d0: 5880 7839 3fbe 00bc 9c9e cbbd 5f15 b03a
000001e0: 3522 ab3a 5c27 c6bb 6ef4 a938 0977 9fba
000001f0: 093e 46bb f9c1 223a 0568 8dba ddd0 573a

module.lin3.parametrizations.weight.original0 f4 [128, 1]
1.0919554 0.778106 0.83506244 0.7184144 1.3862989 2.1972737 0.9227432 0.7910005
1.1211442 0.86325806 0.8357063 0.70507985 1.047816 0.88424456 0.8331018 0.80153406
0.83595425 1.0891142 0.9073508 1.1035506 0.9106381 1.2479403 0.8153939 0.9455968
0.72288054 0.94680667 0.717712 1.3913523 1.5671401 0.6645775 0.78136975 1.1833999
1.5463064 0.775581 1.159027 0.75218695 0.90860605 0.60580844 1.0597662 0.84872097
0.73804784 1.6299673 1.0328958 0.77792734 1.3982435 1.54093 1.7873335 0.7869724
0.7612193 0.8201435 1.680213 0.8458 0.74386275 0.7527244 0.9764999 1.1533008
0.99531823 0.72594273 0.8037138 0.79033977 0.9280321 0.81301224 0.8579656 0.74926525
0.94799435 1.1407218 1.2932644 0.73738533 0.5946404 1.5986332 1.0411514 0.8138569
0.7822193 0.97088236 0.75994796 0.72476286 1.0941082 2.1217058 0.815928 1.2301902
0.980001 1.3339393 1.5935265 0.95226115 1.1793789 0.7445806 0.5963761 0.82631046
0.6963238 0.7715854 0.7903792 2.0553465 1.8793234 0.7379073 1.2478856 1.1472136
0.92440265 0.6942375 0.85314393 0.8850685 0.8285827 1.01726 0.7778174 1.0216397
1.1895043 0.84019023 1.3644241 2.0009353 0.85569024 0.73077476 0.7729486 0.7523249
0.5617401 0.8175186 1.7569876 0.81967396 1.0687999 0.838614 0.5983674 0.80034965
1.6013365 0.7533901 0.9653897 0.86478037 1.0631226 0.76653236 0.936333 0.9457792
00000000: 32c5 8b3f f431 473f a7c6 553f 02ea 373f
00000010: 3e72 b13f 22a0 0c40 e638 6c3f 027f 4a3f
00000020: a781 8f3f 7bfe 5c3f d9f0 553f 1d80 343f
00000030: d61e 863f da5d 623f 2946 553f 5631 4d3f
00000040: 1901 563f 1868 8b3f 2448 683f 2541 8d3f
00000050: 941f 693f 82bc 9f3f a8bd 503f a212 723f
00000060: b30e 393f ec61 723f f9bb 373f d517 b23f
00000070: 0c98 c83f c021 2a3f d907 483f a679 973f
00000080: 5eed c53f 7a8c 463f ff5a 943f 538f 403f
00000090: 689a 683f 4316 1b3f 6ba6 873f c745 593f
000000a0: b4f0 3c3f c5a2 d03f ee35 843f 3f26 473f
000000b0: a5f9 b23f 323d c53f 58c7 e43f 0677 493f
000000c0: 45df 423f edf4 513f 3811 d73f 5986 583f
000000d0: ca6d 3e3f 8cb2 403f e6fb 793f 5c9f 933f
000000e0: 2dcd 7e3f 62d7 393f 30c0 4d3f b553 4a3f
000000f0: 8393 6d3f 9221 503f a2a3 5b3f d9cf 3f3f
00000100: c2af 723f 2c03 923f b089 a53f 49c5 3c3f
00000110: 5a3a 183f 03a0 cc3f 7344 853f ed58 503f
00000120: 863f 483f bf8b 783f f38b 423f 0f8a 393f
00000130: bd0b 8c3f 07ca 0740 a8e0 503f df76 9d3f
00000140: 58e1 7a3f 86be aa3f adf8 cb3f 63c7 733f
00000150: e3f5 963f d69c 3e3f 1bac 183f 1589 533f
00000160: 4742 323f 9f86 453f 4b56 4a3f cc8a 0340
00000170: ab8d f03f 7ee7 3c3f b7ba 9f3f e5d7 923f
00000180: a7a5 6c3f 8cb9 313f a467 5a3f d993 623f
00000190: ff1d 543f 9335 823f 0b1f 473f 17c5 823f
000001a0: ad41 983f b516 573f 73a5 ae3f 530f 0040
000001b0: 840e 5b3f 0e14 3b3f f6df 453f 5d98 403f
000001c0: 33ce 0f3f e648 513f f8e4 e03f 27d6 513f
000001d0: 6fce 883f 68af 563f 9b2e 193f b7e3 4c3f
000001e0: 98f8 cc3f 2cde 403f c823 773f 3f62 5d3f
000001f0: 6714 883f 773b 443f 85b3 6f3f 961e 723f

module.lin3.parametrizations.weight.original1 f4 [128, 128]
-0.0012225235 0.0002510997 -0.010727671 -0.18168008 -0.004242377 -0.036950044 0.030899808 0.036580782
-0.10220215 0.010566713 0.010138061 -0.08672982 -0.019099584 -0.1668201 0.01992507 -0.10655733
-0.0013403051 -0.028266046 -0.2103302 -0.015876876 -0.07826846 -0.11399693 -0.0011418941 -0.00024942803
-0.021835703 0.044037893 -0.07443705 0.004039569 0.10819553 -0.004597695 0.3600241 -0.22603936
-0.03544664 -0.14423488 0.15439208 -0.00052970095 -0.2540377 -0.013809804 0.0011688615 -0.05310028
-0.14138994 -0.0055291182 -0.046280578 -0.11032631 -0.02915442 -0.29579297 -0.07214169 0.017246788
0.022403087 0.0786237 -0.07152639 -0.07018058 -4.6338846e-05 -0.3104421 -0.007025193 0.029336449
0.041059334 -0.07115344 -0.0011831865 -0.2510932 -0.0016292579 -0.38458276 -0.0056902952 0.018246835
0.08987898 0.006593708 0.0062895636 0.043679498 -0.049983826 -0.024202768 -0.013170276 -0.004068558
0.2605237 -0.0014726307 0.035676405 0.005279033 -0.17346267 0.055483673 -0.01999866 -0.0206731
-0.012226392 -0.015511411 -0.112003714 -0.19651143 -0.022476112 -0.26083606 -1.1009535e-05 -0.14062536
-0.028392734 0.01722337 0.013081462 -0.025685266 -0.11820201 -0.014648904 -0.07480708 -0.00038637407
-4.493719e-05 -0.40137252 0.11879913 0.01228579 0.005826992 -0.0007839146 -0.061793037 0.008303072
0.016461974 0.04816362 -0.24513817 0.030027336 -0.024197731 0.019749591 -0.016010445 -0.033504542
-0.0007310019 0.0049279165 -0.06714136 -0.055397578 -0.045331713 -0.026380347 -0.15030013 -0.05948682
-0.017203107 -0.00935776 -0.085379146 -0.0042375894 -0.022106884 0.12319523 -0.04950897 -0.0048581115
0.012567749 -0.040882505 -0.11590764 -0.07015485 -0.020555886 -0.041196708 0.032467145 -0.19281326
0.06505647 -0.13877854 0.1139573 -0.04245879 0.058762774 -0.050639186 -0.0010083215 0.005695232
0.052821673 -0.011866584 -0.016038729 -0.10570758 -0.031834055 -0.06751916 0.023279965 -0.14516598
-0.019939072 0.011199494 0.16648257 -0.017830046 0.1270969 -0.011446816 0.11222586 0.0056642327
-0.086036906 -0.016718779 -0.09738209 0.02482833 -0.036033254 0.03171963 0.013882042 0.033310518
0.043913744 -0.036661685 -0.015498656 -0.081741996 0.10630165 -0.019499237 -0.05831719 -0.038499743
0.023810403 0.057601936 0.051427037 -0.054541707 -0.03406361 -0.10220217 -0.054252904 0.0043685315
0.07666382 -0.0008685262 -0.008412616 -0.03433876 -0.026114024 0.01736246 -0.053564258 -0.0057244804
0.14677824 -0.0067739035 -0.019604879 0.06075043 -0.045792762 -0.011612552 0.16856068 0.004341997
0.1696021 0.00090894505 0.17464015 -0.026959639 0.051518764 0.1774004 -0.16297898 -0.09495857
0.17065473 0.022886695 0.12263442 -0.008883671 -0.027479786 -0.027439438 -0.09921865 -0.025652478
0.054740302 0.004517267 -0.0056428276 0.049579978 -0.015884694 -0.04265909 -0.039523497 -0.29631823
-0.011201008 -0.016017018 0.29127562 -0.026566224 -0.04782017 -0.033579793 -0.001812562 -0.073577024
-0.19821797 -0.08064059 -0.0034391067 0.0153985685 -0.01894021 -0.112528875 -0.016788324 -0.011045118
0.0565523 0.16766407 -0.012006947 0.002768509 0.02852625 -0.048891213 -0.0022567448 -0.0062542763
-0.025377976 -0.28347206 -0.10338449 -0.034586515 -0.077018455 0.10637109 -0.099496685 -0.042196743
00000000: 153d a0ba 08a6 8339 1dc3 2fbc 580a 3abe
00000010: a303 8bbb ee58 17bd 9821 fd3c bbd5 153d
00000020: 5c4f d1bd 0220 2d3c 1c1a 263c 679f b1bd
00000030: bb76 9cbc e3d2 2abe e739 a33c bb3a dabd
00000040: 2dad afba 328e e7bc cd60 57be 3910 82bc
00000050: 374b a0bd 3977 e9bd 9cab 95ba aac5 82b9
00000060: cae0 b2bc 1461 343d 7472 98bd 5c5e 843b
00000070: 9e95 dd3d 43a8 96bb 1455 b83e dd76 67be
00000080: 7f30 11bd 4fb2 13be f518 1e3e a1db 0aba
00000090: 3b11 82be 8442 62bc 7c34 993a ae7f 59bd
000000a0: 86c8 10be 9b2d b5bb b490 3dbd c3f2 e1bd
000000b0: 40d5 eebc 2d72 97be 06bf 93bd 2349 8d3c
000000c0: ae86 b73c 7605 a13d 6e7c 92bd d6ba 8fbd
000000d0: f55b 42b8 44f2 9ebe 9733 e6bb fe52 f03c
000000e0: d52d 283d e5b8 91bd 2715 9bba 4a8f 80be
000000f0: d38c d5ba 08e8 c4be a875 babb 637a 953c
00000100: 7812 b83d 0810 d83b af18 ce3b 46e9 323d
00000110: d7bb 4cbd e244 c6bc 24c8 57bc 8a51 85bb
00000120: 5d63 853e 4905 c1ba 6c21 123d bdfb ac3b
00000130: 33a0 31be d942 633d 3bd4 a3bc a25a a9bc
00000140: 3451 48bc 9323 7ebc 3462 e5bd 4b3a 49be
00000150: d31f b8bc 4e8c 85be 98b5 38b7 1800 10be
00000160: e197 e8bc 0618 8d3c a153 563c e869 d2bc
00000170: e513 f2bd f501 70bc 7434 99bd 4092 cab9
00000180: f17a 3cb8 b380 cdbe f54c f33d 574a 493c
00000190: 5af0 be3b 9e7f 4dba b21a 7dbd 9c09 083c
000001a0: 43db 863c 3747 453d 8005 7bbe e3fb f53c
000001b0: 523a c6bc e5c9 a13c 5628 83bc 0f3c 09bd
000001c0: b5a0 3fba 5c7a a13b 6981 89bd 92e8 62bd
000001d0: bfad 39bd 991b d8bc 47e8 19be 74a8 73bd
000001e0: 88ed 8cbc 4a51 19bc 43db aebd 7adb 8abb
000001f0: 7f19 b5bc c84d fc3d ebc9 4abd cb30 9fbb
00000200: f6e8 4d3c 6a74 27bd fc60 edbd 59ad 8fbd
00000210: d164 a8bc e1bd 28bd 45fc 043d d770 45be
00000220: 543c 853d f61b 0ebe 7262 e93d 45e9 2dbd
00000230: 3cb1 703d 096b 4fbd a829 84ba 129f ba3b
00000240: 8a5b 583d 106c 42bc a763 83bc 377d d8bd
00000250: 6d64 02bd 7c47 8abd a0b5 be3c 64a6 14be
00000260: 4457 a3bc 157e 373c 687a 2a3e 5110 92bc
00000270: b125 023e 6d8b 3bbc acd6 e53d 079b b93b
00000280: 1e34 b0bd d2f5 88bc 4370 c7bd c864 cb3c
00000290: 9b97 13bd 71ec 013d 8171 633c 9c70 083d
000002a0: e6de 333d 902a 16bd 13ee 7dbc 5968 a7bd
000002b0: aeb4 d93d ddbc 9fbc 01de 6ebd e8b1 1dbd
000002c0: 090e c33c 02f0 6b3d 28a5 523d 2067 5fbd
000002d0: 4986 0bbd 5f4f d1bd 4b38 5ebd e625 8f3b
000002e0: ec01 9d3d cead 63ba 12d5 09bc cda6 0cbd
000002f0: 14ed d5bc b83b 8e3c 3266 5bbd 6c94 bbbb
00000300: 094d 163e 9ff7 ddbb 699a a0bc 71d5 783d
00000310: 3191 3bbd 9342 3ebc 2c9b 2c3e 5047 8e3b
00000320: 2cac 2d3e 4546 6e3a ded4 323e 76da dcbc
00000330: 5705 533d 73a8 353e f6e3 26be a479 c2bd
00000340: 1dc0 2e3e e17c bb3c c127 fb3d d18c 11bc
00000350: 4a1d e1bc acc8 e0bc 2633 cbbd 2525 d2bc
00000360: 5e37 603d 9505 943b 78e7 b8bb 6014 4b3d
00000370: 9e20 82bc 4cbb 2ebd 64e3 21bd 06b7 97be
00000380: 6f84 37bc 1f36 83bc 1422 953e 69a1 d9bc
00000390: 15df 43bd f78a 09bd 7d93 edba 8daf 96bd
000003a0: a7f9 4abe e526 a5bd a362 61bb 474a 7c3c
000003b0: 8028 9bbc 8a75 e6bd ab87 89bc 95f6 34bc
000003c0: 62a3 673d 21b0 2b3e c9b8 44bc e06f 353b
000003d0: e2af e93c 2742 48bd e5e5 13bb acf0 ccbb
000003e0: 79e5 cfbc 4023 91be 3fbb d3bd 97aa 0dbd
000003f0: dabb 9dbd 16d9 d93d ebc4 cbbd 7ed6 2cbd
