DeepSDFStruct/trained_models/primitives/ModelParameters/latest.pth (torch, 241185 bytes, 13 tensors)

lin0.bias f4 [128]
00000000: feca 043e 7f01 7fbd 3e89 63be 8fec 51be
00000010: 8142 4a3d 2ad3 213d 9be9 8c3d 2782 f8bd
00000020: df69 3bbe d5c5 aebd 3b6c e9bd 4938 ecbd
00000030: 384b a1bd cfaa 3cbc bf5a 47bd 632e 493c
00000040: 09c4 98bd 1135 1d3d 565b e1bd b03e ebbc
00000050: 5c15 c93d 8fd3 fcbd 2a7e cbbd a277 a8bd
00000060: 74a5 5abd 0138 52be 1b83 8eba c294 323d
00000070: 43ba 98bd ee19 f6bd eb86 4ebd b84e 2fbe
00000080: 3c04 06be a61a c0bc edfe 73bd 446e 13bd
00000090: a681 0bbe 97a4 febd 83d1 3b3d c873 35bd
000000a0: 5b7b dabd 32e0 f1bc d550 09be 8e7a cdbd
000000b0: 1fc1 7bbd 7de4 debd 3a57 eabc 93c1 8cbd
000000c0: f712 40be 8e01 2fbd d5c3 29bc 3391 af3d
000000d0: 8d3c 05be 40ba c5bd b727 65be 8da8 66be
000000e0: 32bf 50be d2a6 34bd d324 a23d 3fd4 15bd
000000f0: 3889 2cbe 7a12 a9bd 64cd 30be a40a 2fbe
00000100: 7629 1cbe 07b8 6c3d b42f a1bd 46a9 3dbe
00000110: 70d3 47be e910 bebc db11 30be eec4 e6bd
00000120: 0c0e 32be 7a2c 60be 25e9 08be 41eb eebd
00000130: 1298 28be 3e6a 74bd fdf2 3abd a0aa 19be
00000140: 6cd2 51be f01d b53d 77f4 34be 400c 1ebe
00000150: 0ae6 debd da2a 88be bad5 b73c c93f cbbd
00000160: f4bd b4bc 584e efbd 9574 afbd bb6b 24be
00000170: 832f b8bd 4983 6e3c cf05 f9bc f397 61be
00000180: fa6b ffbd 39e3 07be 00a4 0dbe 4388 e9bd
00000190: 3f12 9bbc 4f39 3abe 519c 7fbd cce5 4d3b
000001a0: 84f8 14bd ec2e 993c 4b3e f2bd 769c 8bbd
000001b0: bc6a d4bc 6ebf ddbd 9c44 4bbd 5aa8 8ebd
000001c0: 61f1 00bd 734c a5bd 23b3 2fbd b0af 23be
000001d0: 6b5e 19bd 50bb 36bd e030 de3c 636b 7bbe
000001e0: fbae c1bd 27dd d1bd 2e08 a5bd 55ce a3b9
000001f0: deb7 b7bd 82f1 38bc 49eb cbbd 4c53 85be
0.1296806 -0.062257286 -0.22220322 -0.20500396 0.04937983 0.039508022 0.06880494 -0.121341996
-0.18302105 -0.08533827 -0.113975964 -0.11534173 -0.07875675 -0.011515333 -0.048670527 0.012279126
-0.07459266 0.038380686 -0.11003749 -0.028716415 0.09818527 -0.12345039 -0.09936173 -0.08225943
-0.053380445 -0.20529176 -0.0010872813 0.043598898 -0.074574016 -0.120166644 -0.050421637 -0.17119873
-0.13087553 -0.023450207 -0.059569288 -0.03599383 -0.13623676 -0.12433737 0.045854103 -0.04429987
-0.106680594 -0.02952585 -0.13409741 -0.10033141 -0.06146347 -0.108834244 -0.028606046 -0.06872859
-0.18757235 -0.042726092 -0.010361631 0.085726164 -0.1301138 -0.09654665 -0.22378431 -0.22525235
-0.20385435 -0.044104405 0.0791718 -0.036579367 -0.1684922 -0.08255477 -0.1726585 -0.17093903
-0.15250191 0.05779269 -0.07870427 -0.18521604 -0.19514251 -0.023201423 -0.17194311 -0.1126803
-0.17388171 -0.21891966 -0.13370188 -0.11665965 -0.1646426 -0.059671633 -0.045641888 -0.15006495
-0.20490426 0.08843601 -0.17671381 -0.1543436 -0.1088372 -0.26595193 0.02244078 -0.099242754
-0.022063233 -0.11684865 -0.08567158 -0.16056721 -0.08993437 0.014557668 -0.030398278 -0.2203062
-0.12471767 -0.13270272 -0.13832092 -0.11402943 -0.018929599 -0.18185924 -0.062404934 0.0031417487
-0.036369815 0.018699132 -0.11828288 -0.06816952 -0.025929801 -0.10827528 -0.049625978 -0.06965704
-0.031480197 -0.08071222 -0.042895447 -0.15984988 -0.03744356 -0.04461223 0.027122915 -0.24552684
-0.09457203 -0.102472596 -0.08058201 -0.00031243512 -0.08970617 -0.011288049 -0.099569865 -0.26040113

lin0.parametrizations.weight.original0 f4 [128, 1]
00000000: 082d 4e3f b08b 483f 667b 463f dc18 223f
00000010: 72a5 063f 891f 753f 770e 253f 7af6 123f
00000020: cb75 373f 1fb4 493f f324 593f 1d9d 933f
00000030: 1363 883f 2928 3e3f ec10 7a3f f18f 213f
00000040: 6c4f 483f f372 6e3f b940 483f 727e 273f
00000050: 84ed 4d3f 3d9a 633f 6d18 343f a26a 343f
00000060: 3af4 4a3f 0142 623f dd1f 2e3f 8626 153f
00000070: ce96 403f 8d99 463f eb19 5a3f 52ee 8a3f
00000080: a294 623f 2774 383f 5452 363f 85cb a23f
00000090: 374d 6a3f 3f84 623f 0d90 393f f7f3 183f
000000a0: 5c5e 2a3f 8c08 4e3f c234 783f 45be 0f3f
000000b0: eda0 333f 564f 2d3f 63bf 453f d040 283f
000000c0: aa65 5d3f 3730 283f 9adb 4b3f b775 393f
000000d0: 24ef 5b3f eb74 723f 44b0 403f fb4c 3c3f
000000e0: 6e8c 383f be96 6d3f 2980 1c3f eebf 703f
000000f0: 696d 533f 12a3 433f fbc8 3f3f 9649 293f
00000100: 35d6 363f 9b77 523f 5f37 453f baf3 513f
00000110: a0d2 3a3f c933 2e3f 8771 343f b0fa 5e3f
00000120: 85b1 453f c001 333f 5bf2 473f c8db 503f
00000130: 1282 333f 6541 283f fe4c 303f 69cd 553f
00000140: 16af 213f 20db 373f dc1d 373f 11be 1d3f
00000150: 3766 423f c782 2f3f 239e 493f c5bd 443f
00000160: a104 4d3f 0de1 713f 49c7 8b3f 5482 573f
00000170: 6b21 5e3f f50e 233f faf6 283f 3808 3c3f
00000180: 4fb8 213f 3daa 6b3f ef37 563f 679e 363f
00000190: 5b0e 493f 7ff2 563f 438d 303f 8221 153f
000001a0: 6fa6 4f3f cb1f 413f 9d22 873f 2d6e 3e3f
000001b0: 2fd9 223f 883c 4d3f 209e 233f 41e2 703f
000001c0: 765f 613f 2d4d 4a3f bea5 2f3f ece4 5e3f
000001d0: d8a7 313f c710 4a3f 73e6 503f fc7e 3e3f
000001e0: ea44 693f ef03 573f 7a71 853f 71ff 2d3f
000001f0: 5a5a 663f 14e8 2a3f f871 643f 7913 363f
0.8053746 0.78338146 0.7753204 0.6331918 0.525962 0.95751244 0.64475197 0.57407343
0.7166411 0.7879047 0.84822005 1.1532322 1.0655235 0.7428003 0.9768207 0.6311026
0.7824619 0.9314415 0.7822376 0.65427315 0.80440545 0.88907224 0.7034977 0.7047521
0.7927891 0.88381964 0.6801737 0.5826191 0.7523011 0.7757805 0.851958 1.085398
0.88508046 0.72052234 0.7121937 1.2718359 0.9152407 0.8848304 0.7248543 0.5974726
0.6655023 0.8048179 0.969555 0.56149703 0.7016743 0.6769918 0.7724516 0.65723896
0.8648325 0.6569857 0.7963196 0.72445244 0.85911775 0.9470965 0.7526896 0.7355496
0.7208928 0.9280814 0.61133057 0.9404286 0.8258882 0.764207 0.74916047 0.6612791
0.71420604 0.82213753 0.77037615 0.8201252 0.7297764 0.6804777 0.7048573 0.8710127
0.77224 0.69924545 0.7810418 0.8158536 0.70120347 0.65724784 0.6886748 0.83516556
0.63157785 0.71818733 0.71529937 0.61618143 0.7593722 0.68558925 0.7875692 0.76852065
0.8008519 0.94484025 1.0920192 0.8418324 0.8676974 0.636947 0.66001856 0.7345004
0.6317186 0.9205664 0.836791 0.7133545 0.7853753 0.8396377 0.6896555 0.58254254
0.8111333 0.7543914 1.0557438 0.74386865 0.63612646 0.8017049 0.63913155 0.94095236
0.88036287 0.7902401 0.6861228 0.8706806 0.69396734 0.7893185 0.8160164 0.7441251
0.9112078 0.8399038 1.0425255 0.679679 0.89981616 0.66760373 0.892364 0.7112346

lin0.parametrizations.weight.original1 f4 [128, 67]
00000000: dcf4 743d 9fc4 61be 38d5 643e f72b 52be
00000010: 7b18 3ebe 42ce 3f3e 7963 733e 3789 0dbe
00000020: 1560 4f3e f627 51bd 46bd 823c 5967 0d3e
00000030: f00c b83d d9c8 b53d dacf 8abe 2bcd 8a3d
00000040: f7d5 eb3c a51a 983d d34d 0bbe 67d5 e93d
00000050: ede9 3b3e b8f6 653e dd5a c9be ff45 d8bd
00000060: ac48 7f3d f233 bebb 60a1 fc3d 0535 c2bd
00000070: 4a91 49be 33dc 69bd 508d b93c df0d 31bc
00000080: 1d49 773e 2fe7 f1bc 6574 64be 9d68 0cbe
00000090: 7e38 813d ae42 463e c5c1 933d e621 a2bd
000000a0: da9e 5abd 1b4c 83be b202 45bc baa7 3e3e
000000b0: 740e b3bd 668d 9e3e 9d7c c03c bf62 c1bb
000000c0: acd7 a03c 6379 513c be81 cc3d 1bad 693e
000000d0: dffc 0fbe e559 013e e65f 803d b5a9 013f
000000e0: ce62 f2bd 57c8 c4be 4208 8abe a226 083e
000000f0: 103f c33d 8b74 39be 8c10 9bbe f3df a4bd
00000100: f7cb 0fbc 3c6e f9be b16e 173b 575c 473e
00000110: 7fb7 89bd 0014 6fbe 5c46 89be 30bf eb3a
00000120: 1c73 163e b7a4 0bbd f638 b3bd 9d40 afbd
00000130: 3ed1 ecbd 3f69 60bd 3440 cd3e 26ed c9be
00000140: a955 393c a8c0 bbbe 4879 68be ebad bfbd
00000150: b407 24be 1f64 17be 7724 ef3d 0137 233e
00000160: 2013 85be 3183 55bd 704b 2cbe a5b9 0abe
00000170: cda6 1a3f ae4b 813d fca0 7ebe 9070 cdbd
00000180: 6b37 6fbe 8b30 f83c 4e1d 013f c82b b7bd
00000190: 47c2 083f 1890 17bd 5277 bfbd 0b7b c43c
000001a0: 2e73 94be da6b aa3e 9bf9 863d eaaa a6bd
000001b0: 50eb 553e a98d 9abe 2ba8 713e 031f f6be
000001c0: 81e6 95bd 6658 2fbd b98a 45bd 0869 343d
000001d0: bbbb 4ebe 41f0 ae3e 0f59 e2bd a10d 06bd
000001e0: e929 353e 61b0 0bbd 5b34 933c 030b 873e
000001f0: 81aa b6bd ff98 4f3d 3ddf f03d 03fa 11be
00000200: ea5d d33e 1450 b8bd 9639 953d 5730 ed3c
00000210: 6301 42be d2b4 bcbd 2a06 323d 520f b6be
00000220: f636 56be 2c2d f4bd d637 85be 397b 3b3e
00000230: 31ad 5b3e 54f3 3dbe f138 4d3e 8e41 043e
00000240: ca4d 073c f010 d03d 3c7f 15be ea68 27bd
00000250: 5d69 b8bd 7f5c a63d 61a5 88be 12a2 a4be
00000260: d16a b53e ea61 dbbc 2b0c c3bd 16b8 40be
00000270: 4fc1 0a3e 420c 87be 0034 853e 2ac3 24bd
00000280: ef59 a9bc 407b 1f3e 73ec d1bd dc64 503e
00000290: adc0 3cbc 998b 88be 469a 97be 93f6 a2be
000002a0: fdac 913e 4e3b 9dbe 1a63 72bc 29a8 4cbe
000002b0: c521 c7bc c583 133e 8a67 febd 324f 8bbe
000002c0: 08fd 893d 68d8 3f3e c86d 99be 0b17 acbd
000002d0: 49d7 19bd 0dae ae3d c72c a83e e1d4 c53d
000002e0: 0839 ac3d 8548 1c3e 28bf 4abd 79a1 76be
000002f0: c9f4 003e 900f 04be 0e9a cdbc f4bf aa3d
00000300: a552 c4bd 8d83 be3e 88a4 8a3e 07c3 f03e
00000310: 8a93 59be c679 21be 9789 d6be 24f4 24bc
00000320: 4855 febb 736a 6ebe b4f0 a93d 006e 003f
00000330: 9cfc 753d 6fb7 38be 8a29 953e 34e4 933e
00000340: 702b 863e cad1 0e3c deb6 47be 405a 953c
00000350: 54db fcbd 5226 7fbe a03e a1bb 9ebd 59be
00000360: bb4d 533e c773 b53d 33a4 f6bc 242f c5bc
00000370: 933b db3d 0518 093e 217c 473e 7610 dc3d
00000380: e6b7 103f cea7 cd3d 967b 3ebe bf2e 98bd
00000390: 83c8 5fbe f8b4 c0be 935a 223d 87ee a6be
000003a0: d0ea 8c3d b15b 293c 70bd 08be a0a0 3bbe
000003b0: f55d c1bc 4f62 0f3d fb86 c1bd 3568 093e
000003c0: 4330 713d 235b 303c 03c5 5c3d ac68 103e
000003d0: 1964 5b3d a459 943b 5388 463e f300 9dbd
000003e0: 1c2a 05be dbcc 26be 595d d23d ad8a d2bd
000003f0: 1a7f 8dbd 7ed4 23be 527a 19be c1e7 c63e
0.05980383 -0.22047661 0.22346961 -0.20524584 -0.18564026 0.18731025 0.23768415 -0.13821875
0.20251496 -0.0510635 0.015959393 0.13808955 0.08986843 0.08876199 -0.27111703 0.06777414
0.02878855 0.07426957 -0.13603906 0.114176564 0.18350954 0.22457397 -0.39327136 -0.10560226
0.062325165 -0.005804532 0.12335467 -0.09482769 -0.1968433 -0.057094764 0.02265039 -0.01080653
0.24148984 -0.029529182 -0.22310026 -0.13711782 0.06309603 0.19361374 0.07214693 -0.07916622
-0.05337415 -0.25644 -0.012024568 0.1861867 -0.08742991 0.30967253 0.02349692 -0.005901664
0.01963409 0.0127852885 0.09985684 0.22819941 -0.14061306 0.12631948 0.06268291 0.5064958
-0.11835252 -0.38434097 -0.26959425 0.13295987 0.095335126 -0.18110864 -0.30286062 -0.080505274
-0.008776656 -0.48716915 0.0023106749 0.19468819 -0.06724452 -0.23347473 -0.26811492 0.0017986055
0.14692348 -0.03409263 -0.08751099 -0.08557246 -0.11563347 -0.05478787 0.40088046 -0.39438742
0.011311927 -0.36670423 -0.22702515 -0.09359344 -0.16018564 -0.14784287 0.11676877 0.15938951
-0.25991154 -0.052127067 -0.16825652 -0.1354738 0.6041077 0.06313263 -0.24866098 -0.10031235
-0.23360984 0.030296585 0.5043534 -0.089438975 0.53421444 -0.037002653 -0.093489304 0.023984453
-0.28994125 0.3328541 0.06590577 -0.08138068 0.20890546 -0.30186203 0.23599307 -0.48070535
-0.07319356 -0.042808913 -0.048228 0.044045478 -0.20188801 0.34167674 -0.11052143 -0.03272784
0.17691769 -0.034103755 0.017969301 0.2637559 -0.0891924 0.050683018 0.11761329 -0.14255528
0.41282588 -0.08999649 0.07286374 0.028953714 -0.18945841 -0.09214176 0.04346291 -0.35558563
-0.20919403 -0.11922678 -0.26019162 0.18308724 0.21452786 -0.18549854 0.20041253 0.12915632
0.008258292 0.101594806 -0.14599317 -0.04087154 -0.090044715 0.08123111 -0.26688674 -0.321549
0.35433057 -0.026780088 -0.09523805 -0.18820223 0.13550304 -0.2637654 0.26016235 -0.040225185
-0.020672766 0.1557436 -0.10250177 0.20350975 -0.011520547 -0.26669005 -0.2960989 -0.31828746
0.28452292 -0.30709308 -0.0147941355 -0.19986023 -0.024308095 0.14405735 -0.12422092 -0.2720886
0.06737715 0.18734896 -0.2996657 -0.084028326 -0.037558828 0.08529291 0.32846662 0.09659744
0.08409315 0.15262039 -0.049498707 -0.24085034 0.12593378 -0.12896562 -0.025097873 0.083373934
-0.09586076 0.3720974 0.27078652 0.47023794 -0.21247688 -0.15769109 -0.41901848 -0.010067973
-0.007761631 -0.23282795 0.082978636 0.50167847 0.06005536 -0.18038724 0.29133254 0.28885043
0.26205015 0.00871701 -0.19503352 0.018231511 -0.12346521 -0.24916962 -0.0049207956 -0.2126374
0.2063512 0.088599734 -0.030107593 -0.02407033 0.10704722 0.13388069 0.19480945 0.10745327
0.56530607 0.10041772 -0.18601832 -0.07430791 -0.21853833 -0.37638068 0.03963716 -0.32603857
0.068807244 0.010336802 -0.13353515 -0.18322992 -0.023604373 0.035005864 -0.094495736 0.13418658
0.058883917 0.010763916 0.053898823 0.14102429 0.053562257 0.0045272876 0.19387941 -0.07666197
-0.13004345 -0.16289084 0.10271711 -0.102803566 -0.06909008 -0.15999028 -0.14988068 0.3884869

lin1.bias f4 [128]
00000000: fafe 1a3c 06ea 35bd 0bde 24bd a670 9f3d
00000010: b8a3 eabc d8f4 3dbd 1074 f0bd 48dd ac3b
00000020: 2268 8fbd 80e3 d6bc 5897 0dbe a26d 9e3a
00000030: 9519 ae3d f2d9 aa3d dcfb 2a3d 33cf 20bd
00000040: 9e82 97bc a248 b0bd 9d56 acbd 1b08 e23c
00000050: f9c3 d0bd 043d cb3d a038 413d d530 bdbd
00000060: ba04 25bd 9bb3 08bb b1a9 133d e671 47bc
00000070: 4f43 083d 8fc0 3dbb 44bb 87bd 0cd8 e5bd
00000080: c509 83bd d89d babd aaef babd 3cb7 0d3c
00000090: f825 82bc bf01 a6bd f631 033d f29c f6bd
000000a0: f39f d8bd 24ff b4bd 3bd4 2dbd b016 903c
000000b0: aba0 eebc f4c0 f8bd 7277 653c d8a4 a0bc
000000c0: 9a34 243a 0e65 fbbd 5375 e9bd 7762 283d
000000d0: 3e32 29bc 2709 e4bc 78a5 fabc 7ac5 16bd
000000e0: e425 943c 295f fabd 6c51 03bd 453d 1ebb
000000f0: 9491 cbbd bed8 803c dd41 b0bd 6d5d f6bd
00000100: aae7 93bd 5f05 8cbd 8382 a4bd f36c 00be
00000110: a918 dabd a126 b8bc ef56 f63b d850 2a3d
00000120: 846d e8bd 7e0a 443c cb1a 4abd 1b12 90bd
00000130: 9ae9 41bd ed74 913d 078a d83c ab54 083d
00000140: 0cd4 583d 54c2 683d 0a4e 813d b1b0 283c
00000150: b547 d03c ce71 a7bd f699 f9bd f361 e13d
00000160: 76ca 8cbd ab0c 323d 7e0e a33c 4843 90bc
00000170: d717 1cbd 26ad dabd 82c4 183d 8e06 bcbd
00000180: e9c3 ca3c 0009 07bd 0526 f1bd 40c6 e43b
00000190: ba3a 833d e55a a4bd fb77 fd3c e4ab 9fbc
000001a0: 7ac0 1ebd 52d4 ebbd 7ea1 25bd 1f79 3abd
000001b0: 0c99 dbbd df4a 973a 1e7c c1ba e16d b6bd
000001c0: dda5 4b3d 2cd1 16bd ce90 8a3c 2e1b 66bd
000001d0: e3a3 0bbd 067c 8bbd 41ef a2bb 9bf2 133d
000001e0: 15b3 6ebc e4aa 733d 5aef dd3a 8010 043d
000001f0: ccd7 91bc f57c 733d 9268 18be 386e c4bd
0.009460205 -0.044412635 -0.04025082 0.07785158 -0.02864252 -0.04637608 -0.11740887 0.005275402
-0.07002284 -0.026231527 -0.13827264 0.0012087116 0.08500973 0.08342351 0.041744098 -0.0392601
-0.0184949 -0.086076036 -0.08414958 0.027591756 -0.10193629 0.09923747 0.047173142 -0.092378296
-0.04028771 -0.0020859006 0.036050502 -0.012173152 0.033267315 -0.0028953885 -0.06627515 -0.11222848
-0.06398348 -0.091121376 -0.091277435 0.0086496435 -0.015887246 -0.08105802 0.03203007 -0.12041654
-0.10577383 -0.08837727 -0.042438727 0.017588943 -0.029129347 -0.12146178 0.014005529 -0.019609854
0.0006263942 -0.12275134 -0.11399331 0.04110953 -0.01032692 -0.027836395 -0.03059648 -0.036809422
0.018084474 -0.122251816 -0.03206007 -0.0024145406 -0.09939876 0.01572835 -0.086063124 -0.12029538
-0.07221921 -0.06836962 -0.08032706 -0.12541561 -0.10649235 -0.022479357 0.0075176875 0.041581005
-0.113490134 0.011965392 -0.049341958 -0.07034703 -0.04734192 0.0710238 0.026433004 0.03328387
0.0529366 0.05682595 0.06313713 0.010296033 0.025424818 -0.081760034 -0.12187569 0.110050105
-0.06874554 0.043469112 0.019904371 -0.017610207 -0.038108673 -0.10677557 0.03729678 -0.09180938
0.02475162 -0.032967567 -0.1177483 0.006981641 0.064076856 -0.08025149 0.030941 -0.019491144
-0.03875778 -0.11515106 -0.040437214 -0.045525666 -0.10722551 0.0011542699 -0.0014761721 -0.089076765
0.049718726 -0.036820576 0.016914751 -0.056178264 -0.03409184 -0.06810765 -0.004972369 0.03612004
-0.014569064 0.059489146 0.0016932294 0.032242298 -0.017803095 0.05944534 -0.1488364 -0.09591335

lin1.parametrizations.weight.original0 f4 [128, 1]
00000000: 0ab0 453f 5b8d 3e3f 2465 a33f 256f 2d3f
00000010: b9be 973f 4e77 b43f 6ae6 3b3f 7377 113f
00000020: fded 093f 4ba8 313f bb05 873f 482e 863f
00000030: 84b2 4b3f 30ac 0840 79ad 9c3f eb24 0e3f
00000040: ff46 4f3f 5022 503f 0d68 103f 7ce4 8a3f
00000050: a973 423f 2bf3 793f e402 623f 7bae 0f3f
00000060: a221 083f f9f6 243f 52de 7f3f abab 843f
00000070: ae7d 6d3f e14b 9e3f d732 523f 5995 133f
00000080: d1a8 8a3f 2db2 083f 32ab 003f 728d 8e3f
00000090: 7fd5 4b3f e14a 0a3f 9a4b 873f 796b 123f
000000a0: 5a0f 153f d484 083f 0beb 0d3f dc22 2b3f
000000b0: c128 0e3f e03c 163f 34cb 8b3f 22ea ad3f
000000c0: 7b94 133f 4fba 5d3f e8a1 0d3f 07c2 a83f
000000d0: a26a 523f 8f63 963f afb7 7f3f 9b6c 063f
000000e0: 7346 d03f 1fb3 023f e449 123f 59ee 833f
000000f0: acfe 413f 684b b03f 1a10 173f ad2b 363f
00000100: a397 933f ea2d 933f 6abb 103f d070 0e3f
00000110: 1f82 0e3f 87ff 493f ae78 823f 63c2 493f
00000120: 0a3f 653f e3dc 423f 1b84 3f3f 4880 403f
00000130: d1bb 0b3f b934 a33f 9eba 483f 4d2c c83f
00000140: be77 6e3f 3168 993f 2ddb 7b3f d886 aa3f
00000150: acb0 a13f 4afa 4c3f ea13 603f 6d25 ca3f
00000160: 249e 9a3f 5269 463f 5d13 2e3f 42e3 803f
00000170: 90f0 423f e794 5a3f ef30 853f 4da0 103f
00000180: 23c6 ce3f 3c25 b33f 102b 053f aace ab3f
00000190: 8d53 753f 4c45 613f 4465 6f3f 3d37 263f
000001a0: b98a 083f 2bec 6a3f da19 343f 33da 943f
000001b0: 0682 0d3f 2908 973f 3129 843f c8c6 f13e
000001c0: efb4 923f f0b0 143f 0e36 2a3f 652e 403f
000001d0: 346c 083f f770 753f d0e4 143f 34b3 673f
000001e0: faf4 4e3f e71f 7f3f a3ac 663f 1ee9 323f
000001f0: 30df 533f a2bd 8d3f 53f2 893f bf68 0e3f
0.7722174 0.7443444 1.2765241 0.6774772 1.1855079 1.4098909 0.7339846 0.5682289
0.53878766 0.6939742 1.0548624 1.0482874 0.7956927 2.1355095 1.224044 0.5552508
0.80967706 0.81302357 0.5640877 1.0850978 0.75957733 0.9763667 0.8828566 0.5612561
0.5317632 0.6443935 0.9994861 1.0364889 0.92769897 1.2366906 0.82108825 0.5764976
1.0832769 0.53396875 0.50261223 1.1136916 0.79622644 0.54020506 1.0569947 0.5719524
0.5822655 0.5332768 0.5543677 0.66850066 0.55530936 0.5868664 1.0921388 1.3587077
0.5764844 0.8661241 0.55325174 1.3184212 0.8219396 1.1749133 0.99889654 0.5250947
1.6271499 0.5105457 0.57144 1.0307113 0.75779223 1.3773012 0.59008944 0.71160394
1.1530651 1.1498387 0.5653597 0.5564089 0.556673 0.7890553 1.0193079 0.78812236
0.89549315 0.76118296 0.7481095 0.7519574 0.5458346 1.2750465 0.78409755 1.563852
0.9315146 1.1984922 0.9838131 1.3322401 1.2632041 0.8006941 0.87530386 1.5792671
1.2079511 0.77504456 0.67998296 1.0069354 0.7614832 0.85383457 1.0405558 0.564946
1.6154217 1.3995738 0.52018833 1.3422444 0.95830613 0.87996364 0.93513894 0.64928037
0.53336674 0.91766614 0.70351946 1.1629089 0.55276525 1.1799365 1.0325071 0.4722197
1.1461467 0.58082485 0.6648873 0.7507079 0.53290105 0.95875496 0.5816164 0.9050782
0.80842555 0.99658054 0.9010717 0.6988696 0.8276243 1.1073496 1.0777076 0.5562858

lin1.parametrizations.weight.original1 f4 [128, 128]
00000000: daa4 b5ba ecbb 113e 10e8 ad3e 4151 a0bd
00000010: 6436 f73c 7644 9c3d 289e 48bd e1b6 953d
00000020: 3ab5 13be e903 bd3d a9a7 50bd 4196 113e
00000030: 3f2b 59be a800 853e 22be ba3d 5679 b63e
00000040: cf1f 05be 937a a83d fbf6 3f3d d640 81be
00000050: bf96 c33d 3b6d 1d3e bda4 773c 5b53 2ebe
00000060: eea6 32be 3147 91bc 3f82 d0bd dadd 653d
00000070: b7f4 923d 4f0e 693d f8e8 fc3d 8395 323e
00000080: 0adc 503d c2da 14be f8b5 9cbe 6192 0fbe
00000090: b3dc 8fbe 6272 e6be 9bb7 043e 2439 41bd
000000a0: c81c 32bd 827b 2cbe f5b7 b23d ef4a a1bd
000000b0: 1e3f 2ebe 1604 f6bc 5e8f a1bc c32b 06be
000000c0: 2b28 8c3d 4a68 cbbd 22d0 39be a205 1cbe
000000d0: 4510 23be f55f a2bd 8428 cabe e9d4 f83d
000000e0: c4dc 92bd ec4c fd3e e4ad 99bd fa39 9f3e
000000f0: 1e9a de3a 8151 fe3c 1fa6 8ebe 8385 33bf
00000100: 8aae d13e 237a 153d 52ad 8a3d 7745 35bf
00000110: e2b0 cfbe 55da 233d 3c30 32be ffbe c43d
00000120: 97b8 1c3e 1a5e 92bd ecd4 723d c0c2 b5bd
00000130: 5ab3 803d 6a7a 3d3e fd9b 87bd 1dd8 f8bd
00000140: 2c41 003e 894b d73c bf06 023f 2611 c93d
00000150: 6d08 51be 9fbb 12bf 8bf8 79bd 5d3a 1fbd
00000160: 552c 4abe 4fa2 7b3d 1683 8cbd a562 843e
00000170: b5b5 343d 2434 5ebe 5dcb 13be 465a d83e
00000180: a528 8abe 2567 15bd a7ba e3bb 893c c0bc
00000190: f46b 85be 0fa4 0dbf 8719 b33c 91cf 803e
000001a0: fa9f eebd 4368 3c3e 1952 3fbe f4a4 12bd
000001b0: 2d64 263e 793b 97be 6ee6 a53d d407 823e
000001c0: f137 bfbd a413 683d d07b e53d 6b5c b33e
000001d0: cc48 0ebe 6eb3 823e 02d8 5e3e 4d0e a8bd
000001e0: b058 f6bc 5e7a a3be 4cc3 84bd 1b4c 473e
000001f0: 654d 9cbd f9bf c5bd dad1 ddbe c026 a73c
00000200: 55dd 20bf 7d9d 6d3d 5bf4 1bbd 1f01 7b3d
00000210: 3c71 163e b4c8 c2bd ef76 7d3d ab21 563e
00000220: b853 7abe 0a43 19bc 074a 333e 3ec2 d5bd
00000230: 287e 6a3e d1cf de3d d0d1 2cbe deeb 063d
00000240: 3ccf 263e fc3c 3dbe f84e 243d 0af7 afbe
00000250: 6e69 843b 2421 2abe fe8c 7ebd 34a6 a5be
00000260: 57f0 533d 772f 823d f264 08bd 43ca bfbd
00000270: eeb8 043d 1f3e 3e3c c9c2 923d 9016 fdbd
00000280: e19f 7ebe 20bf ca3d 89d5 a23d f878 a0bd
00000290: 6f3a 3b3d d33d 5f3e 4da6 313e ecc2 e9bd
000002a0: afc9 94bd cd22 063c 1580 793e 3542 1a3e
000002b0: d2c0 6a3d 754c 92be 942b f33c 245a 3e3e
000002c0: b9de 06bd 099a aabe d6fd 8ebd 85f4 6b3e
000002d0: 8ed9 6b3e 36ea 3e3e 0eb9 2a3e 7322 4e3f
000002e0: 7267 26be 7ebe 3fbe b061 b13d c30d 76bd
000002f0: 87ef 8dbe e64d ea3c f722 403e 6485 493d
00000300: 5720 223e cdb6 9b3d 4747 10be 7973 323e
00000310: 19da b23b 0781 843c 6eaa 82bd 4daf b83d
00000320: a414 05be 316b b83e 2c54 2b3d 9b68 5a3e
00000330: 3b99 803e c5ac 9bbe 962c 803e c6ff 403e
00000340: 9b6a 8f3e 37a5 813d 6e76 1cbe 19d4 a1bd
00000350: c8dc f7bd 6fe3 833e b386 193e 2f89 af3e
00000360: 45ae cf3d 2123 2e3e acaa ac3e 19c7 5dbe
00000370: 04e0 1abe 590c 90be 1af1 c8be 3216 8abe
00000380: 2758 203e b16e 323e 82b4 8cbd c0f2 083e
00000390: 4c43 f0bd 00a3 373e 2d75 f1bd 2114 94be
000003a0: a4f7 693d 1e94 63be 0d12 3d3e 68b8 1a3e
000003b0: aff5 1dbd e894 bdbe dd20 afbc eb7c cbbd
000003c0: 9477 19be 622f 58bd 0ab1 d3bd a99b f63d
000003d0: 581f 9a3d 26a4 0abd 2ddc c7bd 502f 68be
000003e0: a6e1 943d 3f48 043e 91f1 f1bd dfcd ca3d
000003f0: 4560 a53e 2686 ec37 02a4 983d 0207 a13e
-0.0013858334 0.14231843 0.33966112 -0.07827998 0.030177303 0.076302454 -0.048978955 0.07310272
-0.14424601 0.092292614 -0.050941143 0.14217474 -0.21207903 0.25977063 0.09118296 0.35639447
-0.13000415 0.08226504 0.0468664 -0.25244778 0.09550237 0.153737 0.01511496 -0.17023985
-0.17446491 -0.017734142 -0.101810925 0.056119777 0.07175582 0.05689841 0.12349123 0.17439847
0.050991096 -0.14536574 -0.3060758 -0.14020683 -0.28098068 -0.45009142 0.12960665 -0.047173634
-0.04348448 -0.1684399 0.08726493 -0.078756206 -0.17016265 -0.030031245 -0.019721683 -0.13102631
0.06843599 -0.09932001 -0.18145803 -0.15236524 -0.15924175 -0.079284586 -0.39484036 0.121499844
-0.07171014 0.4947275 -0.0750387 0.3109892 0.0016983186 0.031044723 -0.27861115 -0.701256
0.40953475 0.03649343 0.067713395 -0.7080912 -0.40564638 0.04000314 -0.17401212 0.09606742
0.1530479 -0.07146855 0.05928509 -0.08875036 0.062842086 0.18503729 -0.06621549 -0.12150595
0.12524861 0.026281135 0.50791544 0.09817724 -0.2041337 -0.5731754 -0.061028045 -0.03887402
-0.19743474 0.061434086 -0.0686094 0.2585651 0.0441186 -0.21699578 -0.14433046 0.42256373
-0.26984134 -0.03647532 -0.006949741 -0.023466365 -0.26058924 -0.5532846 0.021862758 0.2515836
-0.11651607 0.18399148 -0.18683662 -0.035801843 0.16249152 -0.29537562 0.081005916 0.25396597
-0.09336842 0.056659356 0.11205256 0.35031447 -0.13894957 0.2552752 0.21762088 -0.08205853
-0.030071586 -0.31929296 -0.064825624 0.19462626 -0.07631949 -0.096557565 -0.43324167 0.02040422
-0.62837726 0.05801152 -0.038074832 0.061280366 0.14691633 -0.09510937 0.061881002 0.20911281
-0.24445999 -0.009354362 0.17508708 -0.104374394 0.22899687 0.108794816 -0.16876912 0.032939784
0.16289991 -0.18480295 0.040114373 -0.34368163 0.0040408885 -0.16614205 -0.06214618 -0.32353365
0.051742878 0.063567095 -0.033299394 -0.0936475 0.032402925 0.0116114905 0.071660586 -0.12357819
-0.24865676 0.098997355 0.07950885 -0.07835573 0.045710023 0.21800928 0.17348595 -0.114141315
-0.072650306 0.008187008 0.24365266 0.15064318 0.057312794 -0.28573957 0.029683866 0.18589073
-0.03292725 -0.33320644 -0.06982009 0.23042496 0.2303221 0.18644032 0.16672155 0.80521315
-0.16250399 -0.18725011 0.086612105 -0.060071718 -0.27721807 0.028601598 0.18763338 0.049199477
0.15832649 0.07603226 -0.1408969 0.17426862 0.005458128 0.016174806 -0.06380163 0.09017811
-0.12996155 0.3601928 0.04182832 0.21328966 0.25116906 -0.3040525 0.25034016 0.1884757
0.2801102 0.0633034 -0.15279552 -0.079017825 -0.121026576 0.25759456 0.1499279 0.3428435
0.10140661 0.17005588 0.33723962 -0.21657981 -0.15124518 -0.2813442 -0.39246446 -0.2697006
0.15658627 0.17425038 -0.06870367 0.13373852 -0.11731586 0.17933273 -0.11789928 -0.28921607
0.057120934 -0.22224471 0.18463917 0.15109408 -0.03856438 -0.3702767 -0.021377975 -0.099359356
-0.14987022 -0.052779563 -0.10336502 0.120414086 0.075255096 -0.03384795 -0.09758792 -0.22674298
0.072696015 0.12918185 -0.11813653 0.09902548 0.3230001 2.819586e-05 0.07453157 0.3145066

lin2.bias f4 [128]
00000000: a366 aa3c b349 5cbb 499e bfbc 9e95 c6bd
00000010: 255c b0bd d67d 373d 3625 4e3d 3156 86bd
00000020: b3a2 00bd 1059 98bd 8a55 b73c ce26 b0bd
00000030: 7f82 5abd 7a16 c4bd 7013 11bd a345 913d
00000040: 6332 adbc 1c19 68bd cefc 11bd 961a 36bd
00000050: 499f a33d 8db2 fe3c c646 8cbd 569d 343d
00000060: 57f4 adbd 4985 57bb f4e8 47bd 922c 61bd
00000070: 46c5 75bd c8cf 923d 3e8b 71bd f378 8f3c
00000080: 9e21 a9bc 7ed7 01bd aab8 b1bd 8e7c bbbd
00000090: 9c0a 0a3d 586b e5bd a85b 2d3d 6d01 903d
000000a0: e10a 41bd 2930 8cbd 6e98 9fbd 2bff d4ba
000000b0: 4778 91bd 2f9c 65bd 61ca 37bd b75e 843d
000000c0: 9aa1 d73c 69f5 02bd 2641 e7bd dd7e 57bc
000000d0: 4d3e 9dbb f795 033d fedf 8dbd 9f71 99bd
000000e0: e0f0 7e3d 37ee 793d 30ee 98bb 0c7c 75bd
000000f0: d845 8abd 432a 01be 3001 703d 4279 c4bd
00000100: e594 ee3c 4b77 053d 7409 a8bd a6b9 2dbd
00000110: ee94 91bd 2156 ea3c 2289 a3bd bc19 6dbd
00000120: 36d6 9dbd 93bf 61bd 27d0 4ebd 687d 6d3d
00000130: 2d57 c9bd 4b28 dcbd 15a6 91bd ada3 43bd
00000140: a9bb 85bd fae4 8b3d 1180 8abd 005d ccbd
00000150: b885 0f3d 44e2 3c3b 134d 703d ca77 8abd
00000160: 4b41 b7bd 5bf5 03be a276 89bd 308f a43d
00000170: a6cd 9cbd 8c81 9dbd 009b 49bd 7953 90bd
00000180: 0f6e 09bc e252 ecb9 f5b5 acbd 42ad a8bb
00000190: 0344 44bc 4d9d 9bbb 9429 4ebd 620b b6bd
000001a0: 13a2 57bd 8868 273d 2fde b53d dabb 35bd
000001b0: 6aab 11bd cacb babd c0ed 90bd 68ea 1fbd
000001c0: 3065 2cbd 197a b23b 5c4d a5bd f1b9 d1bb
000001d0: a340 82bd b304 14bd bd43 9dbd f1c2 6cbc
000001e0: 2ffa 47bc 1863 92bd ee5a c33c 30e9 56bc
000001f0: 70e3 8bbd 1c2b 613d 8dc8 263d f67e f6bc
0.020800894 -0.0033613264 -0.023390906 -0.09696506 -0.08611325 0.04479774 0.050328456 -0.065594085
-0.031405162 -0.07438862 0.022379655 -0.086011514 -0.053347107 -0.095745996 -0.035418928 0.0709336
-0.02114219 -0.05666457 -0.035641484 -0.044458948 0.079893656 0.031090999 -0.068494365 0.04409536
-0.0849387 -0.003288584 -0.048806146 -0.054974146 -0.060002588 0.071685374 -0.058970682 0.017513728
-0.020645913 -0.03169965 -0.086778 -0.09154616 0.033701524 -0.11202115 0.04232374 0.07031522
-0.047129516 -0.06845123 -0.077927455 -0.0016250362 -0.07103019 -0.05605715 -0.044870738 0.06463378
0.026322175 -0.031972323 -0.11291723 -0.013152805 -0.0047986866 0.03212544 -0.06927489 -0.07492375
0.062241435 0.061018195 -0.004667066 -0.059932753 -0.06751603 -0.12613778 0.058594882 -0.095934406
0.029123733 0.03258447 -0.08204928 -0.042413376 -0.07108484 0.028605523 -0.079851404 -0.05788587
-0.07706873 -0.05511434 -0.05049148 0.057980925 -0.098310806 -0.10749873 -0.07111756 -0.047763515
-0.06529934 0.06830783 -0.06762708 -0.09978676 0.035039634 0.0028821388 0.058667254 -0.06761129
-0.089480005 -0.12886564 -0.067120805 0.08035123 -0.07656412 -0.07690725 -0.049220085 -0.07047171
-0.008388056 -0.0004507518 -0.08433143 -0.005147607 -0.011979106 -0.0047489763 -0.05033262 -0.0888889
-0.0526448 0.040871173 0.08880269 -0.044368602 -0.035563864 -0.09120901 -0.07076597 -0.039041907
-0.042088687 0.005446684 -0.08071396 -0.00640034 -0.06359985 -0.036137294 -0.07678936 -0.0144507745
-0.0122056445 -0.07147807 0.02384707 -0.01311712 -0.0683049 0.054972753 0.040718604 -0.030089837

lin2.parametrizations.weight.original0 f4 [128, 1]
00000000: 177f 4d3f 65e4 953f 1caa 173f 81cb 083f
00000010: fa3a 163f 6fed 533f a1ac 7f3f ba65 013f
00000020: 6bee 613f 14a7 923f fcbc 2040 5c98 163f
00000030: b678 483f 43a7 003f 5d76 0a3f 0e5a 573f
00000040: 733a 0a3f ca55 063f ac16 f33f 6ead 0e3f
00000050: bcd7 8e3f 41df 563f b33f 0e3f 2002 e03f
00000060: 88fd 043f a114 463f 78c0 be3f aa00 8d3f
00000070: d722 0f3f e12d d33f f072 0f3f 2114 b43f
00000080: f274 933f eeb0 143f 4d7d 123f 4dd3 173f
00000090: 9073 5f3f 8f14 0b3f 70ad 483f a2cb 463f
000000a0: f296 193f 3113 6340 c001 103f 5776 d23f
000000b0: 4485 143f bccb 163f 4b23 0f3f e724 ab3f
000000c0: d74c b13f ffdd 123f 36e2 183f ac29 143f
000000d0: 8f0c 123f 5060 b53f 57c9 103f b31f b33f
000000e0: cd64 2040 2dd3 9b3f a527 0540 9f11 0f3f
000000f0: 87bb 003f 50d4 a03f a85e 2040 c7d2 153f
00000100: c7f1 423f 2e59 c33f 9358 1a3f f025 053f
00000110: 40b5 093f 6261 ab3f 9562 0e3f 8506 b23f
00000120: 9bb4 7a3f e559 033f fbe7 053f 2f2d 9a3f
00000130: 77ef 0a3f a30a 893f f3fb 063f 7f95 c03f
00000140: d9c9 063f 1f32 cd3f 2c63 453f 28ac 0e3f
00000150: 27b2 883f 20e4 8f3f 60b7 993f 9877 8d3f
00000160: 6476 0a3f e7ae 773f 4015 7e3f 1ada 1a40
00000170: a589 af3f 77d2 153f 1056 fc3e 833e 103f
00000180: 0946 833f bb28 a83f 72ce 113f 642d a43f
00000190: 12f4 b23f 7e0f 1640 bdd5 153f f3d6 113f
000001a0: 236b 0a3f d938 fa3f efd7 953f eacf 843f
000001b0: 96ef 0b3f f6e9 133f da60 073f 96ef 823f
000001c0: e38c 0c3f 5877 db3f 9621 8a3f 8c4a 223f
000001d0: 8ec1 093f dcdf 8f3f 687e 1a3f 533b 993f
000001e0: 540a a33f ea0e 053f cd63 813f 0f29 753f
000001f0: 413d 053f 336c db3f e9f4 ca3f b31f 8b3f
0.8027205 1.1710325 0.5924394 0.5343552 0.5868374 0.8278417 0.99872786 0.5054585
0.8825442 1.1457238 2.5115347 0.5882623 0.7830919 0.5025522 0.5408686 0.8412179
0.53995436 0.52474654 1.8991294 0.5573338 1.1159587 0.8393441 0.5556595 1.7500648
0.5194936 0.7737523 1.4902487 1.1015828 0.55912536 1.6498376 0.56034756 1.4068643
1.1520064 0.58082473 0.57222444 0.59306794 0.8728571 0.54328245 0.78389645 0.7765447
0.5999595 3.5480464 0.5625267 1.6442364 0.5801585 0.58904624 0.5591323 1.3370637
1.3851575 0.5736999 0.5972017 0.57876086 0.5705041 1.4170017 0.5655722 1.3994049
2.5061524 1.2173821 2.0805447 0.5588626 0.50286144 1.2564793 2.5057774 0.58524746
0.7615017 1.526159 0.60291404 0.52011013 0.5379219 1.3389094 0.55619174 1.390824
0.9793183 0.51309043 0.523071 1.2045039 0.54271644 1.0706371 0.52728194 1.5045623
0.52651745 1.6030921 0.7710445 0.5573144 1.0679368 1.1241493 1.2009087 1.1052122
0.540869 0.96751255 0.99251175 2.4195619 1.3713881 0.5852427 0.4928441 0.56345385
1.0255748 1.313743 0.56955636 1.2826352 1.3980734 2.3446956 0.58529264 0.5696861
0.5406973 1.9548599 1.1706523 1.037595 0.54662454 0.5777887 0.5288216 1.0229366
0.54902476 1.7145796 1.07915 0.63395 0.53810966 1.1240191 0.6034913 1.1971229
1.2737527 0.5197588 1.0108582 0.95765775 0.5204659 1.7142395 1.5855991 1.0869049

lin2.parametrizations.weight.original1 f4 [128, 128]
00000000: 8f03 933c 05e7 37bd 3140 ffbd 8857 fdbd
00000010: 676e 04be 3906 93bc e04f 31be 7151 233d
00000020: c26b 0280 32a7 7c3d e813 53be 29be 39bd
00000030: c33c e73d dfa1 a73d 8168 943d 9249 0000
00000040: a063 b6bd d0b5 6abe b85b 0000 8636 b73d
00000050: 8619 f03c 9acc 3c3e 969b 1e3e 9646 0000
00000060: eb49 0000 e819 833e 6ee3 333e f0df 6dbd
00000070: b0ab fabd 03ea aebe f925 2c3e 3dcc 0080
00000080: 76d9 56b9 fc48 0080 ca49 0080 878b 893d
00000090: d6f3 8c3d 2152 0080 8bb0 97bd 26b7 0080
000000a0: 9a49 0080 5498 0080 c6c6 0080 e958 423d
000000b0: 7757 0000 27cb 0080 4898 f0bd dfce febe
000000c0: 8457 0080 3484 7a3e c26b 0280 4759 53be
000000d0: ece3 873e b07a 07be 3174 dc3c 44cb 0000
000000e0: 92d8 de3d 41cc 0000 4255 0000 08e8 4d3e
000000f0: e1c1 53be 3f95 20be a25b 0080 64b0 3a3e
00000100: 0bf6 6cbe 6295 8dbe 4fcc 0080 77cc 0180
00000110: 22c6 0000 eeb9 083e 0136 633e 0f94 b73d
00000120: cdc0 a4be 1675 033e 4aad 053e 4a45 963e
00000130: 0149 0080 8f32 133e 681b 883d 084a f73c
00000140: bc93 18be 9854 3b3e 558c e7bc 865e 13bd
00000150: 9d4d 4cbe 35b3 993d c232 523e c97d 65be
00000160: 7291 c83d e827 f9bd 3f83 8e3c 713c bd3d
00000170: 67d7 423e d303 543c b57e ad3c 935b 0000
00000180: 87e9 a2be ac80 f3be 26cc 0100 48f1 753c
00000190: e9c5 e9bd ce00 b9bd f7e2 7a3d c99a 743e
000001a0: a349 0080 764c 9cbe 6a36 d8bd 3411 7a3d
000001b0: 2377 0000 ce6d 1dbe 69ca 1a3d 2352 0000
000001c0: 1423 173e 1076 0080 6e1f debd f5fb 13be
000001d0: f7df 0080 8fb7 113d ca6b 0200 61ad d53d
000001e0: 95c8 1a3e 12db 313e 0c5c b5be 45cd 6b3e
000001f0: da33 ce3d 68f6 9a3d dd7f cbbe 14e0 0000
00000200: 8239 523e 516b f93d 696c 46be ea41 36be
00000210: 4c0d 8dbe 3b17 883b d42b 5e3c 5873 28be
00000220: fb37 0280 13f6 1d3d c1a9 9c3d 5a58 3a3e
00000230: beed 023e 2afb b23d d927 653e f5ee 0080
00000240: b71f 84be 695f 4abe 8aef 0080 a4c1 953e
00000250: 7822 25be f329 2d3e e5c8 d93d 0be9 0080
00000260: ea37 0200 abf5 bcbc d819 1abd 1986 cb3d
00000270: 1369 e6bc 1e49 c2be e3df 47bb 60c7 0100
00000280: 3ba7 763e e237 0280 311e 0180 53a2 39be
00000290: 0643 8e3d b3ef 0080 6824 14be 93ef 0000
000002a0: 7fc7 0100 e110 0280 50ef 0000 ab3d e93c
000002b0: 82c7 0100 dcb8 0100 f937 c2be 517e c13e
000002c0: 9f07 0280 0e1b 873e 77c7 0100 12c3 c4be
000002d0: d75d 19be 5f76 9abe 8c8f 57be 5735 0280
000002e0: 66d3 d9ba 13e9 0000 6a86 0200 e8ba a3be
000002f0: d738 f7be bb60 0cbd 72c7 0100 abc0 b83e
00000300: 81b3 c6be f510 fabe 6486 0200 5735 0280
00000310: 1de9 0000 07e2 abbd 5dbe 23bd cd1c 55bd
00000320: 6751 473e 0605 793e d815 5d3e ec34 0c3e
00000330: 49e9 0000 f518 92bd 15fd 5f3c 214e 2abd
00000340: 57d3 ef3d 7dbf 453e 92e2 24be 5d89 8fbe
00000350: 40ef 8fbd 31fd 003e b10b 32bf 756e cb3d
00000360: 7623 cd3d 898d d6bd dd96 8cbd 3c1f ca3d
00000370: ca63 ac3e 3bba 503e 8aa3 9abe 99c7 0180
00000380: 4c1d 60be b433 f93c d7f0 0080 d5aa d23c
00000390: 99e7 a0be 6588 f73b 897a 59bc 0013 0b3e
000003a0: f5ee 0080 5522 2e3e f1e5 8f3d eb9e e9bd
000003b0: d11d 0100 bf50 843d 5645 f53d c186 0280
000003c0: 90a5 d63c 37ef 0000 2db1 adbe e829 aebd
000003d0: 37f1 0080 6a9e a03e 90ef 0000 d8c5 de3d
000003e0: 86eb bebe 4681 9f3e 15bc aa3b 5b41 1b3d
000003f0: 0ae5 333d 1061 0cbe 0ca6 c8be 381e 0180
0.017946033 -0.04489805 -0.124634154 -0.12370211 -0.1293274 -0.017947303 -0.17315626 0.03987259
-2.22327e-40 0.061682887 -0.20613062 -0.045347366 0.11290886 0.08185171 0.07246495 2.6392e-41
-0.08905721 -0.22920918 3.2902e-41 0.089459464 0.029309046 0.18437424 0.15489039 2.5321e-41
2.6517e-41 0.25605702 0.17567226 -0.05807489 -0.12239778 -0.34162912 0.1681136 -7.3267e-41
-0.00020489641 -2.6182e-41 -2.647e-41 0.06716066 0.068824455 -2.9462e-41 -0.0740672 -6.5701e-41
-2.6403e-41 -5.4645e-41 -7.1306e-41 0.047448073 3.1376e-41 -7.2877e-41 -0.11747795 -0.49767205
-3.1395e-41 0.24464494 -2.22327e-40 -0.20639525 0.26541078 -0.13230395 0.026910873 7.2918e-41
0.10881151 7.3272e-41 3.0585e-41 0.20108044 -0.20679428 -0.15681933 -3.2872e-41 0.1823135
-0.23140733 -0.27653033 -7.3292e-41 -1.65184e-40 7.1077e-41 0.13352177 0.2218857 0.08963787
-0.32178345 0.12837633 0.13054386 0.29349738 -2.6189e-41 0.14374755 0.06645852 0.030186668
-0.14900106 0.18293989 -0.028265158 -0.035978816 -0.19951482 0.07504884 0.20527175 -0.22411264
0.097933665 -0.12165815 0.017396567 0.09240044 0.19027482 0.012940365 0.021178583 3.285e-41
-0.31818792 -0.47559106 1.6507e-40 0.015011139 -0.114147015 -0.090333566 0.061251607 0.23887171
-2.6416e-41 -0.30527085 -0.10557254 0.061051562 4.2738e-41 -0.15373918 0.03779069 2.9465e-41
0.14759475 -4.2353e-41 -0.108458385 -0.14451583 -8.0343e-41 0.035575446 2.22338e-40 0.1043346
0.15115578 0.17368725 -0.3542179 0.23027523 0.10068484 0.075665295 -0.3974599 8.0384e-41
0.2052975 0.12178672 -0.19377293 -0.17798582 -0.27549207 0.00415316 0.013560254 -0.1645025
-2.03753e-40 0.038564753 0.076495655 0.18197766 0.12786004 0.08739312 0.22378482 -8.5722e-41
-0.25805447 -0.19762959 -8.593e-41 0.292493 -0.1612643 0.16910534 0.10634021 -8.36e-41
2.03729e-40 -0.023066362 -0.037622303 0.099376865 -0.028126275 -0.3794641 -0.0030498437 1.63358e-40
0.24087231 -2.03718e-40 -1.02666e-40 -0.18128328 0.069463775 -8.5988e-41 -0.14467013 8.5943e-41
1.63401e-40 -1.89726e-40 8.5849e-41 0.028471788 1.63405e-40 1.5815e-40 -0.3793333 0.37791684
-1.86405e-40 0.2638783 1.6339e-40 -0.38430077 -0.14977203 -0.30168435 -0.21050853 -2.02806e-40
-0.0016618788 8.3611e-41 2.3189e-40 -0.31978536 -0.48285553 -0.034271937 1.63383e-40 0.36084494
-0.38808826 -0.48841062 2.31881e-40 -2.02806e-40 8.3625e-41 -0.08392721 -0.039976466 -0.05202942
0.19464646 0.24318323 0.21590364 0.13692063 8.3687e-41 -0.071336664 0.013671179 -0.041578416
0.11710232 0.19311328 -0.16102055 -0.28034487 -0.07028055 0.12596585 -0.6954909 0.099331774
0.10016529 -0.104762144 -0.068647124 0.09869239 0.33669883 0.20383541 -0.30202895 -1.63438e-40
-0.21886176 0.030420162 -8.6397e-41 0.025716225 -0.31426695 0.0075541013 -0.013273844 0.13581467
-8.5722e-41 0.17005284 0.0702628 -0.11407264 1.02532e-40 0.064607136 0.119761154 -2.32012e-40
0.026201993 8.5814e-41 -0.33924237 -0.08504087 -8.6532e-41 0.3137086 8.5939e-41 0.108775795
-0.37289065 0.31153315 0.0052104094 0.037904125 0.0439196 -0.13708901 -0.39189184 -1.02676e-40

lin3.bias f4 [128]
00000000: e86e a23d 3196 393e 67d9 27bd 2648 b83d
00000010: 77c3 90bd fdfb b3bd a0b8 50bd fc7e b3bd
00000020: 7640 a2bd d657 37bd 5458 4bbd 85b6 f43d
00000030: 768b e93d bbf1 d63d 9c45 b2bd b62f c63d
00000040: 5d2d 42bd b35e 0b3e c672 fa3d 7eef dc3d
00000050: d518 f93d df2a 91bc d35e abbd c10a 90bd
00000060: b417 ef3d 53d0 023e e6cd 0bbd 6716 f13d
00000070: fd51 53bd 5b4a 04bd 7da4 cd3d 455e 30bd
00000080: 0f90 07bd a3d4 d03d 2acc a83d 0316 683c
00000090: 5123 083e d870 a6bd e674 c2bd 2193 a6bd
000000a0: c7d6 923d dbc3 3abd c6bd e6bc 9a0d 22bd
000000b0: 490b 173e c6b5 9b3d eb53 cd3d ab93 14bd
000000c0: 9f05 303e 5dd9 dd3d 0cc7 f13d 80b7 77be
000000d0: ff98 f93d d603 1c3e ac2e 5ebc 9a58 183c
000000e0: 6963 eb3d 73fc 97bd fcfa 0c3e 4387 a0bd
000000f0: 0f2b ac3d ca5b dc3d c39f 65bd 23ad 1dbd
00000100: ffed 063e 0951 8ebd 1254 13bd b5f7 ed3d
00000110: e1a0 a9bd f655 423e 4da1 063e 6979 80bd
00000120: 5e60 db3d c39c 8dbd 51bc 4fbd 6079 0dbd
00000130: 86f8 003e a88a 82bd 18d7 fb3d b543 c83d
00000140: 289c 093e f911 c8bd 9daf 00bd 876e 41bd
00000150: 7107 a0bd 77aa 2a3e d7ce 9b3b a753 70bd
00000160: 57df 69bd 21be be3d 00fa f63c 87c1 55bd
00000170: e245 8bbd eb4f a3bd 26e3 e53d 9443 d53d
00000180: 8dae c0bd 1e44 c3bd e4b5 863d b96b 113e
00000190: 049f 8fbd 618f 93bd 09e1 233e adc4 0f3e
000001a0: 4c95 a9bd a483 ce3c 830d 9dbd f544 5dbd
000001b0: 387c 4ebd f8b5 2f3d 5355 afbd 6be8 40bd
000001c0: d109 04be f40b 8dbd 6c62 743d 8486 13bd
000001d0: 0052 323e e38f a23d e50f f7bc 7242 0ebd
000001e0: 32b0 9fbd 2612 78bd 4043 84bd f1e1 193e
000001f0: 47ec 063e 6f80 073e 2c21 b0bd a936 6d3d
0.0793131 0.181237 -0.040978815 0.08998136 -0.07068532 -0.08788297 -0.050957322 -0.08764455
-0.07922451 -0.0447615 -0.049644783 0.11948875 0.11403553 0.10495325 -0.08704683 0.09677069
-0.047406543 0.13610344 0.122289225 0.10787867 0.121629395 -0.017720638 -0.08367696 -0.07033301
0.11674443 0.12774782 -0.034131907 0.11771851 -0.051591862 -0.032297473 0.10041139 -0.043058652
-0.03309637 0.10196807 0.08242066 0.014165404 0.13294722 -0.08126992 -0.09494953 -0.08133531
0.07169872 -0.04559694 -0.028166663 -0.039563753 0.14750399 0.0760303 0.10025772 -0.03627364
0.17189644 0.108324744 0.11805543 -0.24191093 0.12187385 0.15235838 -0.013560932 0.009298468
0.1149357 -0.07421198 0.13767618 -0.07838299 0.0840665 0.10759695 -0.056060564 -0.038495194
0.13176726 -0.0694905 -0.035968848 0.11619512 -0.08282638 0.18978104 0.13147469 -0.06273157
0.1071174 -0.069146655 -0.050716702 -0.03453958 0.12594804 -0.06374103 0.12296885 0.09778539
0.13438475 -0.09769053 -0.031417478 -0.047224548 -0.07813919 0.1666659 0.004754882 -0.058673527
-0.05709776 0.09313608 0.030148506 -0.052186515 -0.068004385 -0.079742275 0.11224966 0.1041328
-0.09408293 -0.09534477 0.06577662 0.14201249 -0.07012752 -0.07205082 0.16003813 0.1403987
-0.08280429 0.025209256 -0.07668593 -0.05402084 -0.050411433 0.04289815 -0.08561196 -0.04709665
-0.1289437 -0.068870455 0.059664175 -0.036016956 0.17414093 0.079376005 -0.030158946 -0.034731336
-0.077972785 -0.060564183 -0.064581394 0.15027596 0.1317607 0.13232587 -0.08600077 0.057913456

lin3.parametrizations.weight.original0 f4 [128, 1]
00000000: 307f 0e40 b4f3 0940 b873 173f 1add 733f
00000010: 8909 093f 344d 183f ba18 113f 63e5 0c3f
00000020: df2a 1b3f e610 2f3f 9c3c 103f e56a 473f
00000030: 7b0b 5c3f 0ab1 543f 4683 113f 76b0 3a3f
00000040: 7f9c 193f 426a 923f f8b7 9d3f 3898 3e3f
00000050: 71af 5d3f 4aa8 5b40 c53d 0b3f 6e2e 0f3f
00000060: c80c 663f a7bc 583f 40e2 1040 8fce a33f
00000070: 2f08 173f 0d11 163f e38f 6f3f 74ab 103f
00000080: 5790 033f 8d06 443f d434 a33f 0f01 193f
00000090: 6f6b 5f3f f9b6 063f 0a19 0c3f 8430 0f3f
000000a0: 3cea c93f 3b23 163f 7fd5 0a3f fc17 203f
000000b0: 892e 883f 5c14 a13f 7e6a 623f 52a8 153f
000000c0: 5485 8f3f 5251 5f3f f8ff 733f f79c 993f
000000d0: 943f 5c3f 7668 713f c933 103f 9a2a 133f
000000e0: 3746 513f 1b15 133f 55c8 693f 30d7 1e3f
000000f0: f85f 423f ab8d ab3f 7242 103f 888b 093f
00000100: ec06 713f c2f6 113f a65c 1d3f 76d9 643f
00000110: f874 123f ed98 5040 5be8 773f c1fa 123f
00000120: acd2 763f 065e 133f 9f33 113f 95ec 093f
00000130: 515a 693f dfb2 1d3f 583e b33f 0973 413f
00000140: 8df5 703f 672f 193f f2e6 0e3f 7217 143f
00000150: d653 053f a3a1 8b3f 5d2d 093f a97b 133f
00000160: 61da 0b3f 1649 413f 25fe 3d40 8aba 0c3f
00000170: c078 133f fec2 193f 9578 0740 ca26 443f
00000180: 023a 113f 01e0 093f 085a 1040 16b4 6d3f
00000190: 9b77 053f 9450 163f f958 823f 56a7 7e3f
000001a0: 0616 243f 4b44 bc3f 76e8 0e3f cab9 053f
000001b0: fe6b 143f 545f 463f a924 0e3f 3742 043f
000001c0: 4089 0c3f 965c 073f 481a 0e3f 7651 153f
000001d0: 1f91 8f3f 3e31 2740 cabc 083f bef8 143f
000001e0: 2dbd 073f 35db 0e3f ccad 0c3f eb01 843f
000001f0: 9468 6a3f 34e9 683f 4b20 0f3f be3f 0740
2.226513 2.1554995 0.5916095 0.9525925 0.53530174 0.594928 0.56678355 0.55037516
0.6061229 0.6838516 0.5634248 0.77897483 0.8595502 0.8308264 0.5684093 0.7292551
0.6000442 1.1438677 1.2321768 0.7445102 0.8659583 3.4321465 0.5439113 0.5593022
0.8986325 0.8466286 2.2638092 1.2797412 0.5899686 0.5861977 0.9357893 0.56511617
0.5139212 0.76572496 1.2750497 0.5976724 0.87273306 0.52622944 0.54725707 0.55933404
1.5774608 0.5864751 0.5423202 0.625366 1.0639201 1.2584338 0.88443744 0.5845996
1.1212564 0.8723346 0.9531245 1.2001027 0.8603451 0.9430002 0.5632902 0.5748688
0.81747764 0.5745408 0.9132131 0.620471 0.75927687 1.3402609 0.5635139 0.5372853
0.94151187 0.5701715 0.61469495 0.8939432 0.5720973 3.2593338 0.9683892 0.5741387
0.9641521 0.57565343 0.5671939 0.5387662 0.91153437 0.6160106 1.4003401 0.75566155
0.9412468 0.59837955 0.55821145 0.57848275 0.5208105 1.0908703 0.53584844 0.57610565
0.54630095 0.75502145 2.9686368 0.54972136 0.57606125 0.6006316 2.1167347 0.7662169
0.5672914 0.5385743 2.255495 0.92852914 0.5213563 0.587167 1.0183402 0.99474084
0.64096105 1.4708341 0.5582346 0.52236617 0.57977283 0.7748921 0.5552469 0.51663536
0.54896927 0.5287565 0.5550885 0.58327425 1.1216162 2.6123805 0.5341307 0.5819205
0.53023034 0.55803233 0.54952693 1.0313085 0.91565824 0.9098084 0.5590865 2.1132655

lin3.parametrizations.weight.original1 f4 [128, 128]
00000000: 58fc 4fbc 07a1 b7bd a03f 0000 b43f 0080
00000010: fa26 0000 58ba 9cbd 5d86 663e c33e 0080
00000020: 8f01 1bbf c5be 84be 52e1 263e b745 0000
00000030: 8520 063e e23e 0000 9148 0080 5468 ffbd
00000040: c246 0000 9f47 0080 6a4d 35bf 653f 0080
00000050: 004f 093e 594c 39bc 5944 0000 9877 9cbe
00000060: 2e46 0000 f0bc 5cbc da8a 073e 40cc 8dbd
00000070: c845 0080 22db b3be b536 0080 4a0a ab3d
00000080: 3bc8 983e 7f45 0080 8d45 0000 b647 0000
00000090: 9490 b9bd 7f65 0080 414f ddbd a1a3 b4bd
000000a0: 0144 0000 9023 8ebe be43 0080 4873 bdbe
000000b0: 1343 0000 3046 0000 6037 0080 4656 f0bd
000000c0: 6e45 173e 1c46 0080 c047 0000 e663 0080
000000d0: 9f36 0000 ee99 333e fe47 0000 988b bfbe
000000e0: af84 833d 1fac b8be d7ca b43d a647 0080
000000f0: 1f45 0000 c35c d3be 7bfb aa3d 2740 0080
00000100: 3a05 94bd bf8e febe 8d3e 0080 fc45 0000
00000110: 1643 0080 b672 5d3e 0046 0080 1e34 21bf
00000120: abe7 39bd 0a47 0000 1465 0000 88a9 c43d
00000130: 4144 0000 4a79 553b da48 0000 1b78 06bf
00000140: cf38 0000 52a9 70be f40f 65bc ee3f 0080
00000150: eb58 64bd d8a3 45be 04b5 f4bd db4d ce3d
00000160: 063f 0080 c163 18be d029 6a3b e836 273e
00000170: 91cd fbbd f843 0000 ce47 0000 ca47 0000
00000180: 8132 d33d b47a bbbd 313f 0080 ac63 a13e
00000190: c6ad c5bd f8e0 b7bd 5f75 0080 7765 0080
000001a0: 6547 0000 85dd a5be 4088 0abf af5a 0abf
000001b0: 445d 0080 df48 0080 a466 0000 2c56 25bb
000001c0: 4a47 0080 90b3 abbe 3f83 86be 4d3f 0000
000001d0: 8b43 0000 654d 95be bc3f 0080 966d 66be
000001e0: 1d7a 58be 2846 0080 718d ef3d 3f1d 28bd
000001f0: 5a36 0000 95ae 873e 6241 173e 2942 15bf
00000200: 0e2c 6fbe e83d e13d a447 0080 364e 0080
00000210: 106b 0000 465a 10bf 2165 18be 2068 0080
00000220: 4ca3 56be 42af 78be ddd5 413e ee4d 0000
00000230: c65c de3d 0b4e 0000 af55 6d37 b7fb 0abd
00000240: ad40 0080 9f47 0000 b183 52bb 26a9 5e34
00000250: 7918 08bd f19c c6bc 3567 0000 a582 c3bd
00000260: 276e 0080 7e99 c8be 7621 aabd 62c5 853e
00000270: 47ec 84b6 3ddc 4f3d 4c47 0080 4d15 1d3e
00000280: 948d 863e be52 0000 2368 0000 e34c 0000
00000290: dab3 03bf ac1d 0000 e03b d8bd 442f e4bd
000002a0: fa47 0080 0e9d 263d 3f4d 0000 f645 933d
000002b0: a940 0000 ed80 0000 554e 0080 91b0 a3bf
000002c0: a8cd 153d 8c4c 0080 f254 0000 f256 0000
000002d0: 576c 0000 b24d 5c3e 3049 0000 94b8 6bbd
000002e0: 45af 753e a42d d7bd 789e 023e 2854 0000
000002f0: ee2f 0000 6247 17be c7c9 4e3e 7f7f 0080
00000300: 810d 2dbc 3b8e 8cbd f756 0080 5d69 0080
00000310: ad40 0080 c074 e73d 6339 0080 492c 88bd
00000320: 3a1d 1d3e 6b3f 0080 8057 0000 7e65 5cbf
00000330: e76a 0000 b024 eebd 1d55 0080 d0bd 48bd
00000340: 6f25 b236 60fa cebd a223 33bc ce56 0080
00000350: 69e0 52bd a6a0 86bd 1457 5cbf f65c b23e
00000360: cd56 0080 7aae 803e 151a 8f3e 365b 413e
00000370: 6dfe 16be f096 9438 5057 0080 4357 0080
00000380: d2f9 453e f5bd e4bd b76b 0000 3360 843d
00000390: 7261 ed3d be48 fd3c 6f69 0080 d654 0000
000003a0: 536e 0000 d058 183d bcdf 82be 3da2 36bd
000003b0: 8266 0000 556e 0080 5d33 0080 2776 733e
000003c0: 8a42 0000 9de5 08be 103b eebd 0741 0080
000003d0: 7f5e fc35 e328 cb3d c54c 0080 0764 4e3d
000003e0: 2076 883e 184e 0000 7a27 7fbe bae4 ce3d
000003f0: d84d 0080 f69e 1abc e66b 633e 4c69 bdbd
-0.012694441 -0.089662604 2.2824e-41 -2.2852e-41 1.3982e-41 -0.0765273 0.22512193 -2.2515e-41
-0.60549253 -0.25926796 0.1629689 2.5009e-41 0.13098343 2.2558e-41 -2.6032e-41 -0.12471071
2.5383e-41 -2.5693e-41 -0.7082125 -2.2742e-41 0.13409042 -0.011309707 2.4519e-41 -0.30559993
2.5176e-41 -0.013472781 0.13236561 -0.06923723 -2.5033e-41 -0.35128123 -1.9625e-41 0.08351572
0.29840264 -2.493e-41 2.495e-41 2.5725e-41 -0.09060779 -3.641e-41 -0.10806132 -0.08820272
2.4395e-41 -0.27761507 -2.4301e-41 -0.37002015 2.4062e-41 2.5179e-41 -1.9865e-41 -0.11735205
0.14772579 -2.515e-41 2.5739e-41 -3.5837e-41 1.9594e-41 0.17539188 2.5826e-41 -0.3741119
0.06421792 -0.36068818 0.08827751 -2.5703e-41 2.4796e-41 -0.4128171 0.08348747 -2.3014e-41
-0.072275594 -0.49718282 -2.2439e-41 2.5106e-41 -2.4066e-41 0.2162579 -2.5111e-41 -0.6297015
-0.04538695 2.5484e-41 3.626e-41 0.09602648 2.4485e-41 0.0032573515 2.6134e-41 -0.52527016
2.0379e-41 -0.2350209 -0.013980854 -2.2934e-41 -0.05574886 -0.19300783 -0.119485885 0.100734435
-2.2609e-41 -0.14881803 0.0035730489 0.16329539 -0.12295068 2.4383e-41 2.5759e-41 2.5753e-41
0.10312367 -0.09154263 -2.2669e-41 0.31521356 -0.09652285 -0.08978456 -4.2105e-41 -3.6399e-41
2.5612e-41 -0.32395568 -0.5411415 -0.5404462 -3.3457e-41 -2.6141e-41 3.682e-41 -0.0025228364
-2.5574e-41 -0.33535433 -0.26272008 2.2708e-41 2.423e-41 -0.2916061 -2.2864e-41 -0.22502741
-0.21140333 -2.5167e-41 0.116969 -0.041043516 1.9498e-41 0.26500383 0.14771035 -0.5830408
-0.2335665 0.10998136 -2.57e-41 -2.8057e-41 3.8407e-41 -0.56387746 -0.14882328 -3.7353e-41
-0.2096073 -0.24285606 0.18929239 2.7956e-41 0.10857539 2.7997e-41 1.4146251e-05 -0.03393146
-2.3201e-41 2.5693e-41 -0.0032121951 2.0736897e-07 -0.033226464 -0.024244757 3.7024e-41 -0.09546403
-3.9515e-41 -0.39179605 -0.083071634 0.26127154 -3.961413e-06 0.050747145 -2.5576e-41 0.15340157
0.2627989 2.9682e-41 3.7357e-41 2.7582e-41 -0.51446307 1.0644e-41 -0.10558295 -0.11141828
-2.582e-41 0.040677123 2.771e-41 0.07191078 2.3196e-41 4.625e-41 -2.81e-41 -1.2788259
0.036573082 -2.746e-41 3.0473e-41 3.119e-41 3.8865e-41 0.21514013 2.6255e-41 -0.057549074
0.23992641 -0.10506752 0.12755764 3.019e-41 1.7194e-41 -0.14773324 0.2019416 -4.5737e-41
-0.010562302 -0.06863066 -3.1197e-41 -3.7797e-41 -2.3201e-41 0.11301565 -2.0586e-41 -0.06649072
0.1534318 -2.275e-41 3.1389e-41 -0.86092365 3.835e-41 -0.11628091 -3.0533e-41 -0.049009144
5.3091712e-06 -0.10106349 -0.0109337885 -3.114e-41 -0.051483545 -0.0657361 -0.8607037 0.3483655
-3.1138e-41 0.25133115 0.27949587 0.1888245 -0.14745493 7.085304e-05 -3.1322e-41 -3.1304e-41
0.1933358 -0.11169044 3.8641e-41 0.06463661 0.11590852 0.030918475 -3.7822e-41 3.0433e-41
3.9577e-41 0.037194073 -0.2556132 -0.044588316 3.6773e-41 -3.958e-41 -1.8426e-41 0.2377554
2.387e-41 -0.1336884 -0.11632359 -2.3327e-41 1.8802965e-06 0.09919908 -2.754e-41 0.050388362
0.26652622 2.8015e-41 -0.24917403 0.1010222 -2.7925e-41 -0.009437313 0.22209129 -0.092485994
