DeepSDFStruct/trained_models/test_experiment/LatentCodes/latest.pth (torch, 1367 bytes, 1 tensors)

weight f4 [20, 1]
0	0x3ee3546f	0.44400355
1	0x3f07be9a	0.5302521
2	0xbf7d26b7	-0.988872
3	0x3f4cb260	0.7995968
4	0xbda205bf	-0.07911252
5	0xbcb4663e	-0.02202141
6	0xbe3e68c5	-0.18594654
7	0xbf7f2014	-0.9965832
8	0xbdf8c4dd	-0.12146924
9	0x3f79d283	0.9758684
10	0xbf6d1cd8	-0.9262214
11	0x3f7ba65b	0.98300713
12	0xbf7f1e23	-0.9965536
13	0x3f0da60f	0.5533151
14	0xbea9f4db	-0.33194622
15	0xbf7f886a	-0.99817526
16	0xbf0f608f	-0.5600671
17	0xbf55a9d2	-0.8346225
18	0xbe1026d6	-0.14077315
19	0xbdec09dd	-0.11525319
