DeepSDFStruct/trained_models/test_experiment/LatentCodes/latest.pth (torch, 1762 bytes, 1 tensors)

weight f4 [20, 1]
00000000: 57c5 103e bb98 ccbd 86a3 35bf 1fb7 3f3f
00000010: 08e5 c03e 22d0 7dbf cd1e 363c 01ee a83e
00000020: 85dd 923e c6d9 62bf 2497 1abe f7cd 4cbf
00000030: eb07 e2bd 4502 7ebf 2f4e 18be f62b 5fbd
00000040: a2eb 06bf 26ff 433d dc7b f0bc a562 3fbf
0.14137779 -0.099900685 -0.7095264 0.74888796 0.37674737 -0.9914571 0.011115742 0.32994083
0.2868463 -0.88613546 -0.15096718 -0.8000178 -0.110366665 -0.99222213 -0.14873575 -0.054485284
-0.527033 0.04785075 -0.029355936 -0.74759895
